results/Run00/OpponentML.onnx (onnx, 54547 bytes, 11 tensors)

60 f4 [120]
0.19614178 0.00047397063 0.00047397063 0.00047397063 0.414106 0.38783592 0.26168597 0.00047397063
0.00047397063 0.00047397063 0.4351775 0.39574137 0.16889657 0.00047397063 0.00047397063 0.00047397063
0.40685397 0.38689646 0.28085777 0.00047397063 0.00047397063 0.00047397063 0.4420051 0.39631814
0.18851046 0.00047397063 0.00047397063 0.00047397063 0.4305041 0.40525076 0.2024657 0.00047397063
0.00047397063 0.00047397063 0.36909184 0.33231544 0.27023277 0.00047397063 0.00047397063 0.00047397063
0.39939043 0.34586212 0.17510141 0.00047397063 0.00047397063 0.00047397063 0.35860807 0.33022624
0.2901073 0.00047397063 0.00047397063 0.00047397063 0.4092582 0.34743857 0.19536024 0.00047397063
0.00047397063 0.00047397063 0.39116699 0.3568613 0.20856045 0.00047397063 0.00047397063 0.00047397063
0.30719632 0.2520874 0.2783988 0.00047397063 0.00047397063 0.00047397063 0.35171095 0.27575964
0.18104139 0.00047397063 0.00047397063 0.00047397063 0.29163197 0.2478219 0.29894847 0.00047397063
0.00047397063 0.00047397063 0.36590552 0.27906904 0.20195654 0.00047397063 0.00047397063 0.00047397063
0.33798116 0.28897628 0.21439011 0.00047397063 0.00047397063 0.00047397063 0.2143908 0.09846549
0.28621182 0.00047397063 0.00047397063 0.00047397063 0.28621238 0.16087507 0.18677747 0.00047397063
0.00047397063 0.00047397063 0.1867792 0.08224224 0.30739665 0.00047397063 0.00047397063 0.00047397063
0.3075216 0.16875862 0.20832446 0.00047397063 0.00047397063 0.00047397063 0.2625678 0.1805966
00000000: 64d9 483e 437f f839 437f f839 437f f839
00000010: b405 d43e 6e92 c63e b4fb 853e 437f f839
00000020: 437f f839 437f f839 96cf de3e 9d9e ca3e
00000030: 39f3 2c3e 437f f839 437f f839 437f f839
00000040: 2a4f d03e 4b17 c63e 97cc 8f3e 437f f839
00000050: 437f f839 437f f839 7e4e e23e 36ea ca3e
00000060: e308 413e 437f f839 437f f839 437f f839
00000070: 096b dc3e 077d cf3e 2b53 4f3e 437f f839
00000080: 437f f839 437f f839 9bf9 bc3e 4025 aa3e
00000090: f35b 8a3e 437f f839 437f f839 437f f839
000000a0: e77c cc3e d714 b13e c94d 333e 437f f839
000000b0: 437f f839 437f f839 7a9b b73e 6a13 a93e
000000c0: f288 943e 437f f839 437f f839 437f f839
000000d0: 4a8a d13e 78e3 b13e 840c 483e 437f f839
000000e0: 437f f839 437f f839 0a47 c83e 86b6 b63e
000000f0: df90 553e 437f f839 437f f839 437f f839
00000100: d648 9d3e 9a11 813e 4a8a 8e3e 437f f839
00000110: 437f f839 437f f839 7513 b43e 5e30 8d3e
00000120: ea62 393e 437f f839 437f f839 437f f839
00000130: c950 953e 06c5 7d3e c60f 993e 437f f839
00000140: 437f f839 437f f839 f857 bb3e 23e2 8e3e
00000150: b2cd 4e3e 437f f839 437f f839 437f f839
00000160: de0b ad3e b3f4 933e 1589 5b3e 437f f839
00000170: 437f f839 437f f839 4389 5b3e 46a8 c93d
00000180: 5b8a 923e 437f f839 437f f839 437f f839
00000190: 6e8a 923e 6fbc 243e 9842 3f3e 437f f839
000001a0: 437f f839 437f f839 0c43 3f3e 9f6e a83d
000001b0: 1863 9d3e 437f f839 437f f839 437f f839
000001c0: 7973 9d3e 0fcf 2c3e 0253 553e 437f f839
000001d0: 437f f839 437f f839 496f 863e 51ee 383e

63 f4 [11]
128.35739 66.75234 127.06367 0.49170125 0.5044309 0.5090608 0.49222627 141.03027
55.80899 140.41786 0.59252876
00000000: 7e5b 0043 3381 8542 9920 fe42 44c0 fb3e
00000010: 6222 013f cf51 023f 1505 fc3e c007 0d43
00000020: 683c 5f42 f96a 0c43 f7af 173f

action_model._continuous_distribution.log_sigma f4 [1, 2]
-0.68759876 -0.728746
00000000: 7906 30bf 198f 3abf

action_model._continuous_distribution.mu.bias f4 [2]
0.03167514 0.21504949
00000000: cbbd 013d ef35 5c3e

action_model._continuous_distribution.mu.weight f4 [2, 64]
-0.09563696 0.06618527 -0.08771087 0.0647078 -0.041326266 0.09373484 -0.13106163 -0.10680618
-0.25081712 0.08116859 0.07016625 -0.10913559 0.18755119 0.012778409 0.011641748 0.11808541
-0.06739091 -0.05662344 -0.075049356 -0.11452903 0.0006815596 0.02783954 -0.08214106 -0.07939708
-0.12205492 -0.087427 0.07165102 0.090345375 -0.07309524 -0.007015179 -0.10063535 0.05570235
0.022292476 -0.040110786 0.10596646 -0.12110165 0.011494123 -0.0016864842 -0.016431822 0.11252746
-0.09600262 -0.10625276 0.0015095026 0.101644464 0.013913738 -0.009087896 0.021279233 -0.026511123
0.13418598 -0.05274067 -0.07748924 -0.16682594 0.10514471 0.030799644 0.083151855 -0.062243953
-0.022635665 -0.04739141 -0.21548581 0.012027488 0.03941866 -0.08288554 -0.03485738 0.12478445
-0.029424792 0.04568109 -0.047878847 0.02334613 -0.118468955 0.05707749 -0.06496649 -0.1766262
-0.115221225 0.005643488 0.14027879 -0.13444719 0.09841308 0.06756559 0.018845221 -0.014767065
0.023761872 -0.042311117 -0.117459565 0.024524102 0.17698391 0.0894974 0.12843482 -0.04169709
0.11272631 -0.19313188 0.04224497 0.029200496 -0.160774 -0.20276831 0.051815383 0.067594014
-0.14372545 0.07027345 0.023670664 0.06895424 0.032303847 0.12389758 0.022231895 0.08187887
0.07533195 -0.18491559 0.07277109 0.003647265 0.014820976 -0.13436972 0.13445437 0.036752436
0.038868617 -0.1750426 -0.33411363 -0.18292704 0.12417648 -0.18928401 0.003851023 0.08247348
-0.22768891 -0.1712616 0.084674746 0.05346078 0.029514516 -0.08620497 -0.17663367 0.058784865
00000000: 4fdd c3bd 258c 873d c2a1 b3bd 8685 843d
00000010: bb45 29bd 0df8 bf3d 0535 06be 33bd dabd
00000020: 1a6b 80be b83b a63d 53b3 8f3d 7b82 dfbd
00000030: 6b0d 403e 885c 513c 08bd 3e3c c3d6 f13d
00000040: 3f04 8abd fbed 67bd 7ab3 99bd 328e eabd
00000050: b1aa 323a bf0f e43c 9239 a8bd f09a a2bd
00000060: eef7 f9bd ed0c b3bd c5bd 923d ff06 b93d
00000070: f5b2 95bd 96df e5bb e819 cebd 2628 643d
00000080: b69e b63c 354b 24bd f204 d93d 2404 f8bd
00000090: d951 3c3c 050d ddba 079c 86bc cc74 e63d
000000a0: 069d c4bd 0c9b d9bd 81da c53a f92a d03d
000000b0: 72f6 633c 66e5 14bc c951 ae3c db2d d9bc
000000c0: 0d68 093e 9a06 58bd aeb2 9ebd 6bd4 2abe
000000d0: 1c56 d73d 894f fc3c 854b aa3d 84f3 7ebd
000000e0: 6e6e b9bc 7f1d 42bd 50a8 5cbe f10e 453c
000000f0: 7675 213d e5bf a9bd 9dc6 0ebd fd8e ff3d
00000100: 430c f1bc 181c 3b3d 9c1c 44bd 6240 bf3c
00000110: da9f f2bd 16ca 693d 270d 85bd 80dd 34be
00000120: 1bf9 ebbd 02ed b83b 3ea5 0f3e 86ac 09be
00000130: cc8c c93d d45f 8a3d 4b61 9a3c 8ff1 71bc
00000140: 42a8 c23c 6c4e 2dbd a48e f0bd c5e6 c83c
00000150: 453b 353e 6a4a b73d 6b84 033e 91ca 2abd
00000160: 0ddd e63d 5dc4 45be 1009 2d3d e135 ef3c
00000170: f1a1 24be 7fa2 4fbe 5e3c 543d bb6e 8a3d
00000180: c42c 13be 87eb 8f3d fbe8 c13c e137 8d3d
00000190: 0a51 043d 04be fd3d aa1f b63c 1cb0 a73d
000001a0: a347 9a3d 835a 3dbe 0209 953d f406 6f3b
000001b0: aed3 723c 3798 09be 68ae 093e b989 163d
000001c0: b334 1f3d 5e3e 33be f110 abbe 3a51 3bbe
000001d0: 3d50 fe3d abd3 41be 7261 7c3b dbe7 a83d
000001e0: 4827 69be 335f 2fbe f469 ad3d b1f9 5a3d
000001f0: 6dc8 f13c 3b8c b0bd 75df 34be 66c8 703d

network_body._body_endoder.seq_layers.0.bias f4 [64]
0.077778056 0.018187335 -0.09490594 -0.054545436 0.032857627 -0.051043607 0.031338587 0.11509795
0.086646706 -0.16211909 0.095966876 0.118045405 0.07420088 -0.13572137 0.10288672 0.04784301
0.003876305 0.11107592 -0.1209193 -0.11163991 0.026620332 -0.008147872 0.09888023 0.0061723664
-0.0743498 0.0348612 -0.10338034 0.08814155 0.047322463 -0.06130419 0.01481344 0.0046568173
0.060105596 -0.13839708 -0.02827294 0.008702252 0.09027732 0.06007805 -0.0128661515 0.04712388
-0.06004853 0.026463598 0.008596075 -0.021248162 -0.00038795525 -0.08048725 -0.044950165 -0.06989834
-0.027986238 0.063069165 -0.05296123 0.05748523 0.062128987 -0.029616509 -0.11789106 0.13056044
-0.07286058 0.022813443 -0.07496603 0.044685967 -0.051661424 0.039701395 -0.17078505 -0.10762117
00000000: 1a4a 9f3d 9bfd 943c 0c5e c2bd 096b 5fbd
00000010: b895 063d 1a13 51bd e45c 003d 79b8 eb3d
00000020: d473 b13d 8c02 26be 488a c43d cac1 f13d
00000030: a2f6 973d 8bfa 0abe 46b6 d23d 08f7 433d
00000040: 9b09 7e3b c67b e33d 8aa4 f7bd 77a3 e4bd
00000050: e212 da3c a77e 05bc b881 ca3d 9041 ca3b
00000060: b544 98bd 9eca 0e3d 12b9 d3bd 8f83 b43d
00000070: 33d5 413d 1a1a 7bbd 12b4 723c 3798 983b
00000080: 4931 763d f7b7 0dbe a79c e7bc e493 0e3c
00000090: 51e3 b83d 6714 763d 8dcc 52bc f804 413d
000000a0: 73f5 75bd 30ca d83c 8dd6 0c3c a010 aebc
000000b0: 7966 cbb9 80d6 a4bd aa1d 38bd dc26 8fbd
000000c0: 6543 e5bc 682a 813d e0ed 58bd a275 6b3d
000000d0: f77a 7e3d 529e f2bc de70 f1bd a3b1 053e
000000e0: ee37 95bd 42e3 ba3c ca87 99bd a208 373d
000000f0: ee9a 53bd ee9d 223d 47e2 2ebe 7d68 dcbd

network_body._body_endoder.seq_layers.0.weight f4 [64, 131]
0.06659185 -0.07028066 -0.0047403798 0.0798008 -0.0721589 -0.08270084 0.23312183 -0.01929533
0.025871662 -0.14297393 -0.17689225 -0.0974572 -0.0135617945 -0.11595549 -0.06188723 0.00059823116
-0.10557547 0.095368735 -0.057465076 -0.116709106 0.08217079 -0.033534355 -0.049439132 -0.07715409
0.15312122 -0.044659752 -0.0012237661 0.1112588 -0.040957656 0.13411221 0.044101443 0.13405761
0.089757614 0.036917515 0.017957471 0.052351344 0.10065514 0.023598874 -0.11319756 0.01019672
-0.03626621 -0.055058412 -0.012530302 -0.07920655 0.13515808 -0.23463109 -0.04606023 -0.07250288
-0.24392134 -0.14673103 -0.10466784 0.013780496 0.014948415 0.08657733 0.15017167 0.16129625
-0.04954777 0.13311386 0.015952444 -0.20918423 0.07788172 0.08667026 -0.050382532 0.09049557
0.22547737 0.3089429 0.118441544 0.09474621 -0.085370705 -0.13051708 0.03626931 0.09989931
-0.06920205 0.021689126 0.04715948 -0.09691248 0.28339228 0.093358874 -0.06874085 -0.053639743
0.08031181 -0.054983918 0.06112577 0.19534321 0.09367073 -0.020469267 0.074769445 0.09805208
-0.14406168 -0.29549605 -0.022668904 0.14364477 -0.10177236 0.04141688 0.10226808 0.120829396
0.3216005 -0.08148881 -0.0889995 0.053675763 -0.25153193 0.009046905 -0.2666006 0.03354125
-0.020787382 0.09522129 0.24606514 0.20969121 0.012033257 0.2147934 -0.08351115 0.05834768
0.21677439 0.20568083 0.058697052 -0.10147698 0.13544652 -0.019513922 -0.0056434623 -0.020285336
0.08017505 -0.017491603 -0.1638199 0.061020702 -0.09928517 0.35487995 0.03690657 0.13115585
0.15351719 0.012058837 -0.17808504 -0.12353851 -0.015692437 0.06033701 0.16930875 -0.054583333
-0.103548355 -0.0015936961 0.0037673444 -0.008155377 0.11606925 -0.123461105 0.10758366 0.02644169
-0.045416176 -0.030729987 0.0004043823 -0.04463445 0.021864982 0.13115382 0.010958668 0.15389863
-0.021094622 0.021907253 0.036449514 -0.17760895 -0.005856704 0.031458363 -0.0010901522 0.07466587
0.053220462 -0.17347346 0.046140675 -0.0264092 -0.12604466 0.027346797 -0.035615377 -0.13793959
-0.08700433 -0.017235292 0.046537984 0.04083193 0.020784171 0.013176199 0.06608317 -0.021677805
-0.089416176 0.06473927 0.059491463 0.023338787 -0.05668394 0.25706673 0.041772965 0.04640793
0.13665283 -0.22842039 0.077536635 0.006557786 -0.051957384 -0.042420514 -0.24388303 -0.023618145
0.046838745 -0.058163222 0.0038001759 -0.03184729 0.19847561 -0.051384278 0.08334468 -0.104263574
-0.061125625 0.103437535 0.17808521 -0.022984698 0.047998257 0.027225874 -0.06043067 -0.06502736
-0.02555012 0.038697377 0.17327969 -0.08239087 -0.13286209 0.028930157 0.08335263 -0.19714229
-0.11365228 0.051226426 0.14184782 -0.10862297 -0.2229438 -0.048915233 -0.04878614 -0.12026166
0.04361549 -0.03962587 0.12335944 -0.09309564 0.0010964412 0.031842917 0.0055175787 0.037407424
0.02510065 -0.072406694 -0.0973789 0.06575632 0.034448396 0.03511032 0.18716106 -0.012878622
0.032253534 0.1195184 -0.06826907 0.11428841 0.068304084 -0.042013247 0.018582232 -0.08811234
-0.043732926 0.12755285 0.057371423 0.0026509378 0.15983197 -0.26071575 0.32833916 -0.15234827
00000000: 4f61 883d 4fef 8fbd 3055 9bbb 9a6e a33d
00000010: 0cc8 93bd 0f5f a9bd 7db7 6e3e 3d11 9ebc
00000020: cff0 d33c c267 12be 3e23 35be a497 c7bd
00000030: 4a32 5ebc 127a edbd 777d 7dbd 9dd2 1c3a
00000040: f437 d8bd af50 c33d 8060 6bbd 2f05 efbd
00000050: 2949 a83d 525b 09bd b080 4abd f702 9ebd
00000060: cfcb 1c3e 25ed 36bd c766 a0ba a7db e33d
00000070: 37c3 27bd b654 093e b7a3 343d 6646 093e
00000080: d7d2 b73d d236 173d 8c1b 933c 5d6e 563d
00000090: 4824 ce3d 6d52 c13c 1fd4 e7bd 2510 273c
000000a0: e18b 14bd ee84 61bd e54b 4dbc 0b37 a2bd
000000b0: e166 0a3e 2243 70be a7a9 3cbd 647c 94bd
000000c0: 84c6 79be a940 16be 185c d6bd 97c7 613c
000000d0: 32ea 743c 754f b13d 9ac6 193e d82a 253e
000000e0: 9af2 4abd 004f 083e b3ae 823c 6434 56be
000000f0: 7480 9f3d 2d80 b13d ea5d 4ebd be55 b93d
00000100: 8ae3 663e c42d 9e3e 7b91 f23d 4d0a c23d
00000110: d6d6 aebd 45a6 05be 218f 143d 0298 cc3d
00000120: ceb9 8dbd 65ad b13c 4d2a 413d 0d7a c6bd
00000130: cb18 913e f032 bf3d 01c8 8cbd 59b5 5bbd
00000140: 857a a43d d136 61bd 045f 7a3d 0d08 483e
00000150: 71d6 bf3d 2aaf a7bc b920 993d 87cf c83d
00000160: e884 13be 424b 97be 23b4 b9bc 9d17 133e
00000170: 076e d0bd bfa4 293d ed71 d13d 6775 f73d
00000180: d2a8 a43e 9be3 a6bd 5f45 b6bd 1edb 5b3d
00000190: cbc8 80be 7839 143c e07f 88be 8d62 093d
000001a0: 4d4a aabc 6103 c33d 80f8 7b3e 4bb9 563e
000001b0: 2327 453c cdf2 5b3e e507 abbd fafd 6e3d
000001c0: 1bfa 5d3e ff9d 523e 526c 703d 2ad3 cfbd
000001d0: 7eb2 0a3e a9db 9fbc cbec b8bb 6f2d a6bc
000001e0: d132 a43d 8d4a 8fbc 67c0 27be d8f0 793d
000001f0: 0656 cbbd d3b2 b53e 582b 173d b84d 063e
00000200: 9c33 1d3e 6e92 453c ed5b 36be c201 fdbd
00000210: 6d8d 80bc f123 773d 465f 2d3e c692 5fbd
00000220: 2911 d4bd 91e3 d0ba 8de5 763b 219e 05bc
00000230: b7b5 ed3d 2dd9 fcbd d254 dc3d 3e9c d83c
00000240: 5006 3abd 74bd fbbc 4603 d439 9dd2 36bd
00000250: 311e b33c 304d 063e fc8b 333c 9a97 1d3e
00000260: a1ce acbc d776 b33c 164c 153d 1fdf 35be
00000270: 98e9 bfbb 7cda 003d 70e3 8eba 6bea 983d
00000280: b3fd 593d 07a3 31be 01fe 3c3d 1b58 d8bc
00000290: da11 01be 6406 e03c 6ee1 11bd 0940 0dbe
000002a0: 532f b2bd 0731 8dbc 9d9e 3e3d 623f 273d
000002b0: 9143 aa3c fce0 573c 9d56 873d a795 b1bc
000002c0: d41f b7bd 0696 843d 52ad 733d fc30 bf3c
000002d0: 6b2d 68bd 409e 833e 211a 2b3d 3e16 3e3d
000002e0: b8ee 0b3e 09e7 69be 87cb 9e3d b2e2 d63b
000002f0: 44d1 54bd 22c1 2dbd 79bc 79be d77a c1bc
00000300: fcd9 3f3d 8f3c 6ebd 5f0c 793b 4e72 02bd
00000310: 313d 4b3e 5278 52bd 9eb0 aa3d 2488 d5bd
00000320: dd5e 7abd 0fd7 d33d f85b 363e 684a bcbc
00000330: d299 443d cc08 df3c 2686 77bd 112d 85bd
00000340: 7c4e d1bc 2481 1e3d 3b70 313e 8bbc a8bd
00000350: 000d 08be f0fe ec3c c9b4 aa3d abdf 49be
00000360: 87c2 e8bd cdd2 513d 8e40 113e b875 debd
00000370: 614b 64be 575b 48bd fad3 47bd bf4b f6bd
00000380: 28a6 323d bc4e 22bd e0a3 fc3d eda8 bebd
00000390: 76b6 8f3a b86d 023d cecc b43b 8738 193d
000003a0: e19f cd3c f649 94bd 976e c7bd 40ab 863d
000003b0: c319 0d3d d7cf 0f3d 26a7 3f3e db00 53bc
000003c0: 481c 043d 10c6 f43d a7d0 8bbd 0b10 ea3d
000003d0: 03e3 8b3d 1516 2cbd c439 983c 3e74 b4bd
000003e0: 4c21 33bd 379d 023e 4cfe 6a3d 5bbb 2d3b
000003f0: feaa 233e 897c 85be 121c a83e 2f01 1cbe

network_body._body_endoder.seq_layers.2.bias f4 [64]
-0.13923228 0.022891935 -0.12719227 0.1158633 -0.24379233 0.13234498 -0.065928765 -0.14565676
-0.09951763 -0.04823383 0.17682189 -0.18630278 0.07049079 0.04669306 0.045867868 -0.030808082
-0.089960575 -0.23802973 -0.040017642 -0.0057592154 0.14268447 0.032362428 0.061433025 -0.11499752
0.059474707 -0.15647209 0.1024177 0.00657479 -0.1872005 -0.06194371 0.044043373 0.09038366
-0.12342433 0.07067485 0.09691101 0.018214427 0.06190445 0.11182241 -0.08749536 0.14637196
0.03617599 -0.15273152 0.09637914 -0.029774522 0.096508205 -0.12220596 0.15010113 0.029232994
0.12357462 -0.071711816 -0.07514137 -0.045269858 0.15283151 -0.05269708 -0.00335471 0.06155815
-0.08929957 -0.14555496 0.013432657 0.13138975 0.088905916 -0.2647978 -0.13173059 0.1452751
00000000: e892 0ebe de87 bb3c b13e 02be bd49 ed3d
00000010: b2a4 79be 7185 073e a905 87bd 0c27 15be
00000020: e6cf cbbd d690 45bd cc10 353e 28c6 3ebe
00000030: 7a5d 903d 3941 3f3d f2df 3b3d 3b61 fcbc
00000040: 403d b8bd 11be 73be 8ae9 23bd cdb7 bcbb
00000050: e11b 123e 778e 043d 32a1 7b3d d283 ebbd
00000060: c09b 733d 383a 20be 5fc0 d13d 5671 d73b
00000070: 7db1 3fbe b0b8 7dbd d366 343d 111b b93d
00000080: e5c5 fcbd fabd 903d 4879 c63d 6c36 953c
00000090: 858f 7d3d 2603 e53d c430 b3bd 88e2 153e
000000a0: 462d 143d a765 1cbe 6d62 c53d b3e9 f3bc
000000b0: 18a6 c53d 1e47 fabd 1cb4 193e 087a ef3c
000000c0: b114 fd3d a5dd 92bd b8e3 99bd e36c 39bd
000000d0: dd7f 1c3e e5d8 57bd b2da 5bbb 6624 7c3d
000000e0: b1e2 b6bd 5c0c 15be a614 5c3c 098b 063e
000000f0: 4e14 b63d 9493 87be 62e4 06be ffc2 143e

network_body._body_endoder.seq_layers.2.weight f4 [64, 64]
0.06482112 -0.13511994 -0.18638083 -0.09504132 -0.034415625 -0.31798697 -0.010500568 0.035468377
-0.13485162 0.2513606 -0.34947076 0.027621213 0.06355477 -0.20093831 -0.059878867 0.13201325
-0.053233083 -0.2236536 0.33187407 -0.0010615274 0.10566314 -0.07075626 0.22738977 -0.049441423
0.052041396 0.28849393 -0.07113382 -0.03921383 0.017338281 0.19276552 0.0887688 0.025064213
0.02883867 0.14150956 -0.25165653 0.076954626 -0.3084735 0.07844184 -0.16355217 -0.24515653
-0.05823274 -0.35602352 -0.09506051 0.18157059 0.0014523001 -0.07956638 -0.07471416 0.061256357
-0.101485446 -0.16865873 -0.30436552 0.16303048 -0.1648697 -0.13079627 -0.043820772 -0.09547256
-0.237589 -0.028073085 -0.049591105 -0.21240832 -0.26634523 -0.16369005 0.0060089515 0.17851743
-0.15500681 -0.054881874 -0.20523362 0.07122185 -0.10106575 -0.04039176 -0.044883225 -0.28390214
-0.006830042 0.10699958 0.04561955 -0.11683895 0.019002771 -0.011656311 0.0659791 0.108556814
0.080685906 -0.025019322 -0.13842751 0.12072345 0.14820263 0.05722636 -0.015359905 -0.20553398
0.035551913 0.15389578 -0.024431368 0.1290427 -0.43198922 -0.11497273 0.2698472 -0.012499013
0.22085781 -0.029875701 0.09773386 0.02159809 -0.35374424 0.13340273 -0.07404982 0.054323595
-0.36486688 0.08009916 -0.05243645 0.24388982 0.10707723 -0.10985543 -0.1680726 0.15038154
-0.04632901 0.1136898 -0.11370014 0.016410986 0.14975336 -0.043670725 0.048147447 0.17840421
-0.0012542928 0.09220289 0.113138564 0.03093428 -0.24204506 -0.23107012 -0.09309929 -0.11972562
0.027448034 -0.16158421 -0.029343795 -0.066868424 0.17220727 0.054498922 0.1383224 -0.2997894
-0.40085706 0.10734329 -0.252223 -0.3669443 -0.046934824 -0.04118616 0.14026868 0.029888296
-0.20614606 0.16564016 0.026078157 -0.048812166 -0.19996412 0.0044054934 -0.17600109 0.03497277
0.21578944 0.106037125 -0.03498734 -0.08602917 0.2577059 0.12377738 -0.018098744 -0.3098782
-0.05921541 0.16225767 -0.1337807 -0.0931013 -0.055801656 -0.038293324 -0.18646352 -0.16333544
-0.17492138 -0.0707379 -0.060587335 -0.02776599 -0.147132 -0.05307533 0.035120554 -0.19877207
-0.13881165 -0.2947357 -0.061697282 -0.20031986 0.021733873 0.15813807 0.13722497 0.025508441
-0.27870643 -0.21534961 -0.15913641 -0.10460767 -0.12337377 -0.09232305 -0.12526004 0.11610315
0.049638875 -0.17589888 -0.19158919 0.024939375 0.07149502 0.11926511 0.12347625 -0.020451307
-0.17233267 -0.13006623 0.10627384 -0.06112238 0.34177053 -0.013775306 0.104633786 -0.19419128
0.111458644 0.07419206 0.14723317 0.20006089 -0.06311875 -0.006505527 0.15555805 0.18577693
0.10078853 0.25172076 -0.054127593 0.1442192 -0.14137031 0.059049085 0.13177451 -0.21571714
-0.061067466 -0.14692962 -0.01581742 0.20372483 -0.03806875 0.0074560363 -0.07051141 0.028897969
-0.33303234 0.12166276 0.0077187456 0.26020238 -0.18582603 0.21312961 0.12200285 -0.18411212
-0.08078484 -0.02390769 0.20402622 -0.015192391 -0.019540649 0.15401426 -0.00986752 0.06608997
0.158439 0.039626554 0.15431851 0.2114228 0.11045655 0.1679929 0.030000549 -0.04998375
00000000: efc0 843d e25c 0abe 9eda 3ebe 06a5 c2bd
00000010: 66f7 0cbd 30cf a2be 930a 2cbc 4a47 113d
00000020: 8b16 0abe 56b2 803e d5ed b2be e245 e23c
00000030: 0129 823d c6c2 4dbe 8b43 75bd 7b2e 073e
00000040: ef0a 5abd 7305 65be 66eb a93e f322 8bba
00000050: eb65 d83d a8e8 90bd ddd8 683e 1783 4abd
00000060: 5c29 553d 7ab5 933e 9cae 91bd ae9e 20bd
00000070: 0309 8e3c 5364 453e 6bcc b53d 7753 cd3c
00000080: 133f ec3c e2e7 103e 20d9 80be 639a 9d3d
00000090: 3df0 9dbe 1ea6 a03d 387a 27be 500a 7bbe
000000a0: 7485 6ebd b748 b6be 16af c2bd a4ed 393e
000000b0: 1b5b be3a b3f3 a2bd bd03 99bd f2e7 7a3d
000000c0: 9ad7 cfbd e0b4 2cbe ccd5 9bbe 76f1 263e
000000d0: 9ad3 28be 75ef 05be 697d 33bd 1e87 c3bd
000000e0: 884a 73be 87f9 e5bc 0b20 4bbd 9181 59be
000000f0: 675e 88be 5d9e 27be bde6 c43b 46cd 363e
00000100: 1bba 1ebe d1cb 60bd c328 52be c3dc 913d
00000110: 8ffb cebd d571 25bd 79d7 37bd 9f5b 91be
00000120: 8cce dfbb 9922 db3d 91db 3a3d 4249 efbd
00000130: b3ab 9b3c 1dfa 3ebc 0d20 873d 0953 de3d
00000140: a73e a53d 52f5 ccbc f1bf 0dbe db3d f73d
00000150: 6ec2 173e 3066 6a3d 1ca8 7bbc 8077 52be
00000160: e29e 113d db96 1d3e 4b24 c8bc c523 043e
00000170: b12d ddbe d376 ebbd 6a29 8a3e a9c8 4cbc
00000180: 8d28 623e e3bd f4bc b128 c83d 7aee b03c
00000190: f71d b5be ba9a 083e 6fa7 97bd 6b82 5e3d
000001a0: d5cf babe 070b a43d 9ac7 56bd 41be 793e
000001b0: 4f4b db3d e2fb e0bd 391b 2cbe 9efd 193e
000001c0: 7dc3 3dbd 33d6 e83d 9edb e8bd 5570 863c
000001d0: f258 193e 13e0 32bd 4236 453d 98af 363e
000001e0: 1567 a4ba ded4 bc3d 31b5 e73d e369 fd3c
000001f0: a9da 77be a59d 6cbe d7aa bebd b532 f5bd
00000200: b3da e03c 5576 25be 6662 f0bc 50f2 88bd
00000210: 1a57 303e 433a 5f3d 63a4 0d3e ff7d 99be
00000220: 233d cdbe ccd6 db3d 6023 81be 20e0 bbbe
00000230: bb3e 40bd d2b2 28bd 98a2 0f3e 4dd8 f43c
00000240: f417 53be 939d 293e dca1 d53c 44ef 47bd
00000250: 65c3 4cbe f55b 903b a139 34be 9b3f 0f3d
00000260: e8f7 5c3e fe29 d93d e34e 0fbd 1030 b0bd
00000270: 07f2 833e ff7e fd3d d143 94bc 5ba8 9ebe
00000280: dc8b 72bd e026 263e cffd 08be e5ab bebd
00000290: 4790 64bd 76d9 1cbd 4bf0 3ebe 6841 27be
000002a0: 971e 33be 08df 90bd 6d2a 78bd 8075 e3bc
000002b0: c5a9 16be 8465 59bd 92da 0f3d e88a 4bbe
000002c0: a424 0ebe 99e7 96be 4ab6 7cbd a620 4dbe
000002d0: 3c0b b23c f2ee 213e b484 0c3e 14f7 d03c
000002e0: 9cb2 8ebe 9c84 5cbe a8f4 22be 8c3c d6bd
000002f0: 63ab fcbd de13 bdbd 2b44 00be 7dc7 ed3d
00000300: 2252 4b3d d61e 34be f52f 44be a94d cc3c
00000310: fb6b 923d 4441 f43d 1ee1 fc3d 8089 a7bc
00000320: fa77 30be 1530 05be 19a6 d93d 765b 7abd
00000330: 8cfc ae3e d2b1 61bc 3d4a d63d 14da 46be
00000340: 6e44 e43d 02f2 973d 4bc4 163e c3dc 4c3e
00000350: 6744 81bd 512c d5bb 9c4a 1f3e 4f3c 3e3e
00000360: 386a ce3d 8be1 803e e5b4 5dbd 33ae 133e
00000370: 61c3 10be 74dd 713d e6ef 063e f4e4 5cbe
00000380: e121 7abd b874 16be 8993 81bc 3e9d 503e
00000390: faed 1bbd c451 f43b 4968 90bd 6fbb ec3c
000003a0: 3783 aabe 532a f93d 88ed fc3b 3f39 853e
000003b0: 2e49 3ebe a63e 5a3e a1dc f93d e387 3cbe
000003c0: 8672 a5bd 0fda c3bc 40ec 503e 82e9 78bc
000003d0: b613 a0bc eab5 1d3e 61ab 21bc 2e5a 873d
000003e0: d53d 223e 744f 223d ac05 1e3e 387f 583e
000003f0: 0b37 e23d 5506 2c3e b6c3 f53c c3bb 4cbd

network_body.observation_encoder.processors.0.normalizer.running_mean f4 [120]
0.0400694 0.0 0.0 0.0 0.78011227 0.80617124 0.07394903 0.0
0.0 0.0 0.7462403 0.78583175 0.029390039 0.0 0.0 0.0
0.7908009 0.8109318 0.08635037 0.0 0.0 0.0 0.7337224 0.7812648
0.036896493 0.0 0.0 0.0 0.754271 0.77967685 0.0428138 0.0
0.0 0.0 0.8372962 0.8650671 0.07931612 0.0 0.0 0.0
0.8008168 0.84324497 0.03166471 0.0 0.0 0.0 0.8484664 0.8701346
0.092778035 0.0 0.0 0.0 0.7872376 0.8382983 0.03974089 0.0
0.0 0.0 0.811374 0.83861727 0.045565818 0.0 0.0 0.0
0.89447886 0.9240014 0.084669694 0.0 0.0 0.0 0.8553961 0.9006622
0.033926435 0.0 0.0 0.0 0.9061519 0.92940235 0.09921528 0.0
0.0 0.0 0.8407635 0.895326 0.04259718 0.0 0.0 0.0
0.8684331 0.8975684 0.04829607 0.0 0.0 0.0 0.9517041 0.98291886
0.09002289 0.0 0.0 0.0 0.90998334 0.9580507 0.036199868 0.0
0.0 0.0 0.9638159 0.9886448 0.10565356 0.0 0.0 0.0
0.8942335 0.9523916 0.045463108 0.0 0.0 0.0 0.92553645 0.95644677
00000000: d01f 243d 0000 0000 0000 0000 0000 0000
00000010: 70b5 473f 3d61 4e3f 9772 973d 0000 0000
00000020: 0000 0000 0000 0000 9b09 3f3f 452c 493f
00000030: 61c3 f03c 0000 0000 0000 0000 0000 0000
00000040: ee71 4a3f 3a99 4f3f 76d8 b03d 0000 0000
00000050: 0000 0000 0000 0000 3bd5 3b3f f800 483f
00000060: c720 173d 0000 0000 0000 0000 0000 0000
00000070: e717 413f e798 473f 865d 2f3d 0000 0000
00000080: 0000 0000 0000 0000 0b59 563f 0a75 5d3f
00000090: 7d70 a23d 0000 0000 0000 0000 0000 0000
000000a0: 5402 4d3f e7de 573f dbb2 013d 0000 0000
000000b0: 0000 0000 0000 0000 1835 593f 24c1 5e3f
000000c0: 6902 be3d 0000 0000 0000 0000 0000 0000
000000d0: 6788 493f b89a 563f 58c7 223d 0000 0000
000000e0: 0000 0000 0000 0000 35b6 4f3f 9faf 563f
000000f0: 39a3 3a3d 0000 0000 0000 0000 0000 0000
00000100: 91fc 643f 5b8b 6c3f 4e67 ad3d 0000 0000
00000110: 0000 0000 0000 0000 3dfb 5a3f cc91 663f
00000120: 72f6 0a3d 0000 0000 0000 0000 0000 0000
00000130: 92f9 673f 50ed 6d3f 6131 cb3d 0000 0000
00000140: 0000 0000 0000 0000 473c 573f 1634 653f
00000150: 617a 2e3d 0000 0000 0000 0000 0000 0000
00000160: a251 5e3f 0bc7 653f 1ad2 453d 0000 0000
00000170: 0000 0000 0000 0000 e1a2 733f 92a0 7b3f
00000180: ec5d b83d 0000 0000 0000 0000 0000 0000
00000190: abf4 683f d042 753f 5046 143d 0000 0000
000001a0: 0000 0000 0000 0000 a4bc 763f d317 7d3f
000001b0: e560 d83d 0000 0000 0000 0000 0000 0000
000001c0: 7dec 643f f0cf 733f 8637 3a3d 0000 0000
000001d0: 0000 0000 0000 0000 f5ef 6c3f b2d9 743f

network_body.observation_encoder.processors.1.normalizer.running_mean f4 [11]
-3.2954512 92.375916 2.7669933 0.008211129 0.01301106 -0.04588987 0.0025686957 -5.467115
79.59106 -2.9421613 0.041157037
00000000: ace8 52c0 78c0 b842 6b16 3140 f987 063c
00000010: 572c 553c 04f7 3bbd 9057 283b 9bf2 aec0
00000020: 9f2e 9f42 5f4c 3cc0 4894 283d
