results/Run00/OpponentML/OpponentML-2499954.onnx (onnx, 54547 bytes, 11 tensors)

60 f4 [120]
00000000: 964a 563e c1cb 253a c1cb 253a c1cb 253a
00000010: 4afd d53e a439 c73e 0772 8a3e c1cb 253a
00000020: c1cb 253a c1cb 253a d255 e03e 5155 cc3e
00000030: 2823 413e c1cb 253a c1cb 253a c1cb 253a
00000040: f0eb d23e 479b c63e 96a1 8d3e c1cb 253a
00000050: c1cb 253a c1cb 253a 6c84 e13e 77d6 cc3e
00000060: a5db 4f3e c1cb 253a c1cb 253a c1cb 253a
00000070: 2f35 de3e 19c6 cf3e 8b24 5d3e c1cb 253a
00000080: c1cb 253a c1cb 253a dec9 bf3e 8f4c ab3e
00000090: a6fc 8e3e c1cb 253a c1cb 253a c1cb 253a
000000a0: 15b4 ce3e 26db b33e 9134 483e c1cb 253a
000000b0: c1cb 253a c1cb 253a cf83 bb3e 9b04 aa3e
000000c0: 8f4c 923e c1cb 253a c1cb 253a c1cb 253a
000000d0: 4867 d03e 029e b43e f05a 573e c1cb 253a
000000e0: c1cb 253a c1cb 253a 86ed ca3e f25a b73e
000000f0: edc7 633e c1cb 253a c1cb 253a c1cb 253a
00000100: 8e85 a13e ba1b 833e 4f53 933e c1cb 253a
00000110: c1cb 253a c1cb 253a 434e b73e 64c1 913e
00000120: b9f7 4e3e c1cb 253a c1cb 253a c1cb 253a
00000130: 9155 9b3e feae 803e 33c3 963e c1cb 253a
00000140: c1cb 253a c1cb 253a dfc2 b93e 53f5 923e
00000150: f98c 5e3e c1cb 253a c1cb 253a c1cb 253a
00000160: d2e9 b03e 4b34 953e d320 6a3e c1cb 253a
00000170: c1cb 253a c1cb 253a 4221 6a3e 3289 e33d
00000180: ff7a 973e c1cb 253a c1cb 253a c1cb 253a
00000190: 0d7b 973e d7da 373e 458b 553e c1cb 253a
000001a0: c1cb 253a c1cb 253a 0d8c 553e e3d7 c23d
000001b0: c208 9b3e c1cb 253a c1cb 253a c1cb 253a
000001c0: 5826 9b3e 628c 3c3e c782 653e c1cb 253a
000001d0: c1cb 253a c1cb 253a 4d88 8c3e 01ac 3e3e
0.2092689 0.0006324612 0.0006324612 0.0006324612 0.41794807 0.38911164 0.2704012 0.0006324612
0.0006324612 0.0006324612 0.43815476 0.3990884 0.18861067 0.0006324612 0.0006324612 0.0006324612
0.4119563 0.38790342 0.27662343 0.0006324612 0.0006324612 0.0006324612 0.44046342 0.40007374
0.20298631 0.0006324612 0.0006324612 0.0006324612 0.4339995 0.40580824 0.21595971 0.0006324612
0.0006324612 0.0006324612 0.374587 0.33456847 0.2792713 0.0006324612 0.0006324612 0.0006324612
0.40371767 0.35128134 0.19551302 0.0006324612 0.0006324612 0.0006324612 0.36624 0.3320664
0.28574035 0.0006324612 0.0006324612 0.0006324612 0.40703797 0.352768 0.21030784 0.0006324612
0.0006324612 0.0006324612 0.3963434 0.35811573 0.22244234 0.0006324612 0.0006324612 0.0006324612
0.31547207 0.2560709 0.28774497 0.0006324612 0.0006324612 0.0006324612 0.35801896 0.28467858
0.20211686 0.0006324612 0.0006324612 0.0006324612 0.3033872 0.25133508 0.294458 0.0006324612
0.0006324612 0.0006324612 0.36281487 0.28702793 0.21733464 0.0006324612 0.0006324612 0.0006324612
0.3455339 0.2914146 0.22864084 0.0006324612 0.0006324612 0.0006324612 0.2286425 0.11110152
0.29586026 0.0006324612 0.0006324612 0.0006324612 0.29586068 0.17954575 0.20853908 0.0006324612
0.0006324612 0.0006324612 0.20854206 0.095138334 0.3028012 0.0006324612 0.0006324612 0.0006324612
0.3030269 0.18412927 0.22413169 0.0006324612 0.0006324612 0.0006324612 0.2744774 0.18620302

63 f4 [11]
00000000: 0b64 0343 3dd5 9442 c80e 0443 be0c fc3e
00000010: 62d5 003f 2f23 013f b9dc fe3e 0e4c 0c43
00000020: a439 5f42 bf6e 0c43 2b29 173f
131.3908 74.41648 132.05774 0.49228472 0.50325596 0.5044431 0.49777773 140.29709
55.80629 140.4326 0.5904719

action_model._continuous_distribution.log_sigma f4 [1, 2]
00000000: f876 bebe 497c c0be
-0.3720014 -0.37594822

action_model._continuous_distribution.mu.bias f4 [2]
00000000: 263c 7f3c 6f3d 493e
0.015578305 0.19652341

action_model._continuous_distribution.mu.weight f4 [2, 64]
00000000: ac00 a8bd 0adc 983d 269b 9dbd 247d 723d
00000010: 4a59 22bd 87ee 9a3d 92b4 eebd 193c abbd
00000020: e65a 6cbe 3275 9a3d 1fb9 683d 6845 b3bd
00000030: 1521 403e 5ed6 503d 127b ef3a e612 043e
00000040: 117a 59bd 1990 29bd 3b32 83bd 7f9c b2bd
00000050: fc02 53bc a990 513c 097c b6bd af6f 42bd
00000060: 0995 f3bd 983f 73bd 6a30 983d e629 a23d
00000070: 3188 76bd dbdf 473c 0b3b b6bd b3c0 4b3d
00000080: b67e e83c d564 4bbd 3467 ca3d 70ce eebd
00000090: 3efe ccbc 120c e2bc b356 e2bb 5f75 b33d
000000a0: 694d bfbd 20d7 6dbd 9b0d 203c faff f23d
000000b0: c7d7 9d3c 6ada dc3c d4df 293a f543 93bd
000000c0: e689 d93d 2c66 18bd 8b17 2dbd 1cc4 06be
000000d0: e5b1 b03d dc20 7e3d d2c8 833d c6c7 7abd
000000e0: d8e5 cc3c a341 28bd d4a8 53be 145a abbb
000000f0: 3cb7 103d 8445 7dbd 41ce d7bb dbdd d73d
00000100: c2c5 5abd 18be 463d dc5c f0bc d9a0 063d
00000110: cca3 cabd f6cb a23d 152f 9ebd e676 fdbd
00000120: 0add a8bd 4438 4b3c 9a20 fe3d b4a3 d8bd
00000130: ca7a bb3d 7a0d db3c 5e05 fc3c 24f9 843c
00000140: 6208 153c d739 04bd 02b8 c6bd 8fa2 293d
00000150: 68d1 253e 010f 353d 58ef 9d3d 1cb6 debc
00000160: 78f1 c93d 05da 29be 660c 133d 36f4 1f3d
00000170: fcd7 0dbe b6f6 1cbe 1fbd 7b3d 986f 3f3d
00000180: db01 14be 23fc 833d 103f b43c 6bf5 933d
00000190: e929 003d 6b1f dd3d 4cb4 fabb 3924 da3d
000001a0: 618a 903d 3f69 17be 8417 e23c ae86 a53b
000001b0: 29b8 8f3c cc4f cabd c162 c73d 8219 1d3d
000001c0: 1d0e 6b3d 12e6 21be cefd 86be c5fa 14be
000001d0: 4744 053e 8f60 0cbe e13a 173d f125 a53d
000001e0: 5655 28be e258 07be 9f9c 383d 64a0 6d3d
000001f0: b86c d83c 4103 8dbd d814 01be 2e1f 743d
-0.08203253 0.07463844 -0.07695608 0.059201375 -0.039635934 0.07565027 -0.11655535 -0.08361072
-0.2308155 0.075418845 0.05681717 -0.087534726 0.1876262 0.050985686 0.0018270931 0.12897834
-0.053094927 -0.041397188 -0.06406065 -0.087212555 -0.0128791295 0.012790837 -0.089103766 -0.04746979
-0.118936606 -0.05938682 0.07431109 0.07918148 -0.060188476 0.012199367 -0.0889798 0.04974432
0.028380733 -0.049656708 0.09882966 -0.116604686 -0.025023576 -0.027593646 -0.006907308 0.08762621
-0.09340937 -0.058066487 0.009768869 0.1186523 0.01926793 0.026959617 0.00064801914 -0.07190696
0.10622005 -0.037206814 -0.04225878 -0.13160747 0.08627681 0.062043056 0.06434788 -0.061225675
0.025011942 -0.04107822 -0.20669872 -0.005229244 0.035330996 -0.061833873 -0.0065858667 0.105403624
-0.053411253 0.04852113 -0.029341154 0.03286824 -0.09894523 0.07949059 -0.07723824 -0.12376194
-0.08245285 0.0124035515 0.12408562 -0.10578099 0.091542795 0.026739825 0.030764278 0.01623208
0.009096237 -0.032281723 -0.097030655 0.041414794 0.16193163 0.044203762 0.07711667 -0.027186446
0.0986051 -0.16587074 0.035900496 0.039051257 -0.13851923 -0.15328488 0.061459657 0.046737283
-0.14453833 0.06444576 0.022002727 0.07224544 0.03128997 0.10797008 -0.0076508876 0.1065144
0.07057644 -0.14786242 0.027599104 0.0050514555 0.01754387 -0.09878501 0.09735633 0.038354404
0.057386506 -0.15810421 -0.26365513 -0.14548786 0.13014327 -0.13708709 0.036921386 0.080638774
-0.16438803 -0.132175 0.04507124 0.05801429 0.026419029 -0.06885386 -0.12605608 0.059600048

network_body._body_endoder.seq_layers.0.bias f4 [64]
00000000: 7040 a93d 4508 273d 5ede d6bd e477 49bd
00000010: ec2e cb3c e549 07bd 0f14 b43c ad4d fc3d
00000020: 85ff bb3d bddb 00be ff88 b63d d31c f93d
00000030: 96c8 a53d 5e58 0ebe 58d7 dc3d 406a 293b
00000040: 603f ca3c a716 b03d 36e4 fabd 5fab 04be
00000050: 5648 a4ba b30a 97bc af0d a63d ed34 20bc
00000060: 6c88 89bc 7ed7 303d f28d b7bd 18f7 9c3d
00000070: 8c4e 4c3d c3cc 03bd a3e0 4c3c 72a2 6c3c
00000080: bf95 303d a7c6 f6bd 2d48 61bd bce1 8c3b
00000090: 5ed9 a53d d6d5 3b3d 7717 86bc b40a 053d
000000a0: e6ab 46bd 7224 0d3d 83af fbbc fb39 7fbc
000000b0: 885f 6cbc b7d0 acbd 45a0 4bbd d0b2 7bbd
000000c0: 126a 0bbc 9cbd 623d e0d3 52bd e809 6d3d
000000d0: 4f7a 533d e04c cdbc 6780 f7bd 4770 093e
000000e0: d2be 70bd eded 203b f6cd 9fbd 364a 2a3d
000000f0: 615a 7bbc cb6e e63c d927 19be d110 cdbd
0.082642436 0.04077937 -0.10491632 -0.049186602 0.024802648 -0.033029456 0.021982221 0.12319503
0.09179596 -0.12583824 0.08912849 0.12163701 0.08094899 -0.13900897 0.10783261 0.0025850683
0.024688423 0.085980706 -0.12250559 -0.12955998 -0.0012533765 -0.018437719 0.08108079 -0.0097782435
-0.016788684 0.04317426 -0.08962621 0.07664317 0.049879596 -0.032177698 0.012504729 0.014443027
0.04311156 -0.12049609 -0.055000473 0.0042993706 0.080981 0.045858227 -0.01636861 0.03248091
-0.04850378 0.034458585 -0.030723339 -0.015577788 -0.014427073 -0.08438247 -0.04971339 -0.061449826
-0.008509176 0.055356607 -0.05147159 0.057870775 0.051630314 -0.02506107 -0.12085038 0.13421737
-0.05877573 0.0024555877 -0.07802956 0.04157468 -0.015341372 0.028129002 -0.14956607 -0.10012973

network_body._body_endoder.seq_layers.0.weight f4 [64, 131]
00000000: 7658 903d 4fef 8fbd 3055 9bbb 9a6e a33d
00000010: 2026 a4bd 985e b9bd 96a9 503e 3d11 9ebc
00000020: cff0 d33c c267 12be d838 24be 7408 d6bd
00000030: 275d d7bc 127a edbd 777d 7dbd 9dd2 1c3a
00000040: 959f d7bd 6a99 b53d 86f7 59bd 2f05 efbd
00000050: 2949 a83d 525b 09bd 3dd4 6bbd d5d4 bcbd
00000060: 409e ee3d 25ed 36bd c766 a0ba a7db e33d
00000070: f751 e8bc e2b7 083e e733 9e3d 6646 093e
00000080: d7d2 b73d d236 173d ddc7 cb3c 3b4e 943d
00000090: 0661 bf3d 6d52 c13c 1fd4 e7bd 2510 273c
000000a0: 76ec ffbb 198f 08bd 9130 cebb 0b37 a2bd
000000b0: e166 0a3e 2243 70be a7f8 e8bb 44f8 45bd
000000c0: b97a 6ebe a940 16be 185c d6bd 97c7 613c
000000d0: 511c 0e3d 5ca6 d53d 91e0 123e d82a 253e
000000e0: 9af2 4abd 004f 083e 3161 1d3d a02d 34be
000000f0: c47a cf3d 2d80 b13d ea5d 4ebd be55 b93d
00000100: d227 573e 126e 983e 3e16 fe3d 4d0a c23d
00000110: d6d6 aebd 45a6 05be 3e68 113d 7c72 bd3d
00000120: 6f64 15bd 65ad b13c 4d2a 413d 0d7a c6bd
00000130: 8e4c 863e 0501 df3d e22b 8bbd 59b5 5bbd
00000140: 857a a43d d136 61bd db81 863d 8a3b 3d3e
00000150: c7c7 a13d 2aaf a7bc b920 993d 87cf c83d
00000160: 72d7 c4bd 7087 7dbe 0cb7 78bc 9d17 133e
00000170: 076e d0bd bfa4 293d 7b1b c23d 231e 9d3d
00000180: 380a a63e 9be3 a6bd 5f45 b6bd 1edb 5b3d
00000190: 922a 82be 2546 62bc 05b4 69be 8d62 093d
000001a0: 4d4a aabc 6103 c33d d3ab 543e e21f 2f3e
000001b0: 2a5d 05bb cdf2 5b3e e507 abbd fafd 6e3d
000001c0: f97a 6c3e 3753 3e3e 7f5a 253d 2ad3 cfbd
000001d0: 7eb2 0a3e a9db 9fbc 5d14 603c 0f34 3fbc
000001e0: 8eda ad3c 573e 83bd 457a dcbd 319c 883d
000001f0: 6bc2 bbbd eb4e b93e 45bc 9d3d 2406 b53d
00000200: 349f 343e 89e1 6d3c dbf0 21be 569f f5bd
00000210: 6d8d 80bc f123 773d 465f 2d3e 51ad bbbd
00000220: ad30 0fbe c143 68bc 8de5 763b 219e 05bc
00000230: b7b5 ed3d fda8 21be 82b8 953d a69e f8bc
00000240: 5006 3abd 74bd fbbc 4603 d439 95be 94bd
00000250: 16f1 4cbc 9baa f13d fc8b 333c 9a97 1d3e
00000260: a1ce acbc 5e2f a0bb 93eb 4f3b 8755 53be
00000270: 98e9 bfbb 7cda 003d 70e3 8eba d09a 253d
00000280: 9bb6 803c 4f5b 27be 01fe 3c3d 1b58 d8bc
00000290: da11 01be 9192 783c 60f7 3cbd 3997 2ebe
000002a0: 532f b2bd 0731 8dbc 9d9e 3e3d 002f 223d
000002b0: 9256 5d3c 61c6 cabc 9d56 873d a795 b1bc
000002c0: d41f b7bd 44b6 803d a806 4e3d e1a7 1a3d
000002d0: 6b2d 68bd 409e 833e 211a 2b3d 84e8 fc3c
000002e0: 1f7a 053e ba5e 72be 87cb 9e3d b2e2 d63b
000002f0: 44d1 54bd e5c5 1dbd 3daf 75be 4acb 4abd
00000300: fcd9 3f3d 8f3c 6ebd 5f0c 793b dd52 25bb
00000310: 9399 673e b346 8dbd 9eb0 aa3d 2488 d5bd
00000320: dd5e 7abd 95fa 013e 79b2 523e ecab 1fbd
00000330: d299 443d cc08 df3c 2686 77bd e4c5 19bd
00000340: 958c 80bb 5fea b43c 3b70 313e 8bbc a8bd
00000350: 000d 08be 6018 5f3d be4d ed3d 5616 4cbe
00000360: 87c2 e8bd cdd2 513d 8e40 113e bd5a 89bd
00000370: 7dac 34be c1dc 7dbd fad3 47bd bf4b f6bd
00000380: 28a6 323d 259c d9bc 4eb4 0c3e 29a8 d9bd
00000390: 76b6 8f3a b86d 023d cecc b43b 2e36 4f3d
000003a0: da58 273d 5cbe a8bd 976e c7bd 40ab 863d
000003b0: c319 0d3d a4b4 383d 4968 523e a0b0 fcbc
000003c0: 481c 043d 10c6 f43d a7d0 8bbd 3dd5 073e
000003d0: 8126 cc3d 5527 ecbc c439 983c 3e74 b4bd
000003e0: 4c21 33bd 0b0e f33d bf3a 7c3d d343 4bbd
000003f0: c947 833d 1344 52be 32d3 ae3e fa42 11be
0.070481226 -0.07028066 -0.0047403798 0.0798008 -0.08015084 -0.090512455 0.20377192 -0.01929533
0.025871662 -0.14297393 -0.16037309 -0.10450831 -0.026289536 -0.11595549 -0.06188723 0.00059823116
-0.10528485 0.08867152 -0.053214572 -0.116709106 0.08217079 -0.033534355 -0.057575453 -0.09220282
0.116512775 -0.044659752 -0.0012237661 0.1112588 -0.028359396 0.13351396 0.07724743 0.13405761
0.089757614 0.036917515 0.024875576 0.07241484 0.093446776 0.023598874 -0.11319756 0.01019672
-0.0078101708 -0.033339594 -0.0062924107 -0.07920655 0.13515808 -0.23463109 -0.00710972 -0.048332468
-0.23289002 -0.14673103 -0.10466784 0.013780496 0.034694973 0.10432121 0.14343478 0.16129625
-0.04954777 0.13311386 0.038422767 -0.1759553 0.101308376 0.08667026 -0.050382532 0.09049557
0.21011284 0.29771477 0.12406586 0.09474621 -0.085370705 -0.13051708 0.035499804 0.09250352
-0.036472734 0.021689126 0.04715948 -0.09691248 0.26230282 0.10888866 -0.06795479 -0.053639743
0.08031181 -0.054983918 0.06567737 0.18479744 0.07899433 -0.020469267 0.074769445 0.09805208
-0.096114054 -0.24758697 -0.0151803605 0.14364477 -0.10177236 0.04141688 0.09477898 0.07671764
0.3242967 -0.08148881 -0.0889995 0.053675763 -0.25423104 -0.013810669 -0.22822578 0.03354125
-0.020787382 0.09522129 0.2076867 0.17102006 -0.002034972 0.2147934 -0.08351115 0.05834768
0.23093785 0.18586431 0.040369507 -0.10147698 0.13544652 -0.019513922 0.01367673 -0.011670127
0.021222379 -0.06408375 -0.107655086 0.06670416 -0.09167942 0.36193022 0.07701925 0.08839062
0.17638856 0.014519104 -0.15814535 -0.119932815 -0.015692437 0.06033701 0.16930875 -0.09163917
-0.13983412 -0.01417631 0.0037673444 -0.008155377 0.11606925 -0.1578712 0.07310583 -0.030349087
-0.045416176 -0.030729987 0.0004043823 -0.07262913 -0.012508651 0.118001185 0.010958668 0.15389863
-0.021094622 -0.004888459 0.0031726107 -0.20638095 -0.005856704 0.031458363 -0.0010901522 0.040430844
0.015712073 -0.16343425 0.046140675 -0.0264092 -0.12604466 0.015171663 -0.046134353 -0.17049874
-0.08700433 -0.017235292 0.046537984 0.039595604 0.0135094095 -0.024752798 0.06608317 -0.021677805
-0.089416176 0.062847644 0.050299317 0.037757758 -0.05668394 0.25706673 0.041772965 0.03087259
0.13034867 -0.23668948 0.077536635 0.006557786 -0.051957384 -0.038518805 -0.2399263 -0.049510278
0.046838745 -0.058163222 0.0038001759 -0.0025226392 0.22617178 -0.068982504 0.08334468 -0.104263574
-0.061125625 0.12693246 0.20575894 -0.038982317 0.047998257 0.027225874 -0.06043067 -0.03754224
-0.0039230087 0.022084413 0.17327969 -0.08239087 -0.13286209 0.054466605 0.11587094 -0.19930395
-0.11365228 0.051226426 0.14184782 -0.0670676 -0.17643924 -0.061978105 -0.04878614 -0.12026166
0.04361549 -0.026563713 0.13740656 -0.10627777 0.0010964412 0.031842917 0.0055175787 0.05058878
0.04085622 -0.08239433 -0.0973789 0.06575632 0.034448396 0.045094147 0.20547594 -0.03084594
0.032253534 0.1195184 -0.06826907 0.13264938 0.099682815 -0.028827349 0.018582232 -0.08811234
-0.043732926 0.11867913 0.061579462 -0.04962523 0.06410176 -0.20533781 0.34145504 -0.14185706

network_body._body_endoder.seq_layers.2.bias f4 [64]
00000000: b197 f1bd 1887 963c 61c5 f6bd 352e da3d
00000010: 1ca2 69be 9e6d f53d 24e1 57bd d5d5 2bbe
00000020: fdc9 d8bd d693 4abd 2cc6 143e 5e5d 3fbe
00000030: 74a9 803d 2493 fe3c 7ce3 5a3d dafb 55bd
00000040: fb63 bfbd 42b5 6dbe d961 24bd fdee 41bb
00000050: cc5a e83d 2d2c 243c f775 443d 2622 18be
00000060: 71b5 8f3d 2a44 2fbe 3049 c33d bc94 95bc
00000070: 51f0 3fbe 7754 bebd 0a49 293d 48b6 8e3d
00000080: 89ca f6bd e677 ae3d 90e8 b23d 2e36 583b
00000090: d258 713d 00d1 d63d f2d8 c3bd 89a2 023e
000000a0: f9b1 053d 0f95 3dbe 7ff5 a33d 2dc4 e3bc
000000b0: 8cad c23d 540e 13be 5343 003e f581 653d
000000c0: b6c8 d43d 00a4 5ebd 15f0 c2bd da4f 6fbd
000000d0: f219 073e 91d4 c8bd 81fe 76bc b755 013d
000000e0: c12d f2bd e579 39be 832b 273c f283 043e
000000f0: 1c9b a63d 478e 66be 0298 1dbe e972 fd3d
-0.11796511 0.018374965 -0.12049366 0.106533445 -0.22815746 0.119837984 -0.052704945 -0.16780789
-0.10585401 -0.049457394 0.14528722 -0.1868796 0.062823206 0.031076021 0.053439602 -0.052242137
-0.09345242 -0.23213676 -0.040132377 -0.002959191 0.11345443 0.010020298 0.047964063 -0.14856777
0.07017029 -0.17115846 0.09535444 -0.018259399 -0.18744017 -0.09293454 0.04132942 0.06968361
-0.12050349 0.085189626 0.08735764 0.0032991278 0.058922596 0.10489082 -0.095628634 0.12757315
0.03264043 -0.18513893 0.08005809 -0.027803505 0.09505758 -0.14360934 0.12525682 0.05603214
0.10389845 -0.05435562 -0.09518448 -0.05842576 0.13193491 -0.09806169 -0.015075327 0.031575885
-0.11825133 -0.18112905 0.010203245 0.12940958 0.081350535 -0.22515212 -0.15390018 0.12375433

network_body._body_endoder.seq_layers.2.weight f4 [64, 64]
00000000: 437e 853d b411 00be a360 43be 8492 c3bd
00000010: 9490 a4bc fbcb 99be bf90 2d3c 5d6f 703d
00000020: 8e5f ddbd 69d8 663e 2a85 a8be b709 2d3d
00000030: e441 a73d 66f9 1abe 679d 91bd 70b8 173e
00000040: c8e2 b1bd 127a 34be 2018 b53e 6fd4 1e3d
00000050: 67dd f93d 5810 40bd c80c 6e3e 4ce5 aebc
00000060: 2f0e bf3d 624f 8a3e b23c 1abd 7b8f afbc
00000070: 82c4 5e3c 96b8 403e 427d 7a3d 6ecc 153d
00000080: 3c80 ac3c 72b1 223e 3495 4bbe 262e 8a3d
00000090: aaa4 8bbe 0dac 0f3d ce82 20be aebd 81be
000000a0: c276 fb3b 7479 b4be c580 dabd 0434 3d3e
000000b0: 4d35 293c ea52 2ebd 1931 1dbd 78f4 8a3d
000000c0: 453d 05be 5181 31be b818 a0be d505 413e
000000d0: 9b52 08be a641 04be 4025 a0bc 11da cebd
000000e0: ccbb 7ebe c91d f5bc 9aa9 a0bd 4cdb 5cbe
000000f0: 7aaf 83be e7eb 04be 0269 383d 51d9 613e
00000100: 9125 d0bd a5aa 5abd 87b3 2fbe 5ed3 b53d
00000110: af72 acbd 7700 47bd 1697 b0bd bb01 7abe
00000120: 1d13 ad3b 84d5 143e 2cdf 2b3d 5dd5 debd
00000130: e468 1e3c 05a6 dfbc bdb8 703d 9636 d13d
00000140: d210 6b3d e253 c7bc 25ae 16be 6505 473d
00000150: 9c4c 163e 3b24 663d a956 11bd 0b32 4dbe
00000160: a40e a23d 771a 2c3e d202 72bc 1be1 0b3e
00000170: e0f0 e0be 06cf c2bd 487d 893e e1dc 06bd
00000180: bee5 683e c7c1 b8bc c9ef d63d b21c 16ba
00000190: ec93 b1be b21b dc3d 4778 1ebd 0dc8 2b3d
000001a0: 5d9c c5be ad27 cb3d 7703 5bbd 2e47 663e
000001b0: 9b70 f33d abc6 18be 6a0f d1bd 1596 103e
000001c0: ddb6 bebc d299 113e ee50 aebd 0692 6d3c
000001d0: c424 0c3e 4ecb 66bd 09f7 633d 8d90 433e
000001e0: 332b af3b 6e93 863d 83ba 223e fade f33c
000001f0: a065 7ebe bae2 6cbe 7515 d0bd 5c65 01be
00000200: e1f4 573c 6961 08be 3faf 8dbd 6578 bdbd
00000210: 8049 073e fbaf 0f3c 6f2e c33d e24c a5be
00000220: ccd3 b9be 74af 4a3d 8c01 8abe ca74 b2be
00000230: 0ef5 b6bd c7db babd c7a8 1a3e 06f1 933d
00000240: 0b2a 15be 77e5 ff3d f921 123d f614 f2bd
00000250: 4128 2bbe 2d89 debc fb15 48be eca7 3e3d
00000260: 8ba6 833e 0801 f93d ef2f 83bd 6452 cdbd
00000270: d8ac 8d3e 0f95 fc3d 97d9 25bc 6f60 adbe
00000280: 06ae 4abd 293f 233e b5cf dcbd e18d 26be
00000290: cd65 f2bc 64ad 9dbd a65f 1bbe 5ed7 32be
000002a0: f248 1abe 90ec afbc abd9 c6bd 78db a3bc
000002b0: 337f f8bd 1b3e 12be b1d9 933d 2163 2abe
000002c0: fda2 e3bd de27 98be f6c1 cebd fc29 01be
000002d0: f20c 543c c4bb 5c3e abf2 f73d e315 8e3c
000002e0: 720a 87be 38bc 4ebe 0f09 10bd 3e60 00be
000002f0: 5cff babd 9ce7 e1bd 5d56 36be cf64 d13d
00000300: 7ab1 2a3d 0aeb 16be ac22 2dbe 7be0 953d
00000310: 9270 7f3d 4bbf da3d 690c 8e3d 1f5b 1abd
00000320: f391 21be a6e3 afbd e31a bd3d 26c8 31bd
00000330: 8a16 a83e 973a 1bbd c700 bd3d 01ca 64be
00000340: f40e 073e f06d ab3d befe 0c3e 90e7 233e
00000350: c8db aebd 37ab c1ba ded9 ec3d f2a0 293e
00000360: 89cf 223e 075b 913e 0718 99bd 56c3 213e
00000370: 5238 26be 549b 863d f6b9 0e3e 5528 71be
00000380: 37c9 8abd 6299 11be bd01 0cbd 4c0b 3b3e
00000390: 9b2b dabc d884 18bd c196 4dbd 4ad5 de3c
000003a0: cac0 a6be 0668 093e 1be9 983c 08c5 843e
000003b0: 5813 31be 213d 253e f714 1d3e ecab 22be
000003c0: 30ae 82bd 2fbc cabc 506d 823e 7f59 243c
000003d0: 5d95 03bd 6c19 1c3e 255b 7dba bea4 9f3d
000003e0: cc2d 203e 3a2f 803c e3d4 503e a4e3 6b3e
000003f0: fa43 f93d 30ab 0d3e 7135 623b 2c56 d3bd
0.06518223 -0.12506753 -0.19079833 -0.0954943 -0.020088471 -0.30038437 0.010593592 0.058699954
-0.10809241 0.22543491 -0.32914096 0.042245593 0.081668645 -0.151342 -0.071101 0.14816451
-0.08685833 -0.17624691 0.35369968 0.03877681 0.12200432 -0.046890587 0.23247063 -0.021349572
0.09328877 0.2701369 -0.03765554 -0.021430722 0.013596656 0.18820414 0.06115461 0.036571912
0.02105724 0.15888003 -0.19881135 0.06747083 -0.27274066 0.03507619 -0.15674898 -0.25340027
0.007674069 -0.3524891 -0.10669092 0.18476874 0.010327649 -0.04255954 -0.0383769 0.0678491
-0.13011654 -0.17334487 -0.3126886 0.18849881 -0.13312761 -0.12915668 -0.019549012 -0.101001866
-0.24876326 -0.02992143 -0.07844849 -0.2156803 -0.25719815 -0.12980615 0.04502202 0.22055556
-0.10163415 -0.053385396 -0.17158328 0.08878206 -0.08420312 -0.048584428 -0.08622567 -0.24414723
0.0052818195 0.14534575 0.04196088 -0.108805396 0.009668563 -0.027300844 0.05876993 0.102154896
0.057389088 -0.02433199 -0.14714868 0.04858913 0.14677662 0.056186896 -0.035483036 -0.20038621
0.07912949 0.1680697 -0.01477118 0.1366009 -0.43933773 -0.09512143 0.26853395 -0.03292549
0.2274389 -0.022553338 0.10494954 -0.0005726322 -0.34683168 0.1074747 -0.038688924 0.04193883
-0.38595858 0.09919677 -0.0534701 0.2248809 0.11886712 -0.14919536 -0.10208018 0.14119752
-0.023280555 0.14218834 -0.0851153 0.014500147 0.136859 -0.05634623 0.055655513 0.1909811
0.005345726 0.06571089 0.15891461 0.02976941 -0.24843454 -0.23133364 -0.101603426 -0.12636322
0.013180942 -0.13318409 -0.06918191 -0.09251479 0.13211632 0.008769984 0.09530341 -0.3228522
-0.362944 0.04948373 -0.26954305 -0.34854728 -0.08933459 -0.091239505 0.15103446 0.07223706
-0.1456682 0.12494939 0.03567693 -0.11820404 -0.16714574 -0.02716502 -0.19539635 0.04654686
0.25713 0.121584 -0.06405627 -0.100254804 0.27670932 0.12333118 -0.010122678 -0.33862635
-0.049482368 0.15942062 -0.107818045 -0.1626506 -0.029589558 -0.07699087 -0.15173206 -0.17464969
-0.15066889 -0.021475106 -0.097094856 -0.020002112 -0.12133636 -0.14281504 0.07219256 -0.16639377
-0.11115072 -0.29717916 -0.10095589 -0.12613672 0.0129425395 0.21556002 0.12106832 0.01734442
-0.26375157 -0.20188987 -0.03516489 -0.12536713 -0.09130737 -0.11030504 -0.17806382 0.10224306
0.04167316 -0.14738098 -0.16907758 0.07318207 0.062363215 0.106810175 0.06935961 -0.037684556
-0.15778331 -0.08588342 0.09233644 -0.043403767 0.32829696 -0.037897673 0.09228664 -0.22342683
0.13189298 0.08370578 0.13769051 0.16006303 -0.08538014 -0.0014775757 0.11564992 0.16565302
0.15899481 0.2838976 -0.07475286 0.15797171 -0.16232422 0.06572595 0.13938126 -0.23550542
-0.0677666 -0.14218667 -0.034181345 0.18266028 -0.02663212 -0.037236065 -0.0501926 0.027201314
-0.3256896 0.13418588 0.01866584 0.25931573 -0.17292535 0.161366 0.15340029 -0.15885895
-0.0638088 -0.024747936 0.25474024 0.010031103 -0.032124866 0.15244073 -0.00096647657 0.07795094
0.1564247 0.01564752 0.2039371 0.23036057 0.121711686 0.13834834 0.0034516717 -0.1031917

network_body.observation_encoder.processors.0.normalizer.running_mean f4 [120]
00000000: a201 3c3d 0000 0000 0000 0000 0000 0000
00000010: d341 463f 7699 4d3f c9aa a23d 0000 0000
00000020: 0000 0000 0000 0000 8cac 3d3f 5f68 473f
00000030: 104c 173d 0000 0000 0000 0000 0000 0000
00000040: 358e 483f 0ded 4e3f adff aa3d 0000 0000
00000050: 0000 0000 0000 0000 4096 3c3f eefb 463f
00000060: 8e62 303d 0000 0000 0000 0000 0000 0000
00000070: 728d 3f3f 10ce 463f 57e2 483d 0000 0000
00000080: 0000 0000 0000 0000 0fc9 543f c19e 5c3f
00000090: 779e ae3d 0000 0000 0000 0000 0000 0000
000000a0: 5883 4b3f f9f4 553f 6711 233d 0000 0000
000000b0: 0000 0000 0000 0000 4525 573f f405 5e3f
000000c0: a8af b73d 0000 0000 0000 0000 0000 0000
000000d0: 3155 4a3f cc80 553f 72f8 3d3d 0000 0000
000000e0: 0000 0000 0000 0000 310b 4e3f 21ce 553f
000000f0: 67d4 553d 0000 0000 0000 0000 0000 0000
00000100: 3d4d 633f 7ea5 6b3f ef8f ba3d 0000 0000
00000110: 0000 0000 0000 0000 4a59 593f cc81 643f
00000120: 11c9 2e3d 0000 0000 0000 0000 0000 0000
00000130: 8abd 653f 6720 6d3f 166a c43d 0000 0000
00000140: 0000 0000 0000 0000 1e12 583f e802 643f
00000150: f799 4b3d 0000 0000 0000 0000 0000 0000
00000160: 5484 5c3f 9cd1 643f 5cad 623d 0000 0000
00000170: 0000 0000 0000 0000 c4d4 713f c7aa 7a3f
00000180: 4782 c63d 0000 0000 0000 0000 0000 0000
00000190: c22f 673f 370f 733f f9a4 3a3d 0000 0000
000001a0: 0000 0000 0000 0000 f056 743f a33a 7c3f
000001b0: 9623 d13d 0000 0000 0000 0000 0000 0000
000001c0: f7cf 653f c286 723f 294a 593d 0000 0000
000001d0: 0000 0000 0000 0000 d5fe 6a3f 0dd5 733f
0.045899995 0.0 0.0 0.0 0.7744419 0.8031229 0.07942731 0.0
0.0 0.0 0.7409141 0.7789363 0.036937773 0.0 0.0 0.0
0.7834199 0.8083046 0.083495475 0.0 0.0 0.0 0.73666763 0.77728164
0.04306274 0.0 0.0 0.0 0.74825203 0.77658176 0.04904398 0.0
0.0 0.0 0.8311929 0.8617974 0.085263185 0.0 0.0 0.0
0.7949729 0.83576924 0.039811518 0.0 0.0 0.0 0.84041244 0.86727834
0.08969051 0.0 0.0 0.0 0.7903624 0.83399653 0.046379514 0.0
0.0 0.0 0.80485827 0.8351765 0.052204516 0.0 0.0 0.0
0.8878973 0.92049396 0.091094844 0.0 0.0 0.0 0.8490187 0.89260554
0.04267222 0.0 0.0 0.0 0.8974234 0.9262757 0.09590547 0.0
0.0 0.0 0.84402645 0.89066935 0.04970738 0.0 0.0 0.0
0.86139417 0.8938234 0.05534111 0.0 0.0 0.0 0.9446528 0.97916836
0.09692817 0.0 0.0 0.0 0.9030725 0.9494509 0.045567486 0.0
0.0 0.0 0.95445156 0.9852697 0.102118656 0.0 0.0 0.0
0.89770454 0.94736874 0.05304924 0.0 0.0 0.0 0.9179509 0.95246965

network_body.observation_encoder.processors.1.normalizer.running_mean f4 [11]
00000000: 0cea 88c0 bfd3 bb42 d8c9 3840 6364 c9ba
00000010: 94fe c23b 916c 26bd 4193 ae3c b978 c8c0
00000020: 378e 9f42 9272 883f 5c36 cdbc
-4.27857 93.91357 2.8873196 -0.0015365 0.0059507582 -0.04063088 0.02131045 -6.2647367
79.77776 1.0659964 -0.025050335
