results/Run00/OpponentML/OpponentML-4451404.pt (torch, 330687 bytes, 52 tensors)

network_body.observation_encoder.processors.0.normalizer.running_mean f4 [120]
0	0x3d241fd0	0.0400694
1	0x00000000	0.0
2	0x00000000	0.0
3	0x00000000	0.0
4	0x3f47b570	0.78011227
5	0x3f4e613d	0.80617124
6	0x3d977297	0.07394903
7	0x00000000	0.0
8	0x00000000	0.0
9	0x00000000	0.0
10	0x3f3f099b	0.7462403
11	0x3f492c45	0.78583175
12	0x3cf0c361	0.029390039
13	0x00000000	0.0
14	0x00000000	0.0
15	0x00000000	0.0
16	0x3f4a71ee	0.7908009
17	0x3f4f993a	0.8109318
18	0x3db0d876	0.08635037
19	0x00000000	0.0
20	0x00000000	0.0
21	0x00000000	0.0
22	0x3f3bd53b	0.7337224
23	0x3f4800f8	0.7812648
24	0x3d1720c7	0.036896493
25	0x00000000	0.0
26	0x00000000	0.0
27	0x00000000	0.0
28	0x3f4117e7	0.754271
29	0x3f4798e7	0.77967685
30	0x3d2f5d86	0.0428138
31	0x00000000	0.0
32	0x00000000	0.0
33	0x00000000	0.0
34	0x3f56590b	0.8372962
35	0x3f5d750a	0.8650671
36	0x3da2707d	0.07931612
37	0x00000000	0.0
38	0x00000000	0.0
39	0x00000000	0.0
40	0x3f4d0254	0.8008168
41	0x3f57dee7	0.84324497
42	0x3d01b2db	0.03166471
43	0x00000000	0.0
44	0x00000000	0.0
45	0x00000000	0.0
46	0x3f593518	0.8484664
47	0x3f5ec124	0.8701346
48	0x3dbe0269	0.092778035
49	0x00000000	0.0
50	0x00000000	0.0
51	0x00000000	0.0
52	0x3f498867	0.7872376
53	0x3f569ab8	0.8382983
54	0x3d22c758	0.03974089
55	0x00000000	0.0
56	0x00000000	0.0
57	0x00000000	0.0
58	0x3f4fb635	0.811374
59	0x3f56af9f	0.83861727
60	0x3d3aa339	0.045565818
61	0x00000000	0.0
62	0x00000000	0.0
63	0x00000000	0.0
64	0x3f64fc91	0.89447886
65	0x3f6c8b5b	0.9240014
66	0x3dad674e	0.084669694
67	0x00000000	0.0
68	0x00000000	0.0
69	0x00000000	0.0
70	0x3f5afb3d	0.8553961
71	0x3f6691cc	0.9006622
72	0x3d0af672	0.033926435
73	0x00000000	0.0
74	0x00000000	0.0
75	0x00000000	0.0
76	0x3f67f992	0.9061519
77	0x3f6ded50	0.92940235
78	0x3dcb3161	0.09921528
79	0x00000000	0.0
80	0x00000000	0.0
81	0x00000000	0.0
82	0x3f573c47	0.8407635
83	0x3f653416	0.895326
84	0x3d2e7a61	0.04259718
85	0x00000000	0.0
86	0x00000000	0.0
87	0x00000000	0.0
88	0x3f5e51a2	0.8684331
89	0x3f65c70b	0.8975684
90	0x3d45d21a	0.04829607
91	0x00000000	0.0
92	0x00000000	0.0
93	0x00000000	0.0
94	0x3f73a2e1	0.9517041
95	0x3f7ba092	0.98291886
96	0x3db85dec	0.09002289
97	0x00000000	0.0
98	0x00000000	0.0
99	0x00000000	0.0
100	0x3f68f4ab	0.90998334
101	0x3f7542d0	0.9580507
102	0x3d144650	0.036199868
103	0x00000000	0.0
104	0x00000000	0.0
105	0x00000000	0.0
106	0x3f76bca4	0.9638159
107	0x3f7d17d3	0.9886448
108	0x3dd860e5	0.10565356
109	0x00000000	0.0
110	0x00000000	0.0
111	0x00000000	0.0
112	0x3f64ec7d	0.8942335
113	0x3f73cff0	0.9523916
114	0x3d3a3786	0.045463108
115	0x00000000	0.0
116	0x00000000	0.0
117	0x00000000	0.0
118	0x3f6ceff5	0.92553645
119	0x3f74d9b2	0.95644677

network_body.observation_encoder.processors.0.normalizer.running_variance f4 [120]
0	0x48273d2a	171252.66
1	0x3f800000	1.0
2	0x3f800000	1.0
3	0x3f800000	1.0
4	0x493a5cfd	763343.8
5	0x492377db	669565.7
6	0x4894d7c6	304830.2
7	0x3f800000	1.0
8	0x3f800000	1.0
9	0x3f800000	1.0
10	0x494dcfca	843004.6
11	0x492a3341	697140.06
12	0x47f80282	126981.016
13	0x3f800000	1.0
14	0x3f800000	1.0
15	0x3f800000	1.0
16	0x4933e49d	736841.8
17	0x4922ad5d	666325.8
18	0x48ab7376	351131.7
19	0x3f800000	1.0
20	0x3f800000	1.0
21	0x3f800000	1.0
22	0x49545205	869664.3
23	0x492ab25a	699173.6
24	0x481a7a7f	158185.98
25	0x3f800000	1.0
26	0x3f800000	1.0
27	0x3f800000	1.0
28	0x49496a3c	824995.75
29	0x49327a62	731046.1
30	0x48323266	182473.6
31	0x3f800000	1.0
32	0x3f800000	1.0
33	0x3f800000	1.0
34	0x49140c98	606409.5
35	0x48f0080e	491584.44
36	0x489eb965	325067.16
37	0x3f800000	1.0
38	0x3f800000	1.0
39	0x3f800000	1.0
40	0x492d5a7b	710055.7
41	0x4901fffd	532479.8
42	0x48054895	136482.33
43	0x3f800000	1.0
44	0x3f800000	1.0
45	0x3f800000	1.0
46	0x490bc219	572449.56
47	0x48ed05dc	485422.88
48	0x48b6ee07	374640.22
49	0x3f800000	1.0
50	0x3f800000	1.0
51	0x3f800000	1.0
52	0x4936067e	745575.9
53	0x4903300f	537344.94
54	0x4825e8aa	169890.66
55	0x3f800000	1.0
56	0x3f800000	1.0
57	0x3f800000	1.0
58	0x492649ca	681116.6
59	0x490a6666	566886.4
60	0x483d1634	193624.81
61	0x3f800000	1.0
62	0x3f800000	1.0
63	0x3f800000	1.0
64	0x48cd1da7	420077.22
65	0x488a1fc5	282878.16
66	0x48a87645	345010.16
67	0x3f800000	1.0
68	0x3f800000	1.0
69	0x3f800000	1.0
70	0x49066f16	550641.4
71	0x48a5487c	338499.88
72	0x480e7acc	145899.19
73	0x3f800000	1.0
74	0x3f800000	1.0
75	0x3f800000	1.0
76	0x48b8db8f	378588.47
77	0x48857d44	273386.12
78	0x48c23fdc	397822.88
79	0x3f800000	1.0
80	0x3f800000	1.0
81	0x3f800000	1.0
82	0x4911810a	595984.6
83	0x48a9462a	346673.3
84	0x48314d3f	181556.98
85	0x3f800000	1.0
86	0x3f800000	1.0
87	0x3f800000	1.0
88	0x48f84935	508489.66
89	0x48b5819a	371724.8
90	0x4847ce1d	204600.45
91	0x3f800000	1.0
92	0x3f800000	1.0
93	0x3f800000	1.0
94	0x4847ce71	204601.77
95	0x47289662	43158.383
96	0x48b20cd6	364646.7
97	0x3f800000	1.0
98	0x3f800000	1.0
99	0x3f800000	1.0
100	0x48b20d03	364648.1
101	0x47e102f0	115205.875
102	0x4817a6bc	155290.94
103	0x3f800000	1.0
104	0x3f800000	1.0
105	0x3f800000	1.0
106	0x4817a774	155293.81
107	0x46eb38b6	30108.355
108	0x48cd6228	420625.25
109	0x3f800000	1.0
110	0x3f800000	1.0
111	0x3f800000	1.0
112	0x48cd8ceb	420967.34
113	0x47f79ad3	126773.65
114	0x483ca8ba	193186.9
115	0x3f800000	1.0
116	0x3f800000	1.0
117	0x3f800000	1.0
118	0x4895d902	306888.06
119	0x480dc7cb	145183.17

network_body.observation_encoder.processors.1.normalizer.running_mean f4 [11]
0	0xc052e8ac	-3.2954512
1	0x42b8c078	92.375916
2	0x4031166b	2.7669933
3	0x3c0687f9	0.008211129
4	0x3c552c57	0.01301106
5	0xbd3bf704	-0.04588987
6	0x3b285790	0.0025686957
7	0xc0aef29b	-5.467115
8	0x429f2e9f	79.59106
9	0xc03c4c5f	-2.9421613
10	0x3d289448	0.041157037

network_body.observation_encoder.processors.1.normalizer.running_variance f4 [11]
0	0x51889b13	7.333966e+10
1	0x5093c815	1.9834907e+10
2	0x5185ddac	7.186871e+10
3	0x49835fc5	1.0762166e+06
4	0x498a43b3	1.1326624e+06
5	0x498cd06f	1.1535499e+06
6	0x4983a7a2	1.0785162e+06
7	0x51a4e970	8.853638e+10
8	0x504e9906	1.386454e+10
9	0x51a37b95	8.776913e+10
10	0x49bec6e9	1.5628451e+06

network_body.processors.0.normalizer.running_mean f4 [120]
0	0x3d241fd0	0.0400694
1	0x00000000	0.0
2	0x00000000	0.0
3	0x00000000	0.0
4	0x3f47b570	0.78011227
5	0x3f4e613d	0.80617124
6	0x3d977297	0.07394903
7	0x00000000	0.0
8	0x00000000	0.0
9	0x00000000	0.0
10	0x3f3f099b	0.7462403
11	0x3f492c45	0.78583175
12	0x3cf0c361	0.029390039
13	0x00000000	0.0
14	0x00000000	0.0
15	0x00000000	0.0
16	0x3f4a71ee	0.7908009
17	0x3f4f993a	0.8109318
18	0x3db0d876	0.08635037
19	0x00000000	0.0
20	0x00000000	0.0
21	0x00000000	0.0
22	0x3f3bd53b	0.7337224
23	0x3f4800f8	0.7812648
24	0x3d1720c7	0.036896493
25	0x00000000	0.0
26	0x00000000	0.0
27	0x00000000	0.0
28	0x3f4117e7	0.754271
29	0x3f4798e7	0.77967685
30	0x3d2f5d86	0.0428138
31	0x00000000	0.0
32	0x00000000	0.0
33	0x00000000	0.0
34	0x3f56590b	0.8372962
35	0x3f5d750a	0.8650671
36	0x3da2707d	0.07931612
37	0x00000000	0.0
38	0x00000000	0.0
39	0x00000000	0.0
40	0x3f4d0254	0.8008168
41	0x3f57dee7	0.84324497
42	0x3d01b2db	0.03166471
43	0x00000000	0.0
44	0x00000000	0.0
45	0x00000000	0.0
46	0x3f593518	0.8484664
47	0x3f5ec124	0.8701346
48	0x3dbe0269	0.092778035
49	0x00000000	0.0
50	0x00000000	0.0
51	0x00000000	0.0
52	0x3f498867	0.7872376
53	0x3f569ab8	0.8382983
54	0x3d22c758	0.03974089
55	0x00000000	0.0
56	0x00000000	0.0
57	0x00000000	0.0
58	0x3f4fb635	0.811374
59	0x3f56af9f	0.83861727
60	0x3d3aa339	0.045565818
61	0x00000000	0.0
62	0x00000000	0.0
63	0x00000000	0.0
64	0x3f64fc91	0.89447886
65	0x3f6c8b5b	0.9240014
66	0x3dad674e	0.084669694
67	0x00000000	0.0
68	0x00000000	0.0
69	0x00000000	0.0
70	0x3f5afb3d	0.8553961
71	0x3f6691cc	0.9006622
72	0x3d0af672	0.033926435
73	0x00000000	0.0
74	0x00000000	0.0
75	0x00000000	0.0
76	0x3f67f992	0.9061519
77	0x3f6ded50	0.92940235
78	0x3dcb3161	0.09921528
79	0x00000000	0.0
80	0x00000000	0.0
81	0x00000000	0.0
82	0x3f573c47	0.8407635
83	0x3f653416	0.895326
84	0x3d2e7a61	0.04259718
85	0x00000000	0.0
86	0x00000000	0.0
87	0x00000000	0.0
88	0x3f5e51a2	0.8684331
89	0x3f65c70b	0.8975684
90	0x3d45d21a	0.04829607
91	0x00000000	0.0
92	0x00000000	0.0
93	0x00000000	0.0
94	0x3f73a2e1	0.9517041
95	0x3f7ba092	0.98291886
96	0x3db85dec	0.09002289
97	0x00000000	0.0
98	0x00000000	0.0
99	0x00000000	0.0
100	0x3f68f4ab	0.90998334
101	0x3f7542d0	0.9580507
102	0x3d144650	0.036199868
103	0x00000000	0.0
104	0x00000000	0.0
105	0x00000000	0.0
106	0x3f76bca4	0.9638159
107	0x3f7d17d3	0.9886448
108	0x3dd860e5	0.10565356
109	0x00000000	0.0
110	0x00000000	0.0
111	0x00000000	0.0
112	0x3f64ec7d	0.8942335
113	0x3f73cff0	0.9523916
114	0x3d3a3786	0.045463108
115	0x00000000	0.0
116	0x00000000	0.0
117	0x00000000	0.0
118	0x3f6ceff5	0.92553645
119	0x3f74d9b2	0.95644677

network_body.processors.0.normalizer.running_variance f4 [120]
0	0x48273d2a	171252.66
1	0x3f800000	1.0
2	0x3f800000	1.0
3	0x3f800000	1.0
4	0x493a5cfd	763343.8
5	0x492377db	669565.7
6	0x4894d7c6	304830.2
7	0x3f800000	1.0
8	0x3f800000	1.0
9	0x3f800000	1.0
10	0x494dcfca	843004.6
11	0x492a3341	697140.06
12	0x47f80282	126981.016
13	0x3f800000	1.0
14	0x3f800000	1.0
15	0x3f800000	1.0
16	0x4933e49d	736841.8
17	0x4922ad5d	666325.8
18	0x48ab7376	351131.7
19	0x3f800000	1.0
20	0x3f800000	1.0
21	0x3f800000	1.0
22	0x49545205	869664.3
23	0x492ab25a	699173.6
24	0x481a7a7f	158185.98
25	0x3f800000	1.0
26	0x3f800000	1.0
27	0x3f800000	1.0
28	0x49496a3c	824995.75
29	0x49327a62	731046.1
30	0x48323266	182473.6
31	0x3f800000	1.0
32	0x3f800000	1.0
33	0x3f800000	1.0
34	0x49140c98	606409.5
35	0x48f0080e	491584.44
36	0x489eb965	325067.16
37	0x3f800000	1.0
38	0x3f800000	1.0
39	0x3f800000	1.0
40	0x492d5a7b	710055.7
41	0x4901fffd	532479.8
42	0x48054895	136482.33
43	0x3f800000	1.0
44	0x3f800000	1.0
45	0x3f800000	1.0
46	0x490bc219	572449.56
47	0x48ed05dc	485422.88
48	0x48b6ee07	374640.22
49	0x3f800000	1.0
50	0x3f800000	1.0
51	0x3f800000	1.0
52	0x4936067e	745575.9
53	0x4903300f	537344.94
54	0x4825e8aa	169890.66
55	0x3f800000	1.0
56	0x3f800000	1.0
57	0x3f800000	1.0
58	0x492649ca	681116.6
59	0x490a6666	566886.4
60	0x483d1634	193624.81
61	0x3f800000	1.0
62	0x3f800000	1.0
63	0x3f800000	1.0
64	0x48cd1da7	420077.22
65	0x488a1fc5	282878.16
66	0x48a87645	345010.16
67	0x3f800000	1.0
68	0x3f800000	1.0
69	0x3f800000	1.0
70	0x49066f16	550641.4
71	0x48a5487c	338499.88
72	0x480e7acc	145899.19
73	0x3f800000	1.0
74	0x3f800000	1.0
75	0x3f800000	1.0
76	0x48b8db8f	378588.47
77	0x48857d44	273386.12
78	0x48c23fdc	397822.88
79	0x3f800000	1.0
80	0x3f800000	1.0
81	0x3f800000	1.0
82	0x4911810a	595984.6
83	0x48a9462a	346673.3
84	0x48314d3f	181556.98
85	0x3f800000	1.0
86	0x3f800000	1.0
87	0x3f800000	1.0
88	0x48f84935	508489.66
89	0x48b5819a	371724.8
90	0x4847ce1d	204600.45
91	0x3f800000	1.0
92	0x3f800000	1.0
93	0x3f800000	1.0
94	0x4847ce71	204601.77
95	0x47289662	43158.383
96	0x48b20cd6	364646.7
97	0x3f800000	1.0
98	0x3f800000	1.0
99	0x3f800000	1.0
100	0x48b20d03	364648.1
101	0x47e102f0	115205.875
102	0x4817a6bc	155290.94
103	0x3f800000	1.0
104	0x3f800000	1.0
105	0x3f800000	1.0
106	0x4817a774	155293.81
107	0x46eb38b6	30108.355
108	0x48cd6228	420625.25
109	0x3f800000	1.0
110	0x3f800000	1.0
111	0x3f800000	1.0
112	0x48cd8ceb	420967.34
113	0x47f79ad3	126773.65
114	0x483ca8ba	193186.9
115	0x3f800000	1.0
116	0x3f800000	1.0
117	0x3f800000	1.0
118	0x4895d902	306888.06
119	0x480dc7cb	145183.17

network_body.processors.1.normalizer.running_mean f4 [11]
0	0xc052e8ac	-3.2954512
1	0x42b8c078	92.375916
2	0x4031166b	2.7669933
3	0x3c0687f9	0.008211129
4	0x3c552c57	0.01301106
5	0xbd3bf704	-0.04588987
6	0x3b285790	0.0025686957
7	0xc0aef29b	-5.467115
8	0x429f2e9f	79.59106
9	0xc03c4c5f	-2.9421613
10	0x3d289448	0.041157037

network_body.processors.1.normalizer.running_variance f4 [11]
0	0x51889b13	7.333966e+10
1	0x5093c815	1.9834907e+10
2	0x5185ddac	7.186871e+10
3	0x49835fc5	1.0762166e+06
4	0x498a43b3	1.1326624e+06
5	0x498cd06f	1.1535499e+06
6	0x4983a7a2	1.0785162e+06
7	0x51a4e970	8.853638e+10
8	0x504e9906	1.386454e+10
9	0x51a37b95	8.776913e+10
10	0x49bec6e9	1.5628451e+06

network_body._body_endoder.seq_layers.0.weight f4 [64, 131]
0	0x3d88614f	0.06659185
1	0xbd8fef4f	-0.07028066
2	0xbb9b5530	-0.0047403798
3	0x3da36e9a	0.0798008
4	0xbd93c80c	-0.0721589
5	0xbda95f0f	-0.08270084
6	0x3e6eb77d	0.23312183
7	0xbc9e113d	-0.01929533
8	0x3cd3f0cf	0.025871662
9	0xbe1267c2	-0.14297393
10	0xbe35233e	-0.17689225
11	0xbdc797a4	-0.0974572
12	0xbc5e324a	-0.0135617945
13	0xbded7a12	-0.11595549
14	0xbd7d7d77	-0.06188723
15	0x3a1cd29d	0.00059823116
16	0xbdd837f4	-0.10557547
17	0x3dc350af	0.095368735
18	0xbd6b6080	-0.057465076
19	0xbdef052f	-0.116709106
20	0x3da84929	0.08217079
21	0xbd095b52	-0.033534355
22	0xbd4a80b0	-0.049439132
23	0xbd9e02f7	-0.07715409
24	0x3e1ccbcf	0.15312122
25	0xbd36ed25	-0.044659752
26	0xbaa066c7	-0.0012237661
27	0x3de3dba7	0.1112588
28	0xbd27c337	-0.040957656
29	0x3e0954b6	0.13411221
30	0x3d34a3b7	0.044101443
31	0x3e094666	0.13405761
32	0x3db7d2d7	0.089757614
33	0x3d1736d2	0.036917515
34	0x3c931b8c	0.017957471
35	0x3d566e5d	0.052351344
36	0x3dce2448	0.10065514
37	0x3cc1526d	0.023598874
38	0xbde7d41f	-0.11319756
39	0x3c271025	0.01019672
40	0xbd148be1	-0.03626621
41	0xbd6184ee	-0.055058412
42	0xbc4d4be5	-0.012530302
43	0xbda2370b	-0.07920655
44	0x3e0a66e1	0.13515808
45	0xbe704322	-0.23463109
46	0xbd3ca9a7	-0.04606023
47	0xbd947c64	-0.07250288
48	0xbe79c684	-0.24392134
49	0xbe1640a9	-0.14673103
50	0xbdd65c18	-0.10466784
51	0x3c61c797	0.013780496
52	0x3c74ea32	0.014948415
53	0x3db14f75	0.08657733
54	0x3e19c69a	0.15017167
55	0x3e252ad8	0.16129625
56	0xbd4af29a	-0.04954777
57	0x3e084f00	0.13311386
58	0x3c82aeb3	0.015952444
59	0xbe563464	-0.20918423
60	0x3d9f8074	0.07788172
61	0x3db1802d	0.08667026
62	0xbd4e5dea	-0.050382532
63	0x3db955be	0.09049557
64	0x3e66e38a	0.22547737
65	0x3e9e2dc4	0.3089429
66	0x3df2917b	0.118441544
67	0x3dc20a4d	0.09474621
68	0xbdaed6d6	-0.085370705
69	0xbe05a645	-0.13051708
70	0x3d148f21	0.03626931
71	0x3dcc9802	0.09989931
72	0xbd8db9ce	-0.06920205
73	0x3cb1ad65	0.021689126
74	0x3d412a4d	0.04715948
75	0xbdc67a0d	-0.09691248
76	0x3e9118cb	0.28339228
77	0x3dbf32f0	0.093358874
78	0xbd8cc801	-0.06874085
79	0xbd5bb559	-0.053639743
80	0x3da47a85	0.08031181
81	0xbd6136d1	-0.054983918
82	0x3d7a5f04	0.06112577
83	0x3e48080d	0.19534321
84	0x3dbfd671	0.09367073
85	0xbca7af2a	-0.020469267
86	0x3d9920b9	0.074769445
87	0x3dc8cf87	0.09805208
88	0xbe1384e8	-0.14406168
89	0xbe974b42	-0.29549605
90	0xbcb9b423	-0.022668904
91	0x3e13179d	0.14364477
92	0xbdd06e07	-0.10177236
93	0x3d29a4bf	0.04141688
94	0x3dd171ed	0.10226808
95	0x3df77567	0.120829396
96	0x3ea4a8d2	0.3216005
97	0xbda6e39b	-0.08148881
98	0xbdb6455f	-0.0889995
99	0x3d5bdb1e	0.053675763
100	0xbe80c8cb	-0.25153193
101	0x3c143978	0.009046905
102	0xbe887fe0	-0.2666006
103	0x3d09628d	0.03354125
104	0xbcaa4a4d	-0.020787382
105	0x3dc30361	0.09522129
106	0x3e7bf880	0.24606514
107	0x3e56b94b	0.20969121
108	0x3c452723	0.012033257
109	0x3e5bf2cd	0.2147934
110	0xbdab07e5	-0.08351115
111	0x3d6efdfa	0.05834768
112	0x3e5dfa1b	0.21677439
113	0x3e529dff	0.20568083
114	0x3d706c52	0.058697052
115	0xbdcfd32a	-0.10147698
116	0x3e0ab27e	0.13544652
117	0xbc9fdba9	-0.019513922
118	0xbbb8eccb	-0.0056434623
119	0xbca62d6f	-0.020285336
120	0x3da432d1	0.08017505
121	0xbc8f4a8d	-0.017491603
122	0xbe27c067	-0.1638199
123	0x3d79f0d8	0.061020702
124	0xbdcb5606	-0.09928517
125	0x3eb5b2d3	0.35487995
126	0x3d172b58	0.03690657
127	0x3e064db8	0.13115585
128	0x3e1d339c	0.15351719
129	0x3c45926e	0.012058837
130	0xbe365bed	-0.17808504
131	0xbdfd01c2	-0.12353851
132	0xbc808d6d	-0.015692437
133	0x3d7723f1	0.06033701
134	0x3e2d5f46	0.16930875
135	0xbd5f92c6	-0.054583333
136	0xbdd41129	-0.103548355
137	0xbad0e391	-0.0015936961
138	0x3b76e58d	0.0037673444
139	0xbc059e21	-0.008155377
140	0x3dedb5b7	0.11606925
141	0xbdfcd92d	-0.123461105
142	0x3ddc54d2	0.10758366
143	0x3cd89c3e	0.02644169
144	0xbd3a0650	-0.045416176
145	0xbcfbbd74	-0.030729987
146	0x39d40346	0.0004043823
147	0xbd36d29d	-0.04463445
148	0x3cb31e31	0.021864982
149	0x3e064d30	0.13115382
150	0x3c338bfc	0.010958668
151	0x3e1d979a	0.15389863
152	0xbcaccea1	-0.021094622
153	0x3cb376d7	0.021907253
154	0x3d154c16	0.036449514
155	0xbe35df1f	-0.17760895
156	0xbbbfe998	-0.005856704
157	0x3d00da7c	0.031458363
158	0xba8ee370	-0.0010901522
159	0x3d98ea6b	0.07466587
160	0x3d59fdb3	0.053220462
161	0xbe31a307	-0.17347346
162	0x3d3cfe01	0.046140675
163	0xbcd8581b	-0.0264092
164	0xbe0111da	-0.12604466
165	0x3ce00664	0.027346797
166	0xbd11e16e	-0.035615377
167	0xbe0d4009	-0.13793959
168	0xbdb22f53	-0.08700433
169	0xbc8d3107	-0.017235292
170	0x3d3e9e9d	0.046537984
171	0x3d273f62	0.04083193
172	0x3caa4391	0.020784171
173	0x3c57e0fc	0.013176199
174	0x3d87569d	0.06608317
175	0xbcb195a7	-0.021677805
176	0xbdb71fd4	-0.089416176
177	0x3d849606	0.06473927
178	0x3d73ad52	0.059491463
179	0x3cbf30fc	0.023338787
180	0xbd682d6b	-0.05668394
181	0x3e839e40	0.25706673
182	0x3d2b1a21	0.041772965
183	0x3d3e163e	0.04640793
184	0x3e0beeb8	0.13665283
185	0xbe69e709	-0.22842039
186	0x3d9ecb87	0.077536635
187	0x3bd6e2b2	0.006557786
188	0xbd54d144	-0.051957384
189	0xbd2dc122	-0.042420514
190	0xbe79bc79	-0.24388303
191	0xbcc17ad7	-0.023618145
192	0x3d3fd9fc	0.046838745
193	0xbd6e3c8f	-0.058163222
194	0x3b790c5f	0.0038001759
195	0xbd02724e	-0.03184729
196	0x3e4b3d31	0.19847561
197	0xbd527852	-0.051384278
198	0x3daab09e	0.08334468
199	0xbdd58824	-0.104263574
200	0xbd7a5edd	-0.061125625
201	0x3dd3d70f	0.103437535
202	0x3e365bf8	0.17808521
203	0xbcbc4a68	-0.022984698
204	0x3d4499d2	0.047998257
205	0x3cdf08cc	0.027225874
206	0xbd778626	-0.06043067
207	0xbd852d11	-0.06502736
208	0xbcd14e7c	-0.02555012
209	0x3d1e8124	0.038697377
210	0x3e31703b	0.17327969
211	0xbda8bc8b	-0.08239087
212	0xbe080d00	-0.13286209
213	0x3cecfef0	0.028930157
214	0x3daab4c9	0.08335263
215	0xbe49dfab	-0.19714229
216	0xbde8c287	-0.11365228
217	0x3d51d2cd	0.051226426
218	0x3e11408e	0.14184782
219	0xbdde75b8	-0.10862297
220	0xbe644b61	-0.2229438
221	0xbd485b57	-0.048915233
222	0xbd47d3fa	-0.04878614
223	0xbdf64bbf	-0.12026166
224	0x3d32a628	0.04361549
225	0xbd224ebc	-0.03962587
226	0x3dfca3e0	0.12335944
227	0xbdbea8ed	-0.09309564
228	0x3a8fb676	0.0010964412
229	0x3d026db8	0.031842917
230	0x3bb4ccce	0.0055175787
231	0x3d193887	0.037407424
232	0x3ccd9fe1	0.02510065
233	0xbd9449f6	-0.072406694
234	0xbdc76e97	-0.0973789
235	0x3d86ab40	0.06575632
236	0x3d0d19c3	0.034448396
237	0x3d0fcfd7	0.03511032
238	0x3e3fa726	0.18716106
239	0xbc5300db	-0.012878622
240	0x3d041c48	0.032253534
241	0x3df4c610	0.1195184
242	0xbd8bd0a7	-0.06826907
243	0x3dea100b	0.11428841
244	0x3d8be303	0.068304084
245	0xbd2c1615	-0.042013247
246	0x3c9839c4	0.018582232
247	0xbdb4743e	-0.08811234
248	0xbd33214c	-0.043732926
249	0x3e029d37	0.12755285
250	0x3d6afe4c	0.057371423
251	0x3b2dbb5b	0.0026509378
252	0x3e23aafe	0.15983197
253	0xbe857c89	-0.26071575
254	0x3ea81c12	0.32833916
255	0xbe1c012f	-0.15234827

network_body._body_endoder.seq_layers.0.bias f4 [64]
0	0x3d9f4a1a	0.077778056
1	0x3c94fd9b	0.018187335
2	0xbdc25e0c	-0.09490594
3	0xbd5f6b09	-0.054545436
4	0x3d0695b8	0.032857627
5	0xbd51131a	-0.051043607
6	0x3d005ce4	0.031338587
7	0x3debb879	0.11509795
8	0x3db173d4	0.086646706
9	0xbe26028c	-0.16211909
10	0x3dc48a48	0.095966876
11	0x3df1c1ca	0.118045405
12	0x3d97f6a2	0.07420088
13	0xbe0afa8b	-0.13572137
14	0x3dd2b646	0.10288672
15	0x3d43f708	0.04784301
16	0x3b7e099b	0.003876305
17	0x3de37bc6	0.11107592
18	0xbdf7a48a	-0.1209193
19	0xbde4a377	-0.11163991
20	0x3cda12e2	0.026620332
21	0xbc057ea7	-0.008147872
22	0x3dca81b8	0.09888023
23	0x3bca4190	0.0061723664
24	0xbd9844b5	-0.0743498
25	0x3d0eca9e	0.0348612
26	0xbdd3b912	-0.10338034
27	0x3db4838f	0.08814155
28	0x3d41d533	0.047322463
29	0xbd7b1a1a	-0.06130419
30	0x3c72b412	0.01481344
31	0x3b989837	0.0046568173
32	0x3d763149	0.060105596
33	0xbe0db7f7	-0.13839708
34	0xbce79ca7	-0.02827294
35	0x3c0e93e4	0.008702252
36	0x3db8e351	0.09027732
37	0x3d761467	0.06007805
38	0xbc52cc8d	-0.0128661515
39	0x3d4104f8	0.04712388
40	0xbd75f573	-0.06004853
41	0x3cd8ca30	0.026463598
42	0x3c0cd68d	0.008596075
43	0xbcae10a0	-0.021248162
44	0xb9cb6679	-0.00038795525
45	0xbda4d680	-0.08048725
46	0xbd381daa	-0.044950165
47	0xbd8f26dc	-0.06989834
48	0xbce54365	-0.027986238
49	0x3d812a68	0.063069165
50	0xbd58ede0	-0.05296123
51	0x3d6b75a2	0.05748523
52	0x3d7e7af7	0.062128987
53	0xbcf29e52	-0.029616509
54	0xbdf170de	-0.11789106
55	0x3e05b1a3	0.13056044
56	0xbd9537ee	-0.07286058
57	0x3cbae342	0.022813443
58	0xbd9987ca	-0.07496603
59	0x3d3708a2	0.044685967
60	0xbd539aee	-0.051661424
61	0x3d229dee	0.039701395
62	0xbe2ee247	-0.17078505
63	0xbddc687d	-0.10762117

network_body._body_endoder.seq_layers.2.weight f4 [64, 64]
0	0x3d84c0ef	0.06482112
1	0xbe0a5ce2	-0.13511994
2	0xbe3eda9e	-0.18638083
3	0xbdc2a506	-0.09504132
4	0xbd0cf766	-0.034415625
5	0xbea2cf30	-0.31798697
6	0xbc2c0a93	-0.010500568
7	0x3d11474a	0.035468377
8	0xbe0a168b	-0.13485162
9	0x3e80b256	0.2513606
10	0xbeb2edd5	-0.34947076
11	0x3ce245e2	0.027621213
12	0x3d822901	0.06355477
13	0xbe4dc2c6	-0.20093831
14	0xbd75438b	-0.059878867
15	0x3e072e7b	0.13201325
16	0xbd5a0aef	-0.053233083
17	0xbe650573	-0.2236536
18	0x3ea9eb66	0.33187407
19	0xba8b22f3	-0.0010615274
20	0x3dd865eb	0.10566314
21	0xbd90e8a8	-0.07075626
22	0x3e68d8dd	0.22738977
23	0xbd4a8317	-0.049441423
24	0x3d55295c	0.052041396
25	0x3e93b57a	0.28849393
26	0xbd91ae9c	-0.07113382
27	0xbd209eae	-0.03921383
28	0x3c8e0903	0.017338281
29	0x3e456453	0.19276552
30	0x3db5cc6b	0.0887688
31	0x3ccd5377	0.025064213
32	0x3cec3f13	0.02883867
33	0x3e10e7e2	0.14150956
34	0xbe80d920	-0.25165653
35	0x3d9d9a63	0.076954626
36	0xbe9df03d	-0.3084735
37	0x3da0a61e	0.07844184
38	0xbe277a38	-0.16355217
39	0xbe7b0a50	-0.24515653
40	0xbd6e8574	-0.05823274
41	0xbeb648b7	-0.35602352
42	0xbdc2af16	-0.09506051
43	0x3e39eda4	0.18157059
44	0x3abe5b1b	0.0014523001
45	0xbda2f3b3	-0.07956638
46	0xbd9903bd	-0.07471416
47	0x3d7ae7f2	0.061256357
48	0xbdcfd79a	-0.101485446
49	0xbe2cb4e0	-0.16865873
50	0xbe9bd5cc	-0.30436552
51	0x3e26f176	0.16303048
52	0xbe28d39a	-0.1648697
53	0xbe05ef75	-0.13079627
54	0xbd337d69	-0.043820772
55	0xbdc3871e	-0.09547256
56	0xbe734a88	-0.237589
57	0xbce5f987	-0.028073085
58	0xbd4b200b	-0.049591105
59	0xbe598191	-0.21240832
60	0xbe885e67	-0.26634523
61	0xbe279e5d	-0.16369005
62	0x3bc4e6bd	0.0060089515
63	0x3e36cd46	0.17851743
64	0xbe1eba1b	-0.15500681
65	0xbd60cbd1	-0.054881874
66	0xbe5228c3	-0.20523362
67	0x3d91dcc3	0.07122185
68	0xbdcefb8f	-0.10106575
69	0xbd2571d5	-0.04039176
70	0xbd37d779	-0.044883225
71	0xbe915b9f	-0.28390214
72	0xbbdfce8c	-0.006830042
73	0x3ddb2299	0.10699958
74	0x3d3adb91	0.04561955
75	0xbdef4942	-0.11683895
76	0x3c9babb3	0.019002771
77	0xbc3efa1d	-0.011656311
78	0x3d87200d	0.0659791
79	0x3dde5309	0.108556814
80	0x3da53ea7	0.080685906
81	0xbcccf552	-0.025019322
82	0xbe0dbff1	-0.13842751
83	0x3df73ddb	0.12072345
84	0x3e17c26e	0.14820263
85	0x3d6a6630	0.05722636
86	0xbc7ba81c	-0.015359905
87	0xbe527780	-0.20553398
88	0x3d119ee2	0.035551913
89	0x3e1d96db	0.15389578
90	0xbcc8244b	-0.024431368
91	0x3e0423c5	0.1290427
92	0xbedd2db1	-0.43198922
93	0xbdeb76d3	-0.11497273
94	0x3e8a296a	0.2698472
95	0xbc4cc8a9	-0.012499013
96	0x3e62288d	0.22085781
97	0xbcf4bde3	-0.029875701
98	0x3dc828b1	0.09773386
99	0x3cb0ee7a	0.02159809
100	0xbeb51df7	-0.35374424
101	0x3e089aba	0.13340273
102	0xbd97a76f	-0.07404982
103	0x3d5e826b	0.054323595
104	0xbebacfd5	-0.36486688
105	0x3da40b07	0.08009916
106	0xbd56c79a	-0.05243645
107	0x3e79be41	0.24388982
108	0x3ddb4b4f	0.10707723
109	0xbde0fbe2	-0.10985543
110	0xbe2c1b39	-0.1680726
111	0x3e19fd9e	0.15038154
112	0xbd3dc37d	-0.04632901
113	0x3de8d633	0.1136898
114	0xbde8db9e	-0.11370014
115	0x3c867055	0.016410986
116	0x3e1958f2	0.14975336
117	0xbd32e013	-0.043670725
118	0x3d453642	0.048147447
119	0x3e36af98	0.17840421
120	0xbaa46715	-0.0012542928
121	0x3dbcd4de	0.09220289
122	0x3de7b531	0.113138564
123	0x3cfd69e3	0.03093428
124	0xbe77daa9	-0.24204506
125	0xbe6c9da5	-0.23107012
126	0xbdbeaad7	-0.09309929
127	0xbdf532b5	-0.11972562
128	0x3ce0dab3	0.027448034
129	0xbe257655	-0.16158421
130	0xbcf06266	-0.029343795
131	0xbd88f250	-0.066868424
132	0x3e30571a	0.17220727
133	0x3d5f3a43	0.054498922
134	0x3e0da463	0.1383224
135	0xbe997dff	-0.2997894
136	0xbecd3d23	-0.40085706
137	0x3ddbd6cc	0.10734329
138	0xbe812360	-0.252223
139	0xbebbe020	-0.3669443
140	0xbd403ebb	-0.046934824
141	0xbd28b2d2	-0.04118616
142	0x3e0fa298	0.14026868
143	0x3cf4d84d	0.029888296
144	0xbe5317f4	-0.20614606
145	0x3e299d93	0.16564016
146	0x3cd5a1dc	0.026078157
147	0xbd47ef44	-0.048812166
148	0xbe4cc365	-0.19996412
149	0x3b905bf5	0.0044054934
150	0xbe3439a1	-0.17600109
151	0x3d0f3f9b	0.03497277
152	0x3e5cf7e8	0.21578944
153	0x3dd929fe	0.106037125
154	0xbd0f4ee3	-0.03498734
155	0xbdb03010	-0.08602917
156	0x3e83f207	0.2577059
157	0x3dfd7eff	0.12377738
158	0xbc9443d1	-0.018098744
159	0xbe9ea85b	-0.3098782
160	0xbd728bdc	-0.05921541
161	0x3e2626e0	0.16225767
162	0xbe08fdcf	-0.1337807
163	0xbdbeabe5	-0.0931013
164	0xbd649047	-0.055801656
165	0xbd1cd976	-0.038293324
166	0xbe3ef04b	-0.18646352
167	0xbe274168	-0.16333544
168	0xbe331e97	-0.17492138
169	0xbd90df08	-0.0707379
170	0xbd782a6d	-0.060587335
171	0xbce37580	-0.02776599
172	0xbe16a9c5	-0.147132
173	0xbd596584	-0.05307533
174	0x3d0fda92	0.035120554
175	0xbe4b8ae8	-0.19877207
176	0xbe0e24a4	-0.13881165
177	0xbe96e799	-0.2947357
178	0xbd7cb64a	-0.061697282
179	0xbe4d20a6	-0.20031986
180	0x3cb20b3c	0.021733873
181	0x3e21eef2	0.15813807
182	0x3e0c84b4	0.13722497
183	0x3cd0f714	0.025508441
184	0xbe8eb29c	-0.27870643
185	0xbe5c849c	-0.21534961
186	0xbe22f4a8	-0.15913641
187	0xbdd63c8c	-0.10460767
188	0xbdfcab63	-0.12337377
189	0xbdbd13de	-0.09232305
190	0xbe00442b	-0.12526004
191	0x3dedc77d	0.11610315
192	0x3d4b5222	0.049638875
193	0xbe341ed6	-0.17589888
194	0xbe442ff5	-0.19158919
195	0x3ccc4da9	0.024939375
196	0x3d926bfb	0.07149502
197	0x3df44144	0.11926511
198	0x3dfce11e	0.12347625
199	0xbca78980	-0.020451307
200	0xbe3077fa	-0.17233267
201	0xbe053015	-0.13006623
202	0x3dd9a619	0.10627384
203	0xbd7a5b76	-0.06112238
204	0x3eaefc8c	0.34177053
205	0xbc61b1d2	-0.013775306
206	0x3dd64a3d	0.104633786
207	0xbe46da14	-0.19419128
208	0x3de4446e	0.111458644
209	0x3d97f202	0.07419206
210	0x3e16c44b	0.14723317
211	0x3e4cdcc3	0.20006089
212	0xbd814467	-0.06311875
213	0xbbd52c51	-0.006505527
214	0x3e1f4a9c	0.15555805
215	0x3e3e3c4f	0.18577693
216	0x3dce6a38	0.10078853
217	0x3e80e18b	0.25172076
218	0xbd5db4e5	-0.054127593
219	0x3e13ae33	0.1442192
220	0xbe10c361	-0.14137031
221	0x3d71dd74	0.059049085
222	0x3e06efe6	0.13177451
223	0xbe5ce4f4	-0.21571714
224	0xbd7a21e1	-0.061067466
225	0xbe1674b8	-0.14692962
226	0xbc819389	-0.01581742
227	0x3e509d3e	0.20372483
228	0xbd1bedfa	-0.03806875
229	0x3bf451c4	0.0074560363
230	0xbd906849	-0.07051141
231	0x3cecbb6f	0.028897969
232	0xbeaa8337	-0.33303234
233	0x3df92a53	0.12166276
234	0x3bfced88	0.0077187456
235	0x3e85393f	0.26020238
236	0xbe3e492e	-0.18582603
237	0x3e5a3ea6	0.21312961
238	0x3df9dca1	0.12200285
239	0xbe3c87e3	-0.18411212
240	0xbda57286	-0.08078484
241	0xbcc3da0f	-0.02390769
242	0x3e50ec40	0.20402622
243	0xbc78e982	-0.015192391
244	0xbca013b6	-0.019540649
245	0x3e1db5ea	0.15401426
246	0xbc21ab61	-0.00986752
247	0x3d875a2e	0.06608997
248	0x3e223dd5	0.158439
249	0x3d224f74	0.039626554
250	0x3e1e05ac	0.15431851
251	0x3e587f38	0.2114228
252	0x3de2370b	0.11045655
253	0x3e2c0655	0.1679929
254	0x3cf5c3b6	0.030000549
255	0xbd4cbbc3	-0.04998375

network_body._body_endoder.seq_layers.2.bias f4 [64]
0	0xbe0e92e8	-0.13923228
1	0x3cbb87de	0.022891935
2	0xbe023eb1	-0.12719227
3	0x3ded49bd	0.1158633
4	0xbe79a4b2	-0.24379233
5	0x3e078571	0.13234498
6	0xbd8705a9	-0.065928765
7	0xbe15270c	-0.14565676
8	0xbdcbcfe6	-0.09951763
9	0xbd4590d6	-0.04823383
10	0x3e3510cc	0.17682189
11	0xbe3ec628	-0.18630278
12	0x3d905d7a	0.07049079
13	0x3d3f4139	0.04669306
14	0x3d3bdff2	0.045867868
15	0xbcfc613b	-0.030808082
16	0xbdb83d40	-0.089960575
17	0xbe73be11	-0.23802973
18	0xbd23e98a	-0.040017642
19	0xbbbcb7cd	-0.0057592154
20	0x3e121be1	0.14268447
21	0x3d048e77	0.032362428
22	0x3d7ba132	0.061433025
23	0xbdeb83d2	-0.11499752
24	0x3d739bc0	0.059474707
25	0xbe203a38	-0.15647209
26	0x3dd1c05f	0.1024177
27	0x3bd77156	0.00657479
28	0xbe3fb17d	-0.1872005
29	0xbd7db8b0	-0.06194371
30	0x3d3466d3	0.044043373
31	0x3db91b11	0.09038366
32	0xbdfcc5e5	-0.12342433
33	0x3d90bdfa	0.07067485
34	0x3dc67948	0.09691101
35	0x3c95366c	0.018214427
36	0x3d7d8f85	0.06190445
37	0x3de50326	0.11182241
38	0xbdb330c4	-0.08749536
39	0x3e15e288	0.14637196
40	0x3d142d46	0.03617599
41	0xbe1c65a7	-0.15273152
42	0x3dc5626d	0.09637914
43	0xbcf3e9b3	-0.029774522
44	0x3dc5a618	0.096508205
45	0xbdfa471e	-0.12220596
46	0x3e19b41c	0.15010113
47	0x3cef7a08	0.029232994
48	0x3dfd14b1	0.12357462
49	0xbd92dda5	-0.071711816
50	0xbd99e3b8	-0.07514137
51	0xbd396ce3	-0.045269858
52	0x3e1c7fdd	0.15283151
53	0xbd57d8e5	-0.05269708
54	0xbb5bdab2	-0.00335471
55	0x3d7c2466	0.06155815
56	0xbdb6e2b1	-0.08929957
57	0xbe150c5c	-0.14555496
58	0x3c5c14a6	0.013432657
59	0x3e068b09	0.13138975
60	0x3db6144e	0.088905916
61	0xbe879394	-0.2647978
62	0xbe06e462	-0.13173059
63	0x3e14c2ff	0.1452751

action_model._continuous_distribution.log_sigma f4 [1, 2]
0	0xbf300679	-0.68759876
1	0xbf3a8f19	-0.728746

action_model._continuous_distribution.mu.weight f4 [2, 64]
0	0xbdc3dd4f	-0.09563696
1	0x3d878c25	0.06618527
2	0xbdb3a1c2	-0.08771087
3	0x3d848586	0.0647078
4	0xbd2945bb	-0.041326266
5	0x3dbff80d	0.09373484
6	0xbe063505	-0.13106163
7	0xbddabd33	-0.10680618
8	0xbe806b1a	-0.25081712
9	0x3da63bb8	0.08116859
10	0x3d8fb353	0.07016625
11	0xbddf827b	-0.10913559
12	0x3e400d6b	0.18755119
13	0x3c515c88	0.012778409
14	0x3c3ebd08	0.011641748
15	0x3df1d6c3	0.11808541
16	0xbd8a043f	-0.06739091
17	0xbd67edfb	-0.05662344
18	0xbd99b37a	-0.075049356
19	0xbdea8e32	-0.11452903
20	0x3a32aab1	0.0006815596
21	0x3ce40fbf	0.02783954
22	0xbda83992	-0.08214106
23	0xbda29af0	-0.07939708
24	0xbdf9f7ee	-0.12205492
25	0xbdb30ced	-0.087427
26	0x3d92bdc5	0.07165102
27	0x3db906ff	0.090345375
28	0xbd95b2f5	-0.07309524
29	0xbbe5df96	-0.007015179
30	0xbdce19e8	-0.10063535
31	0x3d642826	0.05570235
32	0x3cb69eb6	0.022292476
33	0xbd244b35	-0.040110786
34	0x3dd904f2	0.10596646
35	0xbdf80424	-0.12110165
36	0x3c3c51d9	0.011494123
37	0xbadd0d05	-0.0016864842
38	0xbc869c07	-0.016431822
39	0x3de674cc	0.11252746
40	0xbdc49d06	-0.09600262
41	0xbdd99b0c	-0.10625276
42	0x3ac5da81	0.0015095026
43	0x3dd02af9	0.101644464
44	0x3c63f672	0.013913738
45	0xbc14e566	-0.009087896
46	0x3cae51c9	0.021279233
47	0xbcd92ddb	-0.026511123
48	0x3e09680d	0.13418598
49	0xbd58069a	-0.05274067
50	0xbd9eb2ae	-0.07748924
51	0xbe2ad46b	-0.16682594
52	0x3dd7561c	0.10514471
53	0x3cfc4f89	0.030799644
54	0x3daa4b85	0.083151855
55	0xbd7ef384	-0.062243953
56	0xbcb96e6e	-0.022635665
57	0xbd421d7f	-0.04739141
58	0xbe5ca850	-0.21548581
59	0x3c450ef1	0.012027488
60	0x3d217576	0.03941866
61	0xbda9bfe5	-0.08288554
62	0xbd0ec69d	-0.03485738
63	0x3dff8efd	0.12478445
64	0xbcf10c43	-0.029424792
65	0x3d3b1c18	0.04568109
66	0xbd441c9c	-0.047878847
67	0x3cbf4062	0.02334613
68	0xbdf29fda	-0.118468955
69	0x3d69ca16	0.05707749
70	0xbd850d27	-0.06496649
71	0xbe34dd80	-0.1766262
72	0xbdebf91b	-0.115221225
73	0x3bb8ed02	0.005643488
74	0x3e0fa53e	0.14027879
75	0xbe09ac86	-0.13444719
76	0x3dc98ccc	0.09841308
77	0x3d8a5fd4	0.06756559
78	0x3c9a614b	0.018845221
79	0xbc71f18f	-0.014767065
80	0x3cc2a842	0.023761872
81	0xbd2d4e6c	-0.042311117
82	0xbdf08ea4	-0.117459565
83	0x3cc8e6c5	0.024524102
84	0x3e353b45	0.17698391
85	0x3db74a6a	0.0894974
86	0x3e03846b	0.12843482
87	0xbd2aca91	-0.04169709
88	0x3de6dd0d	0.11272631
89	0xbe45c45d	-0.19313188
90	0x3d2d0910	0.04224497
91	0x3cef35e1	0.029200496
92	0xbe24a1f1	-0.160774
93	0xbe4fa27f	-0.20276831
94	0x3d543c5e	0.051815383
95	0x3d8a6ebb	0.067594014
96	0xbe132cc4	-0.14372545
97	0x3d8feb87	0.07027345
98	0x3cc1e8fb	0.023670664
99	0x3d8d37e1	0.06895424
100	0x3d04510a	0.032303847
101	0x3dfdbe04	0.12389758
102	0x3cb61faa	0.022231895
103	0x3da7b01c	0.08187887
104	0x3d9a47a3	0.07533195
105	0xbe3d5a83	-0.18491559
106	0x3d950902	0.07277109
107	0x3b6f06f4	0.003647265
108	0x3c72d3ae	0.014820976
109	0xbe099837	-0.13436972
110	0x3e09ae68	0.13445437
111	0x3d1689b9	0.036752436
112	0x3d1f34b3	0.038868617
113	0xbe333e5e	-0.1750426
114	0xbeab10f1	-0.33411363
115	0xbe3b513a	-0.18292704
116	0x3dfe503d	0.12417648
117	0xbe41d3ab	-0.18928401
118	0x3b7c6172	0.003851023
119	0x3da8e7db	0.08247348
120	0xbe692748	-0.22768891
121	0xbe2f5f33	-0.1712616
122	0x3dad69f4	0.084674746
123	0x3d5af9b1	0.05346078
124	0x3cf1c86d	0.029514516
125	0xbdb08c3b	-0.08620497
126	0xbe34df75	-0.17663367
127	0x3d70c866	0.058784865

action_model._continuous_distribution.mu.bias f4 [2]
0	0x3d01bdcb	0.03167514
1	0x3e5c35ef	0.21504949

exp_avg f4 [64, 131]
0	0x391fd26a	0.00015241807
1	0x00000000	0.0
2	0x00000000	0.0
3	0x00000000	0.0
4	0x3b330f00	0.0027322173
5	0x3b4278ca	0.0029674047
6	0x395d1b89	0.0002108646
7	0x00000000	0.0
8	0x00000000	0.0
9	0x00000000	0.0
10	0x3b2693b7	0.0025417635
11	0x3b3c1226	0.002869734
12	0x3908229f	0.00012982868
13	0x00000000	0.0
14	0x00000000	0.0
15	0x00000000	0.0
16	0x3b3788e7	0.0028005184
17	0x3b438bb0	0.00298379
18	0x39709386	0.0002294314
19	0x00000000	0.0
20	0x00000000	0.0
21	0x00000000	0.0
22	0x3b229dbb	0.0024813253
23	0x3b3b3b9b	0.0028569463
24	0x391926f9	0.00014605735
25	0x00000000	0.0
26	0x00000000	0.0
27	0x00000000	0.0
28	0x3b0d13d4	0.002152671
29	0x3b1a1ded	0.0023516372
30	0x39256eff	0.00015776975
31	0x00000000	0.0
32	0x00000000	0.0
33	0x00000000	0.0
34	0x3ab4dbe8	0.0013798447
35	0x3ad10bc0	0.0015948936
36	0x3965a78d	0.0002190156
37	0x00000000	0.0
38	0x00000000	0.0
39	0x00000000	0.0
40	0x3a9e3245	0.0012069425
41	0x3ac2ae36	0.0014852944
42	0x390d78ce	0.00013491811
43	0x00000000	0.0
44	0x00000000	0.0
45	0x00000000	0.0
46	0x3abd3175	0.0014434295
47	0x3ad3de54	0.0016164281
48	0x397a3e34	0.0002386503
49	0x00000000	0.0
50	0x00000000	0.0
51	0x00000000	0.0
52	0x3a9721cf	0.0011530461
53	0x3ac06712	0.0014679155
54	0x391f2c86	0.00015180008
55	0x00000000	0.0
56	0x00000000	0.0
57	0x00000000	0.0
58	0x3b4f77b2	0.0031657037
59	0x3b61bd9d	0.0034445294
60	0x392aec12	0.00016300406
61	0x00000000	0.0
62	0x00000000	0.0
63	0x00000000	0.0
64	0xb8075813	-3.2268534e-05
65	0x3849912d	4.805734e-05
66	0x396df716	0.00022694128
67	0x00000000	0.0
68	0x00000000	0.0
69	0x00000000	0.0
70	0xb8e90f5b	-0.00011113166
71	0xb7a17c3a	-1.9250543e-05
72	0x391297e6	0.00013980232
73	0x00000000	0.0
74	0x00000000	0.0
75	0x00000000	0.0
76	0xb68a4f63	-4.1219623e-06
77	0x38889b7f	6.513949e-05
78	0x3981d88e	0.00024766143
79	0x00000000	0.0
80	0x00000000	0.0
81	0x00000000	0.0
82	0xb90f50a6	-0.00013667587
83	0xb80bac83	-3.3300847e-05
84	0x39250a8f	0.0001573956
85	0x00000000	0.0
86	0x00000000	0.0
87	0x00000000	0.0
88	0xba2fc908	-0.0006705676
89	0xba32d536	-0.0006821932
90	0x39303ca5	0.0001680726
91	0x00000000	0.0
92	0x00000000	0.0
93	0x00000000	0.0
94	0xb9303cdd	-0.00016807341
95	0xb907b2ec	-0.00012941257
96	0x39761a93	0.00023470288
97	0x00000000	0.0
98	0x00000000	0.0
99	0x00000000	0.0
100	0xb9761658	-0.00023468712
101	0xb94c0633	-0.00019457265
102	0x3917a092	0.000144603
103	0x00000000	0.0
104	0x00000000	0.0
105	0x00000000	0.0
106	0xb9178fae	-0.00014454007
107	0xb8d80708	-0.00010300992
108	0x398678da	0.00025648513
109	0x00000000	0.0
110	0x00000000	0.0
111	0x00000000	0.0
112	0xb9868fe9	-0.00025665693
113	0xb95cbdf4	-0.00021051598
114	0x392ac2e0	0.0001628506
115	0x00000000	0.0
116	0x00000000	0.0
117	0x00000000	0.0
118	0xb909f5a1	-0.00013156842
119	0xb89258f3	-6.9783906e-05
120	0xbae2f2c9	-0.0017314787
121	0x3af4fb9b	0.0018690707
122	0x3a2baff0	0.0006549349
123	0xb9be71d8	-0.00036324444
124	0xba4d8c92	-0.0007841076
125	0x3af07f6a	0.0018348519
126	0xb9d7b7fe	-0.0004114508
127	0xba3d5f1c	-0.000722395
128	0x3a5f8b77	0.0008527557
129	0x3b15f713	0.0022882863
130	0x3a223638	0.0006187889
131	0xb7ceb8fc	-2.4643254e-05
132	0x00000000	0.0
133	0x00000000	0.0
134	0x00000000	0.0
135	0x3a21d06d	0.00061727205
136	0x3a2aa635	0.0006509752
137	0xb80eff1d	-3.409303e-05
138	0x00000000	0.0
139	0x00000000	0.0
140	0x00000000	0.0
141	0x3a1c7023	0.00059676374
142	0x3a28dd64	0.0006441681
143	0xb7b01236	-2.0989315e-05
144	0x00000000	0.0
145	0x00000000	0.0
146	0x00000000	0.0
147	0x3a23de0d	0.00062510447
148	0x3a2aacab	0.0006510715
149	0xb81b963d	-3.70948e-05
150	0x00000000	0.0
151	0x00000000	0.0
152	0x00000000	0.0
153	0x3a1aea91	0.0005909587
154	0x3a28fbca	0.0006446211
155	0xb7c61836	-2.3614713e-05
156	0x00000000	0.0
157	0x00000000	0.0
158	0x00000000	0.0
159	0xb84395f7	-4.663129e-05
160	0xb7fbe1ae	-3.0026622e-05
161	0xb7d5fad5	-2.5508381e-05
162	0x00000000	0.0
163	0x00000000	0.0
164	0x00000000	0.0
165	0x3a7d16a1	0.0009654556
166	0x3a8b39f6	0.0010622132
167	0xb8148647	-3.5411005e-05
168	0x00000000	0.0
169	0x00000000	0.0
170	0x00000000	0.0
171	0x3a6cc52e	0.00090320676
172	0x3a86c4cd	0.001028204
173	0xb7b6fda9	-2.181421e-05
174	0x00000000	0.0
175	0x00000000	0.0
176	0x00000000	0.0
177	0x3a81c058	0.0009899242
178	0x3a8bdd50	0.0010670815
179	0xb821d6dd	-3.85855e-05
180	0x00000000	0.0
181	0x00000000	0.0
182	0x00000000	0.0
183	0x3a681b87	0.00088541996
184	0x3a8661cd	0.0010252536
185	0xb7cde262	-2.4543322e-05
186	0x00000000	0.0
187	0x00000000	0.0
188	0x00000000	0.0
189	0x3ac94906	0.0015356846
190	0x3ad7f1cf	0.0016475263
191	0xb7dd1415	-2.6354604e-05
192	0x00000000	0.0
193	0x00000000	0.0
194	0x00000000	0.0
195	0xb907dc82	-0.00012956749
196	0xb9345fe6	-0.00017201863
197	0xb819e59d	-3.6691887e-05
198	0x00000000	0.0
199	0x00000000	0.0
200	0x00000000	0.0
201	0xb8d1311f	-9.975046e-05
202	0xb91a2c22	-0.00014703025
203	0xb7bdacdc	-2.261105e-05
204	0x00000000	0.0
205	0x00000000	0.0
206	0x00000000	0.0
207	0xb9142ba2	-0.00014130634
208	0xb93a3bf2	-0.00017760674
209	0xb827f31d	-4.004232e-05
210	0x00000000	0.0
211	0x00000000	0.0
212	0x00000000	0.0
213	0xb8bef28c	-9.105084e-05
214	0xb915ec02	-0.00014297667
215	0xb7d5792f	-2.544801e-05
216	0x00000000	0.0
217	0x00000000	0.0
218	0x00000000	0.0
219	0x39a0fdf7	0.00030706797
220	0x39abe47b	0.00032785893
221	0xb7e3f428	-2.7174203e-05
222	0x00000000	0.0
223	0x00000000	0.0
224	0x00000000	0.0
225	0x37e3f4c2	2.7174483e-05
226	0x37af84f9	2.0923546e-05
227	0xb81f2976	-3.7947168e-05
228	0x00000000	0.0
229	0x00000000	0.0
230	0x00000000	0.0
231	0x381f267d	3.79444e-05
232	0x3803f287	3.1458705e-05
233	0xb7c4206f	-2.3380124e-05
234	0x00000000	0.0
235	0x00000000	0.0
236	0x00000000	0.0
237	0x37c40aaf	2.3369996e-05
238	0x378bb63a	1.6654947e-05
239	0xb82deef3	-4.1468953e-05
240	0x00000000	0.0
241	0x00000000	0.0
242	0x00000000	0.0
243	0x382e0cbc	4.1496693e-05
244	0x380ec273	3.4036533e-05
245	0xb7dcdf5b	-2.6330052e-05
246	0x00000000	0.0
247	0x00000000	0.0
248	0x00000000	0.0
249	0x38c56a65	9.4135095e-05
250	0x38e9f638	0.000111561676
251	0x388f0e33	6.821416e-05
252	0xba284e46	-0.0006420355
253	0xbb17f849	-0.002318876
254	0xbaaad431	-0.0013033209
255	0xbb3d4cb3	-0.0028884828

exp_avg_sq f4 [64, 131]
0	0x39d51a61	0.0004064618
1	0x00000000	0.0
2	0x00000000	0.0
3	0x00000000	0.0
4	0x39c0e522	0.0003679181
5	0x39c2b05c	0.0003713396
6	0x39b80176	0.00035096303
7	0x00000000	0.0
8	0x00000000	0.0
9	0x00000000	0.0
10	0x39b7f505	0.00035087034
11	0x39b8fab1	0.00035281994
12	0x38c37baa	9.321359e-05
13	0x00000000	0.0
14	0x00000000	0.0
15	0x00000000	0.0
16	0x39b93ddc	0.00035332039
17	0x39c6dd64	0.00037930452
18	0x394a27da	0.00019279067
19	0x00000000	0.0
20	0x00000000	0.0
21	0x00000000	0.0
22	0x39a87c6f	0.00032136167
23	0x39bbcbd3	0.0003581928
24	0x3995a8ad	0.00028545168
25	0x00000000	0.0
26	0x00000000	0.0
27	0x00000000	0.0
28	0x39ad784a	0.00033086754
29	0x39b2e104	0.00034118455
30	0x39d6eaf8	0.00040992326
31	0x00000000	0.0
32	0x00000000	0.0
33	0x00000000	0.0
34	0x39c0c513	0.00036767925
35	0x39ba5e8c	0.00035547127
36	0x39c6655f	0.0003784103
37	0x00000000	0.0
38	0x00000000	0.0
39	0x00000000	0.0
40	0x39b962d8	0.00035359594
41	0x39ad906f	0.00033104743
42	0x389a4152	7.355459e-05
43	0x00000000	0.0
44	0x00000000	0.0
45	0x00000000	0.0
46	0x39a616c2	0.00031678943
47	0x39bd8556	0.00036148232
48	0x3936e4cf	0.0001744211
49	0x00000000	0.0
50	0x00000000	0.0
51	0x00000000	0.0
52	0x3992daad	0.00028010216
53	0x39adb47d	0.00033131606
54	0x39b400e0	0.00034332927
55	0x00000000	0.0
56	0x00000000	0.0
57	0x00000000	0.0
58	0x39c38971	0.000372957
59	0x39c8bdf6	0.00038288505
60	0x39b98a14	0.00035388826
61	0x00000000	0.0
62	0x00000000	0.0
63	0x00000000	0.0
64	0x3937f8fe	0.00017544997
65	0x381e6c40	3.777095e-05
66	0x39d44d85	0.00040493548
67	0x00000000	0.0
68	0x00000000	0.0
69	0x00000000	0.0
70	0x3986be09	0.0002570006
71	0x3895ed1c	7.149039e-05
72	0x3827d939	4.0018207e-05
73	0x00000000	0.0
74	0x00000000	0.0
75	0x00000000	0.0
76	0x383b6a92	4.4683526e-05
77	0x37e7ae95	2.7618642e-05
78	0x3934dabd	0.00017247624
79	0x00000000	0.0
80	0x00000000	0.0
81	0x00000000	0.0
82	0x39125123	0.00013953871
83	0x38965b72	7.1695904e-05
84	0x39ade988	0.00033171126
85	0x00000000	0.0
86	0x00000000	0.0
87	0x00000000	0.0
88	0x3997e26d	0.00028969665
89	0x39872637	0.0002577768
90	0x39b4d7d5	0.00034493083
91	0x00000000	0.0
92	0x00000000	0.0
93	0x00000000	0.0
94	0x39b4d756	0.00034492713
95	0x38b41221	8.5864456e-05
96	0x39d02507	0.0003970044
97	0x00000000	0.0
98	0x00000000	0.0
99	0x00000000	0.0
100	0x39d024cf	0.00039700276
101	0x3919d2ea	0.00014669789
102	0x37908417	1.7227647e-05
103	0x00000000	0.0
104	0x00000000	0.0
105	0x00000000	0.0
106	0x379073f7	1.7220138e-05
107	0x370159d0	7.70991e-06
108	0x3921857a	0.0001540388
109	0x00000000	0.0
110	0x00000000	0.0
111	0x00000000	0.0
112	0x39217143	0.0001539635
113	0x38fdcaa2	0.000121017234
114	0x3991bc8e	0.0002779704
115	0x00000000	0.0
116	0x00000000	0.0
117	0x00000000	0.0
118	0x393defa8	0.00018113723
119	0x389d2523	7.493261e-05
120	0x39fb1547	0.00047890304
121	0x399720b7	0.0002882534
122	0x39cdb545	0.00039235703
123	0x39a4ca41	0.00031431208
124	0x3997d666	0.00028960704
125	0x39d47de9	0.000405296
126	0x3999c82b	0.0002933157
127	0x39bac02e	0.0003561987
128	0x39a07a88	0.0003060887
129	0x39a41742	0.00031297846
130	0x39ca5518	0.00038591842
131	0x37001a34	7.635495e-06
132	0x00000000	0.0
133	0x00000000	0.0
134	0x00000000	0.0
135	0x38da31e9	0.000104043465
136	0x38ef00e5	0.00011396575
137	0x377175c3	1.4392138e-05
138	0x00000000	0.0
139	0x00000000	0.0
140	0x00000000	0.0
141	0x38d32aaf	0.000100692145
142	0x38ec46a4	0.00011266515
143	0x3777f94e	1.4780393e-05
144	0x00000000	0.0
145	0x00000000	0.0
146	0x00000000	0.0
147	0x38e05ef8	0.00010698842
148	0x38eed966	0.00011389218
149	0x38a3214d	7.7786484e-05
150	0x00000000	0.0
151	0x00000000	0.0
152	0x00000000	0.0
153	0x38f2a505	0.000115701965
154	0x38ec928b	0.00011280653
155	0x36ec609e	7.044596e-06
156	0x00000000	0.0
157	0x00000000	0.0
158	0x00000000	0.0
159	0x38d62c77	0.000102125974
160	0x38e6d985	0.00011007771
161	0x3709f67e	8.223227e-06
162	0x00000000	0.0
163	0x00000000	0.0
164	0x00000000	0.0
165	0x38973417	7.2099436e-05
166	0x38ac26f2	8.208853e-05
167	0x376f6ad9	1.42703875e-05
168	0x00000000	0.0
169	0x00000000	0.0
170	0x00000000	0.0
171	0x38923fc3	6.973699e-05
172	0x38a89675	8.038889e-05
173	0x3793ee2e	1.7634677e-05
174	0x00000000	0.0
175	0x00000000	0.0
176	0x00000000	0.0
177	0x38a07beb	7.652476e-05
178	0x38ac449b	8.214378e-05
179	0x389633ca	7.162204e-05
180	0x00000000	0.0
181	0x00000000	0.0
182	0x00000000	0.0
183	0x38bd2454	9.018989e-05
184	0x38a9337d	8.0681384e-05
185	0x3702dd90	7.80019e-06
186	0x00000000	0.0
187	0x00000000	0.0
188	0x00000000	0.0
189	0x38cb8498	9.704492e-05
190	0x38e26a8b	0.00010796365
191	0x3726f97f	9.952461e-06
192	0x00000000	0.0
193	0x00000000	0.0
194	0x00000000	0.0
195	0x37af9afe	2.09338e-05
196	0x3786a934	1.6052836e-05
197	0x3783776c	1.5672027e-05
198	0x00000000	0.0
199	0x00000000	0.0
200	0x00000000	0.0
201	0x37ed9d8b	2.8325963e-05
202	0x37b972a5	2.2107104e-05
203	0x377f89e5	1.52312905e-05
204	0x00000000	0.0
205	0x00000000	0.0
206	0x00000000	0.0
207	0x37b37cee	2.1396638e-05
208	0x377427dc	1.4552814e-05
209	0x384a011f	4.8161597e-05
210	0x00000000	0.0
211	0x00000000	0.0
212	0x00000000	0.0
213	0x38484119	4.7744343e-05
214	0x37c63767	2.3629238e-05
215	0x371acb62	9.226469e-06
216	0x00000000	0.0
217	0x00000000	0.0
218	0x00000000	0.0
219	0x386b2a7f	5.6067944e-05
220	0x388364fd	6.265377e-05
221	0x379e3cf6	1.8863455e-05
222	0x00000000	0.0
223	0x00000000	0.0
224	0x00000000	0.0
225	0x379e4004	1.8864877e-05
226	0x36a6127c	4.9493374e-06
227	0x378f9a6c	1.7118837e-05
228	0x00000000	0.0
229	0x00000000	0.0
230	0x00000000	0.0
231	0x378f974c	1.7117382e-05
232	0x3739d4c2	1.1076396e-05
233	0x374ba3b9	1.21378625e-05
234	0x00000000	0.0
235	0x00000000	0.0
236	0x00000000	0.0
237	0x374b940c	1.2134213e-05
238	0x365a4cbb	3.2529194e-06
239	0x383112e5	4.2217685e-05
240	0x00000000	0.0
241	0x00000000	0.0
242	0x00000000	0.0
243	0x3831131a	4.221788e-05
244	0x376bfb84	1.4065652e-05
245	0x3736868f	1.0879375e-05
246	0x00000000	0.0
247	0x00000000	0.0
248	0x00000000	0.0
249	0x377d3c07	1.5093951e-05
250	0x3731f70b	1.0607541e-05
251	0x39b0d7ef	0.0003373022
252	0x39491efb	0.00019180395
253	0x393c57f8	0.00017961848
254	0x39208674	0.00015308877
255	0x391555ab	0.00014241661

exp_avg f4 [64]
0	0xba43975b	-0.00074612134
1	0x38fcfcae	0.00012063362
2	0xba93d614	-0.001127901
3	0x3a4b9d7a	0.0007767301
4	0xba398daf	-0.00070783024
5	0x3846d759	4.7407437e-05
6	0xbaa67b57	-0.0012701553
7	0xba72c59d	-0.0009261014
8	0x3998eb96	0.00029167224
9	0x3a19ef7e	0.0005872174
10	0x3a228114	0.0006199044
11	0x3a09dd5a	0.0005259119
12	0xba6e5857	-0.0009092143
13	0x398dd04a	0.00027048803
14	0x3a4868dd	0.00076450204
15	0xb951ab1e	-0.0001999554
16	0xb5f261c5	-1.805886e-06
17	0x3a936a98	0.0011246977
18	0xba07bbb4	-0.0005177811
19	0xba89af3f	-0.0010504498
20	0x386d71dd	5.6611247e-05
21	0xba3f0195	-0.00072863075
22	0xb8e2a78f	-0.0001080773
23	0xba11b440	-0.00055581704
24	0xb967758d	-0.00022073668
25	0x3a1ce8e8	0.00059856335
26	0x399defa1	0.0003012391
27	0xb8456b8c	-4.706862e-05
28	0x3a510a56	0.00079742575
29	0xb98873dd	-0.00026026266
30	0x37db2fdd	2.6129122e-05
31	0xba41adb7	-0.0007388251
32	0x3a3e2fb3	0.00072550325
33	0x3960dce5	0.00021444594
34	0xb8a43de9	-7.831661e-05
35	0xb8db0074	-0.00010442818
36	0x3aebcf6c	0.0017990894
37	0xb9899b4c	-0.00026246381
38	0x38ee268c	0.00011355904
39	0x3a981e2c	0.0011605672
40	0x39235026	0.00015574749
41	0xb966300a	-0.00021952405
42	0x39167b8f	0.00014351144
43	0x3922e3a5	0.00015534328
44	0xba64d4f2	-0.0008729241
45	0xba7dde9b	-0.0009684355
46	0xba22efa2	-0.00062155176
47	0x3a443894	0.00074852374
48	0xba58eb73	-0.0008274831
49	0xb9e4ab22	-0.00043615053
50	0xb9856f63	-0.00025450726
51	0x392868c7	0.00016060761
52	0x39b159d0	0.00033826986
53	0x3a4b128b	0.00077465986
54	0xb604a381	-1.9764705e-06
55	0x3a61ceb8	0.00086138723
56	0xb92c3c27	-0.00016425607
57	0xb9543d97	-0.0002024084
58	0xba4959a3	-0.00076808984
59	0x3a41cf25	0.00073932327
60	0xba09210c	-0.00052310596
61	0xba9badbd	-0.001187734
62	0xba7ab272	-0.00095633336
63	0xba3130b3	-0.0006759271

exp_avg_sq f4 [64]
0	0x39a793b3	0.00031962767
1	0x39287f98	0.00016069261
2	0x3b3b76dc	0.0028604781
3	0x38be3087	9.068945e-05
4	0x39433b54	0.0001861875
5	0x37e11dbf	2.6835942e-05
6	0x3a0579d0	0.0005091699
7	0x392a50d3	0.00016242573
8	0x37a8fa90	2.0143838e-05
9	0x38167204	3.5868972e-05
10	0x3aa7b302	0.0012794437
11	0x39dc0adc	0.0004196976
12	0x38d88530	0.00010324491
13	0x38565e8c	5.110963e-05
14	0x3ada2aab	0.0016644796
15	0x3841ffff	4.62532e-05
16	0x3926c95f	0.0001590601
17	0x39f0f8da	0.00045961776
18	0x382f159f	4.1743388e-05
19	0x38f0af5b	0.00011476754
20	0x39918908	0.0002775865
21	0x39aaed63	0.00032601794
22	0x3a113bac	0.0005540203
23	0x39012e6d	0.00012319694
24	0x37c91371	2.397012e-05
25	0x39ce7a8b	0.00039382683
26	0x38ff19dc	0.00012164164
27	0x39b5e295	0.00034691827
28	0x3965c44e	0.00021912271
29	0x382a379f	4.058296e-05
30	0x39f38c6d	0.00046453197
31	0x39432c88	0.00018613238
32	0x388f62b3	6.8371555e-05
33	0x379e0a36	1.8839823e-05
34	0x3944570f	0.00018724448
35	0x3a144b85	0.0005657005
36	0x39875a92	0.00025816687
37	0x39b16c97	0.00033840977
38	0x39ffefb8	0.00048815995
39	0x3a45d997	0.0007547377
40	0x388da6bd	6.754461e-05
41	0x38b69fa5	8.7081724e-05
42	0x3851dbf1	5.003432e-05
43	0x3aa6a655	0.0012714366
44	0x38c83336	9.546282e-05
45	0x387c70cd	6.0186536e-05
46	0x391fa921	0.00015226427
47	0x37d1a5d3	2.499196e-05
48	0x37911ef4	1.729976e-05
49	0x3a99786b	0.0011708861
50	0x37f5c2c4	2.929697e-05
51	0x3857fb3d	5.149398e-05
52	0x3a4dde0f	0.00078532187
53	0x38979e2b	7.229702e-05
54	0x379ee342	1.8940893e-05
55	0x3a85e839	0.0010216302
56	0x384f11db	4.9369275e-05
57	0x39367a4f	0.00017402436
58	0x3999a152	0.00029302627
59	0x3942d656	0.00018581128
60	0x38155ba6	3.5609723e-05
61	0x3898d042	7.286716e-05
62	0x37b845e6	2.1967058e-05
63	0x38f37bbd	0.00011610191
