results/Run00/OpponentML/OpponentML-3999965.pt (torch, 330687 bytes, 52 tensors)

network_body.observation_encoder.processors.0.normalizer.running_mean f4 [120]
0	0x3d2a10ec	0.041520044
1	0x00000000	0.0
2	0x00000000	0.0
3	0x00000000	0.0
4	0x3f47584a	0.77869093
5	0x3f4e2fd0	0.80541706
6	0x3d9ec975	0.07753269
7	0x00000000	0.0
8	0x00000000	0.0
9	0x00000000	0.0
10	0x3f3e20b1	0.74268633
11	0x3f48a3a9	0.78374726
12	0x3cfd2d81	0.030905487
13	0x00000000	0.0
14	0x00000000	0.0
15	0x00000000	0.0
16	0x3f4a10f6	0.7893213
17	0x3f4f7e31	0.8105193
18	0x3db724cb	0.089425646
19	0x00000000	0.0
20	0x00000000	0.0
21	0x00000000	0.0
22	0x3f3b0d1f	0.73066896
23	0x3f4774f2	0.7791282
24	0x3d208d66	0.039197348
25	0x00000000	0.0
26	0x00000000	0.0
27	0x00000000	0.0
28	0x3f408099	0.75196224
29	0x3f475a1b	0.77871865
30	0x3d35b042	0.044357546
31	0x00000000	0.0
32	0x00000000	0.0
33	0x00000000	0.0
34	0x3f55f648	0.8357892
35	0x3f5d4373	0.86431044
36	0x3daa512a	0.08316262
37	0x00000000	0.0
38	0x00000000	0.0
39	0x00000000	0.0
40	0x3f4c0788	0.7969899
41	0x3f574b87	0.8409962
42	0x3d086730	0.033301532
43	0x00000000	0.0
44	0x00000000	0.0
45	0x00000000	0.0
46	0x3f58cb10	0.8468485
47	0x3f5ea282	0.8696672
48	0x3dc4c667	0.09608155
49	0x00000000	0.0
50	0x00000000	0.0
51	0x00000000	0.0
52	0x3f48b190	0.7839594
53	0x3f5605f2	0.8360282
54	0x3d2cee59	0.042219494
55	0x00000000	0.0
56	0x00000000	0.0
57	0x00000000	0.0
58	0x3f4f1511	0.8089152
59	0x3f5669e9	0.83755356
60	0x3d415989	0.047204528
61	0x00000000	0.0
62	0x00000000	0.0
63	0x00000000	0.0
64	0x3f6490c9	0.89283425
65	0x3f6c5949	0.9232374
66	0x3db5cff1	0.08877552
67	0x00000000	0.0
68	0x00000000	0.0
69	0x00000000	0.0
70	0x3f59eee0	0.8513012
71	0x3f65f53b	0.89827317
72	0x3d122c73	0.03568692
73	0x00000000	0.0
74	0x00000000	0.0
75	0x00000000	0.0
76	0x3f678504	0.9043734
77	0x3f6dc9cc	0.9288604
78	0x3dd26e6d	0.10274968
79	0x00000000	0.0
80	0x00000000	0.0
81	0x00000000	0.0
82	0x3f5653e3	0.8372175
83	0x3f6492ee	0.89286697
84	0x3d395c28	0.045253903
85	0x00000000	0.0
86	0x00000000	0.0
87	0x00000000	0.0
88	0x3f5da394	0.86577725
89	0x3f657e7f	0.8964614
90	0x3d4cea26	0.05002799
91	0x00000000	0.0
92	0x00000000	0.0
93	0x00000000	0.0
94	0x3f733157	0.9499716
95	0x3f7b6caa	0.98212683
96	0x3dc14ee9	0.09438879
97	0x00000000	0.0
98	0x00000000	0.0
99	0x00000000	0.0
100	0x3f67d69d	0.9056185
101	0x3f7499b9	0.9554706
102	0x3d1bffb3	0.03808565
103	0x00000000	0.0
104	0x00000000	0.0
105	0x00000000	0.0
106	0x3f76405a	0.9619194
107	0x3f7cecd9	0.987989
108	0x3de0168f	0.10941803
109	0x00000000	0.0
110	0x00000000	0.0
111	0x00000000	0.0
112	0x3f63f4be	0.8904532
113	0x3f732369	0.94975907
114	0x3d45d4fd	0.048298825
115	0x00000000	0.0
116	0x00000000	0.0
117	0x00000000	0.0
118	0x3f6c3659	0.9227043
119	0x3f748d01	0.95527655

network_body.observation_encoder.processors.0.normalizer.running_variance f4 [120]
0	0x481b7735	159196.83
1	0x3f800000	1.0
2	0x3f800000	1.0
3	0x3f800000	1.0
4	0x49283ff7	689151.44
5	0x49131927	602514.44
6	0x488baf0b	286072.34
7	0x3f800000	1.0
8	0x3f800000	1.0
9	0x3f800000	1.0
10	0x493aa000	764416.0
11	0x49198e11	628961.06
12	0x47e9fce7	119801.805
13	0x3f800000	1.0
14	0x3f800000	1.0
15	0x3f800000	1.0
16	0x49227d14	665553.25
17	0x49125514	599377.25
18	0x489f03a1	325661.03
19	0x3f800000	1.0
20	0x3f800000	1.0
21	0x3f800000	1.0
22	0x494029ca	787100.6
23	0x491a0ff8	631039.5
24	0x48131cf6	150643.84
25	0x3f800000	1.0
26	0x3f800000	1.0
27	0x3f800000	1.0
28	0x4936176a	745846.6
29	0x49206e6d	657126.8
30	0x48259cc7	169587.11
31	0x3f800000	1.0
32	0x3f800000	1.0
33	0x3f800000	1.0
34	0x4906081b	548993.7
35	0x48d84da7	442989.22
36	0x4894ece4	304999.12
37	0x3f800000	1.0
38	0x3f800000	1.0
39	0x3f800000	1.0
40	0x491e016e	647190.9
41	0x48eb878c	482364.38
42	0x47fb83f6	128775.92
43	0x3f800000	1.0
44	0x3f800000	1.0
45	0x3f800000	1.0
46	0x48fd5531	518825.53
47	0x48d57399	437148.78
48	0x48a99dfd	347375.9
49	0x3f800000	1.0
50	0x3f800000	1.0
51	0x3f800000	1.0
52	0x49256aca	677548.6
53	0x48edbeb6	486901.7
54	0x481df577	161749.86
55	0x3f800000	1.0
56	0x3f800000	1.0
57	0x3f800000	1.0
58	0x4916edca	618204.6
59	0x48f913cd	510110.4
60	0x482fb2e9	179915.64
61	0x3f800000	1.0
62	0x3f800000	1.0
63	0x3f800000	1.0
64	0x48bad063	382595.1
65	0x4879f511	255956.27
66	0x489e01e2	323599.06
67	0x3f800000	1.0
68	0x3f800000	1.0
69	0x3f800000	1.0
70	0x48f7424e	506386.44
71	0x489712ce	309398.44
72	0x48066d57	137653.36
73	0x3f800000	1.0
74	0x3f800000	1.0
75	0x3f800000	1.0
76	0x48a8e6ac	345909.38
77	0x48713677	247001.86
78	0x48b40e7e	368755.94
79	0x3f800000	1.0
80	0x3f800000	1.0
81	0x3f800000	1.0
82	0x490515cf	545116.94
83	0x489ac2aa	316949.3
84	0x4828c76c	172829.69
85	0x3f800000	1.0
86	0x3f800000	1.0
87	0x3f800000	1.0
88	0x48e2e862	464707.06
89	0x48a3b7c6	335294.2
90	0x4839a0a7	190082.61
91	0x3f800000	1.0
92	0x3f800000	1.0
93	0x3f800000	1.0
94	0x4839a10a	190084.16
95	0x47204ae7	41034.902
96	0x48a6f334	341913.62
97	0x3f800000	1.0
98	0x3f800000	1.0
99	0x3f800000	1.0
100	0x48a6f35b	341914.84
101	0x47d76bf3	110295.9
102	0x480f15f0	146519.75
103	0x3f800000	1.0
104	0x3f800000	1.0
105	0x3f800000	1.0
106	0x480f16aa	146522.66
107	0x46e10ba0	28805.812
108	0x48be5226	389777.2
109	0x3f800000	1.0
110	0x3f800000	1.0
111	0x3f800000	1.0
112	0x48be7c03	390112.1
113	0x47ec3857	120944.68
114	0x48338de1	183863.52
115	0x3f800000	1.0
116	0x3f800000	1.0
117	0x3f800000	1.0
118	0x488b59c8	285390.25
119	0x48015109	132420.14

network_body.observation_encoder.processors.1.normalizer.running_mean f4 [11]
0	0xc057a468	-3.3694096
1	0x42b76d4d	91.71348
2	0x403bb925	2.9331753
3	0x3bb6d8b1	0.005580031
4	0x3c564935	0.013078977
5	0xbd3fc0f2	-0.046814866
6	0x3ba240c6	0.0049515693
7	0xc0b39aca	-5.612645
8	0x429f9117	79.78338
9	0xbf19e456	-0.6011404
10	0x3d15bc3f	0.03655648

network_body.observation_encoder.processors.1.normalizer.running_variance f4 [11]
0	0x51735ead	6.532909e+10
1	0x5088cde4	1.8361557e+10
2	0x5170e161	6.4660836e+10
3	0x4969e0e5	957966.3
4	0x497aa373	1.0266152e+06
5	0x497b6063	1.0296382e+06
6	0x496e4c75	976071.3
7	0x519434ed	7.956789e+10
8	0x5039406b	1.2432027e+10
9	0x5192e894	7.8870905e+10
10	0x49aaac73	1.3981584e+06

network_body.processors.0.normalizer.running_mean f4 [120]
0	0x3d2a10ec	0.041520044
1	0x00000000	0.0
2	0x00000000	0.0
3	0x00000000	0.0
4	0x3f47584a	0.77869093
5	0x3f4e2fd0	0.80541706
6	0x3d9ec975	0.07753269
7	0x00000000	0.0
8	0x00000000	0.0
9	0x00000000	0.0
10	0x3f3e20b1	0.74268633
11	0x3f48a3a9	0.78374726
12	0x3cfd2d81	0.030905487
13	0x00000000	0.0
14	0x00000000	0.0
15	0x00000000	0.0
16	0x3f4a10f6	0.7893213
17	0x3f4f7e31	0.8105193
18	0x3db724cb	0.089425646
19	0x00000000	0.0
20	0x00000000	0.0
21	0x00000000	0.0
22	0x3f3b0d1f	0.73066896
23	0x3f4774f2	0.7791282
24	0x3d208d66	0.039197348
25	0x00000000	0.0
26	0x00000000	0.0
27	0x00000000	0.0
28	0x3f408099	0.75196224
29	0x3f475a1b	0.77871865
30	0x3d35b042	0.044357546
31	0x00000000	0.0
32	0x00000000	0.0
33	0x00000000	0.0
34	0x3f55f648	0.8357892
35	0x3f5d4373	0.86431044
36	0x3daa512a	0.08316262
37	0x00000000	0.0
38	0x00000000	0.0
39	0x00000000	0.0
40	0x3f4c0788	0.7969899
41	0x3f574b87	0.8409962
42	0x3d086730	0.033301532
43	0x00000000	0.0
44	0x00000000	0.0
45	0x00000000	0.0
46	0x3f58cb10	0.8468485
47	0x3f5ea282	0.8696672
48	0x3dc4c667	0.09608155
49	0x00000000	0.0
50	0x00000000	0.0
51	0x00000000	0.0
52	0x3f48b190	0.7839594
53	0x3f5605f2	0.8360282
54	0x3d2cee59	0.042219494
55	0x00000000	0.0
56	0x00000000	0.0
57	0x00000000	0.0
58	0x3f4f1511	0.8089152
59	0x3f5669e9	0.83755356
60	0x3d415989	0.047204528
61	0x00000000	0.0
62	0x00000000	0.0
63	0x00000000	0.0
64	0x3f6490c9	0.89283425
65	0x3f6c5949	0.9232374
66	0x3db5cff1	0.08877552
67	0x00000000	0.0
68	0x00000000	0.0
69	0x00000000	0.0
70	0x3f59eee0	0.8513012
71	0x3f65f53b	0.89827317
72	0x3d122c73	0.03568692
73	0x00000000	0.0
74	0x00000000	0.0
75	0x00000000	0.0
76	0x3f678504	0.9043734
77	0x3f6dc9cc	0.9288604
78	0x3dd26e6d	0.10274968
79	0x00000000	0.0
80	0x00000000	0.0
81	0x00000000	0.0
82	0x3f5653e3	0.8372175
83	0x3f6492ee	0.89286697
84	0x3d395c28	0.045253903
85	0x00000000	0.0
86	0x00000000	0.0
87	0x00000000	0.0
88	0x3f5da394	0.86577725
89	0x3f657e7f	0.8964614
90	0x3d4cea26	0.05002799
91	0x00000000	0.0
92	0x00000000	0.0
93	0x00000000	0.0
94	0x3f733157	0.9499716
95	0x3f7b6caa	0.98212683
96	0x3dc14ee9	0.09438879
97	0x00000000	0.0
98	0x00000000	0.0
99	0x00000000	0.0
100	0x3f67d69d	0.9056185
101	0x3f7499b9	0.9554706
102	0x3d1bffb3	0.03808565
103	0x00000000	0.0
104	0x00000000	0.0
105	0x00000000	0.0
106	0x3f76405a	0.9619194
107	0x3f7cecd9	0.987989
108	0x3de0168f	0.10941803
109	0x00000000	0.0
110	0x00000000	0.0
111	0x00000000	0.0
112	0x3f63f4be	0.8904532
113	0x3f732369	0.94975907
114	0x3d45d4fd	0.048298825
115	0x00000000	0.0
116	0x00000000	0.0
117	0x00000000	0.0
118	0x3f6c3659	0.9227043
119	0x3f748d01	0.95527655

network_body.processors.0.normalizer.running_variance f4 [120]
0	0x481b7735	159196.83
1	0x3f800000	1.0
2	0x3f800000	1.0
3	0x3f800000	1.0
4	0x49283ff7	689151.44
5	0x49131927	602514.44
6	0x488baf0b	286072.34
7	0x3f800000	1.0
8	0x3f800000	1.0
9	0x3f800000	1.0
10	0x493aa000	764416.0
11	0x49198e11	628961.06
12	0x47e9fce7	119801.805
13	0x3f800000	1.0
14	0x3f800000	1.0
15	0x3f800000	1.0
16	0x49227d14	665553.25
17	0x49125514	599377.25
18	0x489f03a1	325661.03
19	0x3f800000	1.0
20	0x3f800000	1.0
21	0x3f800000	1.0
22	0x494029ca	787100.6
23	0x491a0ff8	631039.5
24	0x48131cf6	150643.84
25	0x3f800000	1.0
26	0x3f800000	1.0
27	0x3f800000	1.0
28	0x4936176a	745846.6
29	0x49206e6d	657126.8
30	0x48259cc7	169587.11
31	0x3f800000	1.0
32	0x3f800000	1.0
33	0x3f800000	1.0
34	0x4906081b	548993.7
35	0x48d84da7	442989.22
36	0x4894ece4	304999.12
37	0x3f800000	1.0
38	0x3f800000	1.0
39	0x3f800000	1.0
40	0x491e016e	647190.9
41	0x48eb878c	482364.38
42	0x47fb83f6	128775.92
43	0x3f800000	1.0
44	0x3f800000	1.0
45	0x3f800000	1.0
46	0x48fd5531	518825.53
47	0x48d57399	437148.78
48	0x48a99dfd	347375.9
49	0x3f800000	1.0
50	0x3f800000	1.0
51	0x3f800000	1.0
52	0x49256aca	677548.6
53	0x48edbeb6	486901.7
54	0x481df577	161749.86
55	0x3f800000	1.0
56	0x3f800000	1.0
57	0x3f800000	1.0
58	0x4916edca	618204.6
59	0x48f913cd	510110.4
60	0x482fb2e9	179915.64
61	0x3f800000	1.0
62	0x3f800000	1.0
63	0x3f800000	1.0
64	0x48bad063	382595.1
65	0x4879f511	255956.27
66	0x489e01e2	323599.06
67	0x3f800000	1.0
68	0x3f800000	1.0
69	0x3f800000	1.0
70	0x48f7424e	506386.44
71	0x489712ce	309398.44
72	0x48066d57	137653.36
73	0x3f800000	1.0
74	0x3f800000	1.0
75	0x3f800000	1.0
76	0x48a8e6ac	345909.38
77	0x48713677	247001.86
78	0x48b40e7e	368755.94
79	0x3f800000	1.0
80	0x3f800000	1.0
81	0x3f800000	1.0
82	0x490515cf	545116.94
83	0x489ac2aa	316949.3
84	0x4828c76c	172829.69
85	0x3f800000	1.0
86	0x3f800000	1.0
87	0x3f800000	1.0
88	0x48e2e862	464707.06
89	0x48a3b7c6	335294.2
90	0x4839a0a7	190082.61
91	0x3f800000	1.0
92	0x3f800000	1.0
93	0x3f800000	1.0
94	0x4839a10a	190084.16
95	0x47204ae7	41034.902
96	0x48a6f334	341913.62
97	0x3f800000	1.0
98	0x3f800000	1.0
99	0x3f800000	1.0
100	0x48a6f35b	341914.84
101	0x47d76bf3	110295.9
102	0x480f15f0	146519.75
103	0x3f800000	1.0
104	0x3f800000	1.0
105	0x3f800000	1.0
106	0x480f16aa	146522.66
107	0x46e10ba0	28805.812
108	0x48be5226	389777.2
109	0x3f800000	1.0
110	0x3f800000	1.0
111	0x3f800000	1.0
112	0x48be7c03	390112.1
113	0x47ec3857	120944.68
114	0x48338de1	183863.52
115	0x3f800000	1.0
116	0x3f800000	1.0
117	0x3f800000	1.0
118	0x488b59c8	285390.25
119	0x48015109	132420.14

network_body.processors.1.normalizer.running_mean f4 [11]
0	0xc057a468	-3.3694096
1	0x42b76d4d	91.71348
2	0x403bb925	2.9331753
3	0x3bb6d8b1	0.005580031
4	0x3c564935	0.013078977
5	0xbd3fc0f2	-0.046814866
6	0x3ba240c6	0.0049515693
7	0xc0b39aca	-5.612645
8	0x429f9117	79.78338
9	0xbf19e456	-0.6011404
10	0x3d15bc3f	0.03655648

network_body.processors.1.normalizer.running_variance f4 [11]
0	0x51735ead	6.532909e+10
1	0x5088cde4	1.8361557e+10
2	0x5170e161	6.4660836e+10
3	0x4969e0e5	957966.3
4	0x497aa373	1.0266152e+06
5	0x497b6063	1.0296382e+06
6	0x496e4c75	976071.3
7	0x519434ed	7.956789e+10
8	0x5039406b	1.2432027e+10
9	0x5192e894	7.8870905e+10
10	0x49aaac73	1.3981584e+06

network_body._body_endoder.seq_layers.0.weight f4 [64, 131]
0	0x3d8abc8a	0.06774242
1	0xbd8fef4f	-0.07028066
2	0xbb9b5530	-0.0047403798
3	0x3da36e9a	0.0798008
4	0xbd971f29	-0.0737899
5	0xbdab1be3	-0.08354928
6	0x3e6cfab5	0.23142512
7	0xbc9e113d	-0.01929533
8	0x3cd3f0cf	0.025871662
9	0xbe1267c2	-0.14297393
10	0xbe350071	-0.1767595
11	0xbdc5b032	-0.09652747
12	0xbbbbb6d2	-0.005728581
13	0xbded7a12	-0.11595549
14	0xbd7d7d77	-0.06188723
15	0x3a1cd29d	0.00059823116
16	0xbddfc2b5	-0.10925809
17	0x3dc1d22d	0.09463916
18	0xbd7188a3	-0.058968198
19	0xbdef052f	-0.116709106
20	0x3da84929	0.08217079
21	0xbd095b52	-0.033534355
22	0xbd4a4afd	-0.04938792
23	0xbd9ea7b9	-0.07746834
24	0x3e15e422	0.14637807
25	0xbd36ed25	-0.044659752
26	0xbaa066c7	-0.0012237661
27	0x3de3dba7	0.1112588
28	0xbd169e1c	-0.03677188
29	0x3e0c0921	0.13675357
30	0x3d40030c	0.046877906
31	0x3e094666	0.13405761
32	0x3db7d2d7	0.089757614
33	0x3d1736d2	0.036917515
34	0x3cb0e7e5	0.02159495
35	0x3d71778d	0.058951903
36	0x3dd05675	0.1017274
37	0x3cc1526d	0.023598874
38	0xbde7d41f	-0.11319756
39	0x3c271025	0.01019672
40	0xbd0464ad	-0.032322574
41	0xbd41f37c	-0.047351345
42	0x3a3d0103	0.00072099286
43	0xbda2370b	-0.07920655
44	0x3e0a66e1	0.13515808
45	0xbe704322	-0.23463109
46	0xbd32e00b	-0.043670695
47	0xbd86a315	-0.06574074
48	0xbe7ad39f	-0.2449479
49	0xbe1640a9	-0.14673103
50	0xbdd65c18	-0.10466784
51	0x3c61c797	0.013780496
52	0x3caede3e	0.021346208
53	0x3dc0e9ee	0.094196185
54	0x3e1a6537	0.15077673
55	0x3e252ad8	0.16129625
56	0xbd4af29a	-0.04954777
57	0x3e084f00	0.13311386
58	0x3cb23777	0.021754963
59	0xbe4dc9a3	-0.2009645
60	0x3d9f64ba	0.07782884
61	0x3db1802d	0.08667026
62	0xbd4e5dea	-0.050382532
63	0x3db955be	0.09049557
64	0x3e660317	0.22462116
65	0x3e9eb5a5	0.3099796
66	0x3df62930	0.12019575
67	0x3dc20a4d	0.09474621
68	0xbdaed6d6	-0.085370705
69	0xbe05a645	-0.13051708
70	0x3d0a5e3d	0.03378128
71	0x3dca4fde	0.09878515
72	0xbd9b0f6e	-0.07571302
73	0x3cb1ad65	0.021689126
74	0x3d412a4d	0.04715948
75	0xbdc67a0d	-0.09691248
76	0x3e919159	0.28431204
77	0x3dc919b9	0.09819359
78	0xbd9246c5	-0.071424045
79	0xbd5bb559	-0.053639743
80	0x3da47a85	0.08031181
81	0xbd6136d1	-0.054983918
82	0x3d8059bd	0.06267116
83	0x3e4bd5f0	0.1990583
84	0x3dc77263	0.097386144
85	0xbca7af2a	-0.020469267
86	0x3d9920b9	0.074769445
87	0x3dc8cf87	0.09805208
88	0xbe0e5a24	-0.13901573
89	0xbe92f098	-0.28699183
90	0xbcdd04e0	-0.026979864
91	0x3e13179d	0.14364477
92	0xbdd06e07	-0.10177236
93	0x3d29a4bf	0.04141688
94	0x3dda45c1	0.10657836
95	0x3dfacea9	0.122464485
96	0x3ea679e9	0.32514885
97	0xbda6e39b	-0.08148881
98	0xbdb6455f	-0.0889995
99	0x3d5bdb1e	0.053675763
100	0xbe8299d6	-0.25507993
101	0x3bc7ca19	0.00609709
102	0xbe83e17f	-0.25757977
103	0x3d09628d	0.03354125
104	0xbcaa4a4d	-0.020787382
105	0x3dc30361	0.09522129
106	0x3e72bb8e	0.23704359
107	0x3e5043ee	0.20338413
108	0x3c0e6a52	0.008692341
109	0x3e5bf2cd	0.2147934
110	0xbdab07e5	-0.08351115
111	0x3d6efdfa	0.05834768
112	0x3e617ba5	0.22019823
113	0x3e59af11	0.21258189
114	0x3d83a377	0.06427663
115	0xbdcfd32a	-0.10147698
116	0x3e0ab27e	0.13544652
117	0xbc9fdba9	-0.019513922
118	0xbc431a55	-0.0119081335
119	0xbcc7f4ea	-0.024408776
120	0x3d92c42c	0.07166323
121	0xbcb26e5f	-0.021781145
122	0xbe28c747	-0.16482268
123	0x3d806282	0.06268789
124	0xbdbc49ab	-0.091937385
125	0x3eb6a3d3	0.35671863
126	0x3d33a818	0.04386148
127	0x3e005c37	0.12535177
128	0x3e13972e	0.14413139
129	0x3c839da6	0.016066384
130	0xbe356868	-0.17715609
131	0xbe00fc31	-0.12596203
132	0xbc808d6d	-0.015692437
133	0x3d7723f1	0.06033701
134	0x3e2d5f46	0.16930875
135	0xbd53192c	-0.051537678
136	0xbdcd9ab0	-0.1003927
137	0xbb324ec9	-0.0027207604
138	0x3b76e58d	0.0037673444
139	0xbc059e21	-0.008155377
140	0x3dedb5b7	0.11606925
141	0xbdf6dc4f	-0.12053739
142	0x3de2de44	0.1107755
143	0x3ccab132	0.024742696
144	0xbd3a0650	-0.045416176
145	0xbcfbbd74	-0.030729987
146	0x39d40346	0.0004043823
147	0xbd2a9f40	-0.04165578
148	0x3cc8ba7f	0.02450299
149	0x3e07e7f7	0.13272081
150	0x3c338bfc	0.010958668
151	0x3e1d979a	0.15389863
152	0xbcaccea1	-0.021094622
153	0x3cc26c44	0.023733266
154	0x3d1f758f	0.038930472
155	0xbe3820ac	-0.17981213
156	0xbbbfe998	-0.005856704
157	0x3d00da7c	0.031458363
158	0xba8ee370	-0.0010901522
159	0x3da55194	0.080722004
160	0x3d71fa0f	0.059076365
161	0xbe32f1e8	-0.17475092
162	0x3d3cfe01	0.046140675
163	0xbcd8581b	-0.0264092
164	0xbe0111da	-0.12604466
165	0x3d0e3d12	0.03472621
166	0xbce53bbd	-0.027982587
167	0xbe0fbeaa	-0.14037576
168	0xbdb22f53	-0.08700433
169	0xbc8d3107	-0.017235292
170	0x3d3e9e9d	0.046537984
171	0x3d4564b1	0.04819173
172	0x3ce5f9bb	0.028073182
173	0x3c982aa6	0.018575024
174	0x3d87569d	0.06608317
175	0xbcb195a7	-0.021677805
176	0xbdb71fd4	-0.089416176
177	0x3d90bf7d	0.070677735
178	0x3d8820f1	0.06646908
179	0x3d06b6f6	0.03288933
180	0xbd682d6b	-0.05668394
181	0x3e839e40	0.25706673
182	0x3d2b1a21	0.041772965
183	0x3d3dd5d5	0.046346504
184	0x3e11b5f7	0.1422957
185	0xbe6d52c2	-0.23176101
186	0x3d9ecb87	0.077536635
187	0x3bd6e2b2	0.006557786
188	0xbd54d144	-0.051957384
189	0xbd0ed304	-0.03486921
190	0xbe721b8a	-0.23643318
191	0xbccc8f31	-0.024970623
192	0x3d3fd9fc	0.046838745
193	0xbd6e3c8f	-0.058163222
194	0x3b790c5f	0.0038001759
195	0xbcf0a807	-0.029376997
196	0x3e4ec5c8	0.20192635
197	0xbd56c6b3	-0.052435588
198	0x3daab09e	0.08334468
199	0xbdd58824	-0.104263574
200	0xbd7a5edd	-0.061125625
201	0x3dd7cf95	0.1053764
202	0x3e38a198	0.18030393
203	0xbc9d9e51	-0.01924053
204	0x3d4499d2	0.047998257
205	0x3cdf08cc	0.027225874
206	0xbd778626	-0.06043067
207	0xbd87a4f9	-0.06623263
208	0xbcc6441f	-0.024202405
209	0x3d2b2274	0.041780904
210	0x3e31703b	0.17327969
211	0xbda8bc8b	-0.08239087
212	0xbe080d00	-0.13286209
213	0x3cdd0f47	0.026984824
214	0x3daa6583	0.08320143
215	0xbe427b5b	-0.18992369
216	0xbde8c287	-0.11365228
217	0x3d51d2cd	0.051226426
218	0x3e11408e	0.14184782
219	0xbdd3266a	-0.10310061
220	0xbe5c725f	-0.21528004
221	0xbd7a0c3d	-0.061046828
222	0xbd47d3fa	-0.04878614
223	0xbdf64bbf	-0.12026166
224	0x3d32a628	0.04361549
225	0xbce13dc2	-0.027495269
226	0x3e01d5f2	0.1267927
227	0xbdc6f8d8	-0.09715432
228	0x3a8fb676	0.0010964412
229	0x3d026db8	0.031842917
230	0x3bb4ccce	0.0055175787
231	0x3d29d872	0.041466184
232	0x3cd84c3a	0.026403535
233	0xbd86de54	-0.065853745
234	0xbdc76e97	-0.0973789
235	0x3d86ab40	0.06575632
236	0x3d0d19c3	0.034448396
237	0x3ce9eedf	0.028556285
238	0x3e3e6920	0.1859479
239	0xbc3426ab	-0.010995547
240	0x3d041c48	0.032253534
241	0x3df4c610	0.1195184
242	0xbd8bd0a7	-0.06826907
243	0x3de65bf6	0.11248009
244	0x3d8986a7	0.06715136
245	0xbd0c82c8	-0.03430441
246	0x3c9839c4	0.018582232
247	0xbdb4743e	-0.08811234
248	0xbd33214c	-0.043732926
249	0x3dfa3336	0.12216799
250	0x3d6e7926	0.058221005
251	0xbbefdc60	-0.007319972
252	0x3e20a380	0.1568737
253	0xbe86b985	-0.26313415
254	0x3eab8aa4	0.33504212
255	0xbe1af931	-0.15134121

network_body._body_endoder.seq_layers.0.bias f4 [64]
0	0x3d9914d9	0.074746795
1	0x3ca65794	0.020305432
2	0xbdc2cf44	-0.09512189
3	0xbd762aa2	-0.06009925
4	0x3cdd5598	0.027018353
5	0xbd2e3d81	-0.042539123
6	0x3cfb869b	0.030703833
7	0x3de4aa3d	0.11165283
8	0x3dbf3a2b	0.093372665
9	0xbe239423	-0.15974478
10	0x3dc38ad6	0.09547965
11	0x3ded6dd7	0.11593216
12	0x3dacd7c6	0.08439593
13	0xbe0c09dd	-0.13675638
14	0x3dce3a45	0.10069708
15	0x3d4200a4	0.047363892
16	0x3b2e5423	0.0026600442
17	0x3de65184	0.112460166
18	0xbdf1dc60	-0.11809611
19	0xbdee8b9b	-0.116477214
20	0x3cd9c594	0.02658347
21	0xbc25030c	-0.010071527
22	0x3dc7a5a4	0.0974839
23	0x3b0ab616	0.002116566
24	0xbd950d38	-0.07277912
25	0x3d0d0f1b	0.034438234
26	0xbdd548b3	-0.10414257
27	0x3dafc630	0.08582723
28	0x3d33fd04	0.043942466
29	0xbd62323c	-0.05522369
30	0x3c2c30d2	0.010509687
31	0x3bd09db5	0.0063664564
32	0x3d82f964	0.06395224
33	0xbe0bc224	-0.13648278
34	0xbcc0b786	-0.02352501
35	0x3bb1d3a4	0.005426841
36	0x3dac37b9	0.08409066
37	0x3d6cd2c1	0.057818178
38	0xbc847823	-0.016170567
39	0x3d3721ae	0.044709854
40	0xbd849913	-0.06474509
41	0x3cae3839	0.021267043
42	0x3c2895e8	0.010289647
43	0xbca5e66a	-0.020251472
44	0x3a20fdba	0.0006141324
45	0xbd943f41	-0.07238627
46	0xbd43ee59	-0.047834728
47	0xbd878f7f	-0.066191666
48	0xbce901bc	-0.02844321
49	0x3d7feca4	0.062481537
50	0xbd3759b2	-0.044763274
51	0x3d7c35bf	0.061574694
52	0x3d79dc44	0.061001077
53	0xbceb6e0a	-0.028738994
54	0xbdfc7ce1	-0.12328506
55	0x3e05a4c0	0.13051128
56	0xbd81e5db	-0.063426696
57	0x3cd2f85d	0.025753194
58	0xbd9b4f57	-0.07583492
59	0x3d31f83b	0.04344962
60	0xbd1da16b	-0.03848402
61	0x3d158519	0.036503885
62	0xbe2aad23	-0.16667609
63	0xbddb52d9	-0.10709161

network_body._body_endoder.seq_layers.2.weight f4 [64, 64]
0	0x3d5fc6aa	0.05463282
1	0xbe118c22	-0.14213613
2	0xbe323f81	-0.17407037
3	0xbdb3bc12	-0.08776106
4	0xbd262e37	-0.040571418
5	0xbea32673	-0.31865272
6	0xbc41c217	-0.01182606
7	0x3cefaa31	0.029255958
8	0xbe0837af	-0.13302492
9	0x3e88d3ea	0.26724178
10	0xbeb4a3a3	-0.35281095
11	0x3cb52e4d	0.022116804
12	0x3d842682	0.06452657
13	0xbe4db96a	-0.20090261
14	0xbd86cc55	-0.06581942
15	0x3dfb6783	0.12275603
16	0xbd71c9d9	-0.059030388
17	0xbe5e18d5	-0.2168916
18	0x3ea810b5	0.32825246
19	0x3b7a9189	0.0038233718
20	0x3dd1ab9b	0.10237809
21	0xbd88f7ce	-0.0668789
22	0x3e67ca62	0.22635797
23	0xbd5968cc	-0.053078458
24	0x3d623e0b	0.05523495
25	0x3e912ae7	0.28353044
26	0xbd628733	-0.055304717
27	0xbd181bc3	-0.03713585
28	0x3c72eab8	0.014826469
29	0x3e40f389	0.18842901
30	0x3da62789	0.081130095
31	0x3ccccdad	0.025000418
32	0x3c917e61	0.017760457
33	0x3e0dc642	0.1384516
34	0xbe848f6a	-0.25890666
35	0x3d903ee4	0.070432454
36	0xbe9b8fc8	-0.30383134
37	0x3da42408	0.08014685
38	0xbe261743	-0.16219811
39	0xbe77da78	-0.24204433
40	0xbd62b9df	-0.05535304
41	0xbeb76e34	-0.35826266
42	0xbdc42bbf	-0.095786564
43	0x3e3d6c87	0.18498431
44	0xbc001246	-0.007816857
45	0xbdaf1627	-0.08549147
46	0xbd96318d	-0.0733367
47	0x3d6626bc	0.056189284
48	0xbdd4f935	-0.10399095
49	0xbe2ccf79	-0.1687602
50	0xbe99aee2	-0.30016237
51	0x3e235d10	0.1595347
52	0xbe25cd40	-0.16191578
53	0xbe011b1c	-0.12607998
54	0xbd2ab5e1	-0.04167736
55	0xbdbdfdc6	-0.09276919
56	0xbe752660	-0.2394042
57	0xbcc96b01	-0.024587156
58	0xbd5cf7bb	-0.05394719
59	0xbe5c78e5	-0.21530493
60	0xbe8a25ae	-0.26981872
61	0xbe2c1e93	-0.16808538
62	0xbb6fbfe5	-0.0036582884
63	0x3e2ec26e	0.17066357
64	0xbe2f2fb8	-0.17108047
65	0xbd7beba6	-0.06150403
66	0xbe48a79e	-0.19595191
67	0x3d88b700	0.066755295
68	0xbdd58793	-0.10426249
69	0xbd140b03	-0.036143314
70	0xbd3b139d	-0.045673
71	0xbe95c639	-0.29252794
72	0x3a6cd4db	0.00090344035
73	0x3ddab5fc	0.10679242
74	0x3d428961	0.047494296
75	0xbe00c4a0	-0.12575006
76	0x3cb8971c	0.022532992
77	0xb90dc8ae	-0.00013521567
78	0x3d83d91c	0.06437895
79	0x3ded64a6	0.11591463
80	0x3dab8bfe	0.08376311
81	0xbca68f98	-0.020332143
82	0xbe109a31	-0.1412132
83	0x3df692cc	0.12039718
84	0x3e1963b5	0.14979441
85	0x3d80055f	0.062510245
86	0xbcde29e7	-0.02711959
87	0xbe51dc0e	-0.204941
88	0x3d3157f6	0.043296777
89	0x3e22c59c	0.15895694
90	0xbc4c79cb	-0.01248021
91	0x3e063aa4	0.13108307
92	0xbee183ae	-0.44045776
93	0xbde75991	-0.1129638
94	0x3e8b970a	0.2726367
95	0xbca264c7	-0.019823445
96	0x3e66187e	0.2247028
97	0xbd04e83b	-0.032448035
98	0x3dcfdf22	0.10149981
99	0x3cd2e76f	0.025745122
100	0xbeb76c34	-0.3582474
101	0x3e0007f3	0.12503032
102	0xbd74c6fc	-0.05976008
103	0x3d5b0919	0.053475473
104	0xbeb44501	-0.35208896
105	0x3d9ba3eb	0.07599624
106	0xbd5d8bdf	-0.05408847
107	0x3e7ecec9	0.2488357
108	0x3de49478	0.11161131
109	0xbde9861f	-0.11402535
110	0xbe216949	-0.1576282
111	0x3e18c144	0.14917475
112	0xbd40bb68	-0.047053725
113	0x3e0350cc	0.1282379
114	0xbde8fdf1	-0.113765605
115	0x3c943073	0.018089509
116	0x3e12eee5	0.14348944
117	0xbd1a4af5	-0.03766914
118	0x3d29b170	0.041428983
119	0x3e3930e4	0.18085057
120	0x3ac4f843	0.0015027601
121	0x3dcca0bd	0.09991596
122	0x3dfb9d81	0.12285901
123	0x3cedc59b	0.02902489
124	0xbe820f85	-0.25402465
125	0xbe6e9edb	-0.23302786
126	0xbdd6e322	-0.10492541
127	0xbdf2800f	-0.118408315
128	0x3c90ec77	0.01769088
129	0xbe25ef6f	-0.16204618
130	0xbc9cffd6	-0.01916496
131	0xbd95a762	-0.07307316
132	0x3e378a52	0.17923859
133	0x3d771b23	0.060328614
134	0x3e0fc29a	0.14039078
135	0xbe99da12	-0.30049187
136	0xbecebc19	-0.40377882
137	0x3dd1a3f2	0.10236348
138	0xbe807782	-0.25091177
139	0xbebe39f4	-0.3715359
140	0xbd350db9	-0.04420254
141	0xbcb1f982	-0.02172542
142	0x3e09e989	0.13467993
143	0x3d06a02e	0.032867603
144	0xbe578f4c	-0.21050757
145	0x3e2406a1	0.16018154
146	0x3ccf2502	0.025286201
147	0xbd8d063f	-0.06885957
148	0xbe50090e	-0.20315954
149	0x3c22a1ae	0.009926243
150	0xbe375415	-0.17903168
151	0x3cfdc8e8	0.030979589
152	0x3e56c636	0.20974049
153	0x3dd00a9c	0.101582736
154	0xbca87795	-0.020564834
155	0xbdafd1e8	-0.08584958
156	0x3e82f605	0.25578323
157	0x3e0141f9	0.12622823
158	0xbccf9b3e	-0.02534258
159	0xbea32f67	-0.31872103
160	0xbd686e20	-0.05674565
161	0x3e222664	0.15834957
162	0xbdfe9f70	-0.12432754
163	0xbdd1a3a1	-0.10236288
164	0xbd67b7cf	-0.056571778
165	0xbd53f0f6	-0.05174347
166	0xbe422d74	-0.18962651
167	0xbe289575	-0.16463263
168	0xbe33b74a	-0.17550388
169	0xbd9f8843	-0.07789662
170	0xbd8977e4	-0.067123204
171	0xbcee4a8f	-0.029088287
172	0xbe13dac0	-0.14438915
173	0xbd3bcb90	-0.04584843
174	0x3d0b3c2b	0.033992928
175	0xbe4e8aa1	-0.2017007
176	0xbe149f38	-0.14513862
177	0xbe8e8848	-0.2783835
178	0xbd83edba	-0.06441827
179	0xbe472ab6	-0.19449887
180	0x3ca1a2a6	0.019730877
181	0x3e2276e9	0.15865673
182	0x3e05ec8a	0.13078514
183	0x3c9716bc	0.018443458
184	0xbe8d2e39	-0.27574328
185	0xbe5d0448	-0.21583664
186	0xbe1c8c0c	-0.15287799
187	0xbde243b0	-0.110480666
188	0xbe06f65f	-0.1317992
189	0xbdb53824	-0.088485986
190	0xbdfb854a	-0.12281282
191	0x3dff4833	0.12464943
192	0x3d2eb971	0.04265732
193	0xbe3a511c	-0.18195003
194	0xbe377345	-0.17915066
195	0x3c83091f	0.01599556
196	0x3d92acac	0.07161841
197	0x3df32ec8	0.11874157
198	0x3dfcf740	0.12351847
199	0xbca5f8f4	-0.020260312
200	0xbe318833	-0.17337112
201	0xbe0b352e	-0.13594505
202	0x3dd74164	0.10510519
203	0xbd8a7881	-0.067612655
204	0x3eb023ad	0.34402218
205	0xbb71ae20	-0.0036877468
206	0x3dcc64e6	0.09980182
207	0xbe450f6d	-0.19244166
208	0x3debd170	0.115145564
209	0x3d9dade8	0.076991856
210	0x3e0eed50	0.13957715
211	0x3e4c868a	0.19973198
212	0xbd8661ad	-0.06561599
213	0xbba1f540	-0.004942566
214	0x3e11d621	0.1424184
215	0x3e3a797a	0.18210402
216	0x3dd330a9	0.103120156
217	0x3e82600f	0.25463912
218	0xbd2c37c3	-0.042045366
219	0x3e12f538	0.14351356
220	0xbe174b4d	-0.14774819
221	0x3d7612d5	0.060076553
222	0x3e04dcaa	0.12974802
223	0xbe6431e2	-0.22284654
224	0xbd683fe2	-0.05670155
225	0xbe195bd9	-0.14976443
226	0xbc027fe5	-0.007965063
227	0x3e4e291a	0.20132867
228	0xbd33871c	-0.043830022
229	0xbbf370c0	-0.0074292123
230	0xbd866b88	-0.06563479
231	0x3cd5292d	0.02602061
232	0xbea95dab	-0.33079275
233	0x3dea6a89	0.11446101
234	0x3b9d6946	0.0048038093
235	0x3e85df7b	0.26147065
236	0xbe397d06	-0.18114099
237	0x3e571b03	0.21006398
238	0x3e006bd3	0.12541132
239	0xbe3fccc9	-0.18730463
240	0xbda39fb3	-0.079894446
241	0xbc18539f	-0.009297281
242	0x3e5309eb	0.20609252
243	0xbc5eb1e5	-0.013592218
244	0xbcd2fb5f	-0.025754629
245	0x3e20243c	0.15638822
246	0xbc940f33	-0.018073654
247	0x3d8a54ca	0.067544535
248	0x3e24a9a0	0.16080332
249	0x3d3a6640	0.04550767
250	0x3e27707b	0.16351502
251	0x3e547a99	0.20749892
252	0x3dcf991e	0.10136627
253	0x3e2b1420	0.16706896
254	0x3ccf96dd	0.025340492
255	0xbd4578e7	-0.048211005

network_body._body_endoder.seq_layers.2.bias f4 [64]
0	0xbe1165b4	-0.14198953
1	0x3cd5f0da	0.026115824
2	0xbe014c60	-0.12626791
3	0x3deebbb0	0.11656892
4	0xbe725340	-0.2366457
5	0x3e0531a2	0.13007215
6	0xbd93bfe1	-0.07214332
7	0xbe1c1c39	-0.15245141
8	0xbdd1cf87	-0.10244661
9	0xbd166a11	-0.036722247
10	0x3e32082e	0.17385933
11	0xbe3dff90	-0.1855452
12	0x3d8c55ad	0.06852279
13	0x3d304ac6	0.04304006
14	0x3d3a29e3	0.045450103
15	0xbcaaea45	-0.020863662
16	0xbdb5b8b0	-0.08873117
17	0xbe6fef85	-0.23431213
18	0xbd30abf6	-0.043132745
19	0xbc2b41f9	-0.010452741
20	0x3e1044cb	0.14088742
21	0x3cda2909	0.026630895
22	0x3d6f7d89	0.05846933
23	0xbde5af0c	-0.11215028
24	0x3d6c360d	0.057668734
25	0xbe2bea42	-0.16788581
26	0x3dcc85bd	0.09986446
27	0x3c0d4a2f	0.008623644
28	0xbe4160b5	-0.18884547
29	0xbd980ec5	-0.07424692
30	0x3d4180f1	0.04724211
31	0x3db4fca8	0.08837253
32	0xbdf6fa2b	-0.120594345
33	0x3d8ad57a	0.06778999
34	0x3db97f74	0.09057513
35	0x3c83cf5b	0.016090086
36	0x3d69cbe2	0.057079203
37	0x3de6d8ca	0.11271818
38	0xbdadfce1	-0.084954984
39	0x3e157961	0.14597084
40	0x3d036e43	0.032087576
41	0xbe29d10f	-0.16583656
42	0x3dbce8eb	0.09224113
43	0xbd1033f1	-0.035205785
44	0x3dc19ed0	0.09454119
45	0xbdf3db99	-0.11907119
46	0x3e15e759	0.14639033
47	0x3d042180	0.03225851
48	0x3dfd7a92	0.12376894
49	0xbd8c129c	-0.06839487
50	0xbd982c7d	-0.074303605
51	0xbd4954f2	-0.049153276
52	0x3e18ca6b	0.14920966
53	0xbd4fb8e2	-0.050713427
54	0xbb882813	-0.004155168
55	0x3d6d34f6	0.057911836
56	0xbdb7c938	-0.08973926
57	0xbe1f44b4	-0.15553552
58	0x3c80e3ea	0.015733678
59	0x3e0695c5	0.1314307
60	0x3db3c620	0.08778024
61	0xbe846076	-0.25854844
62	0xbe0893a3	-0.13337569
63	0x3e14eaea	0.14542738

action_model._continuous_distribution.log_sigma f4 [1, 2]
0	0xbf2319c8	-0.63711214
1	0xbf35db5e	-0.7103785

action_model._continuous_distribution.mu.weight f4 [2, 64]
0	0xbdb92dba	-0.09041925
1	0x3d9610bd	0.07327411
2	0xbdb54cc5	-0.08852533
3	0x3d7e3cfc	0.062069878
4	0xbd295edb	-0.041350227
5	0x3dbc6757	0.09199398
6	0xbdfa6ae5	-0.1222742
7	0xbdca5186	-0.098788306
8	0xbe72d73c	-0.23714918
9	0x3dafa2ad	0.0857595
10	0x3d826129	0.06366188
11	0xbde10daf	-0.10988938
12	0x3e39f930	0.18161464
13	0x3c179566	0.009251928
14	0x3c8233bf	0.015893815
15	0x3dff78e9	0.12474234
16	0xbd8661e8	-0.06561643
17	0xbd5e5b13	-0.054286074
18	0xbd9f6c05	-0.07784275
19	0xbdf623d8	-0.120185554
20	0xbbd721b3	-0.0065652966
21	0x3d067165	0.032822985
22	0xbd9cfc1d	-0.07665274
23	0xbdb20010	-0.08691418
24	0xbdf6ad91	-0.12044824
25	0xbdb9801b	-0.09057637
26	0x3d87d9a8	0.066333115
27	0x3db4d0b5	0.0882887
28	0xbd975580	-0.07389355
29	0xbc0a60ab	-0.008445899
30	0xbdd93872	-0.10606469
31	0x3d459303	0.048235904
32	0x3ca993cb	0.020700356
33	0xbd1d6f46	-0.038436197
34	0x3dcc2dcb	0.09969672
35	0xbe00fc51	-0.12596251
36	0x3b4ff387	0.0031730847
37	0xbc30aac5	-0.010782902
38	0xbcb49316	-0.022042792
39	0x3de1b404	0.110206634
40	0xbdce574d	-0.10075245
41	0xbdcdf922	-0.10057284
42	0x380b05b9	3.3145512e-05
43	0x3dc0ce99	0.094144054
44	0x3bf139d6	0.007361631
45	0xbc08868f	-0.0083328625
46	0x3c85d495	0.016336719
47	0xbd25e997	-0.04050597
48	0x3e06b4cf	0.1315491
49	0xbd6c6eb0	-0.057722747
50	0xbd745895	-0.05965479
51	0xbe18482a	-0.14871278
52	0x3dc49c24	0.09600094
53	0x3d16f0b1	0.036850635
54	0x3da6c631	0.08143271
55	0xbd8095f9	-0.06278605
56	0xbcaa1974	-0.02076409
57	0xbd478043	-0.048706304
58	0xbe56eb80	-0.20988274
59	0x3c0ef90d	0.0087263705
60	0x3d1ebb64	0.03875293
61	0xbda6ff4f	-0.08154165
62	0xbca3fb48	-0.020017281
63	0x3dfe7805	0.12425236
64	0xbcf054e2	-0.02933735
65	0x3d5d31a5	0.054002423
66	0xbd3bed64	-0.04588069
67	0x3ce31099	0.027717875
68	0xbdf57cc3	-0.11986687
69	0x3d70e218	0.05880937
70	0xbd81547c	-0.06314942
71	0xbe2f9eb9	-0.17150392
72	0xbdee14b5	-0.11625043
73	0x3b8ba464	0.0042615402
74	0x3e101194	0.14069206
75	0xbe05dbd9	-0.13072146
76	0x3dd03533	0.10166397
77	0x3d8ca010	0.06866467
78	0x3c4cf32d	0.0125091495
79	0xbc3628d6	-0.0111181345
80	0x3ca16ed7	0.019706173
81	0xbd410b48	-0.0471299
82	0xbde61fca	-0.11236532
83	0x3cca11c9	0.024666684
84	0x3e3498ef	0.17636465
85	0x3da8a5ba	0.08234735
86	0x3dfe6f6c	0.12423596
87	0xbd270063	-0.040771853
88	0x3dea2604	0.11433032
89	0xbe3f4b6b	-0.18681113
90	0x3d398f27	0.045302536
91	0x3cf6e662	0.030139152
92	0xbe219393	-0.15778951
93	0xbe451255	-0.19245274
94	0x3d61dea3	0.055143964
95	0x3d8de393	0.06928172
96	0xbe198803	-0.1499329
97	0x3d91e3a4	0.07123497
98	0x3ceb9e6e	0.028762069
99	0x3d8f2db9	0.06991143
100	0x3cd3be28	0.02584751
101	0x3e01160d	0.12606068
102	0x3d0cc2c4	0.03436543
103	0x3dac98a6	0.08427553
104	0x3d961042	0.0732732
105	0xbe36e596	-0.17861018
106	0x3d8fbde5	0.070186414
107	0x3c459d76	0.012061467
108	0x3c88d82d	0.016704643
109	0xbe07d747	-0.13265716
110	0x3e06677a	0.1312541
111	0x3d10ad76	0.035321675
112	0x3d23f2e2	0.040026553
113	0xbe31b62e	-0.17354652
114	0xbeaa7d77	-0.33298847
115	0xbe3c3921	-0.18381168
116	0x3e01ecec	0.12688035
117	0xbe3ebb5f	-0.18626164
118	0x3beae561	0.0071684574
119	0x3da59487	0.0808497
120	0xbe64c76c	-0.22341698
121	0xbe28904a	-0.16461292
122	0x3dabf2b3	0.083959006
123	0x3d627c2e	0.05529421
124	0x3cec81f2	0.028870557
125	0xbda4a8ad	-0.08039985
126	0xbe31cccd	-0.17363282
127	0x3d7d1c0a	0.06179432

action_model._continuous_distribution.mu.bias f4 [2]
0	0x3d037f03	0.03210355
1	0x3e5a245b	0.21302931

exp_avg f4 [64, 131]
0	0xbb24f52d	-0.002517055
1	0x00000000	0.0
2	0x00000000	0.0
3	0x00000000	0.0
4	0x3b25b6b2	0.0025285897
5	0x3abde2b6	0.0014487121
6	0x3ba119ef	0.0049164216
7	0x00000000	0.0
8	0x00000000	0.0
9	0x00000000	0.0
10	0xbae6216d	-0.0017557569
11	0x3a8786c5	0.0010339847
12	0x399f2a5e	0.0003035841
13	0x00000000	0.0
14	0x00000000	0.0
15	0x00000000	0.0
16	0x3a9f01f6	0.0012131322
17	0x3ab3c2aa	0.0013714631
18	0x3a341f2a	0.0006871099
19	0x00000000	0.0
20	0x00000000	0.0
21	0x00000000	0.0
22	0x3a4f79d7	0.0007914579
23	0x3a9abc38	0.0011805361
24	0xba852788	-0.0010158876
25	0x00000000	0.0
26	0x00000000	0.0
27	0x00000000	0.0
28	0x3aeb899e	0.001797009
29	0x3ab9d411	0.0014177581
30	0xbae7ac32	-0.001767522
31	0x00000000	0.0
32	0x00000000	0.0
33	0x00000000	0.0
34	0x3b3d30d0	0.0028868206
35	0x3b10a8eb	0.002207334
36	0x3be1e294	0.0068934653
37	0x00000000	0.0
38	0x00000000	0.0
39	0x00000000	0.0
40	0xbb4335e5	-0.0029786762
41	0x3ab912da	0.0014119998
42	0x39a56a62	0.00031550514
43	0x00000000	0.0
44	0x00000000	0.0
45	0x00000000	0.0
46	0x3aec2934	0.001801765
47	0x3b085511	0.0020802657
48	0x3937c85e	0.00017526883
49	0x00000000	0.0
50	0x00000000	0.0
51	0x00000000	0.0
52	0x3ad02c66	0.0015882372
53	0x3af88049	0.001895913
54	0xb8d7bc21	-0.00010287041
55	0x00000000	0.0
56	0x00000000	0.0
57	0x00000000	0.0
58	0x3a1f6b5d	0.0006081367
59	0x3a206234	0.0006118149
60	0xbb68723b	-0.0035468477
61	0x00000000	0.0
62	0x00000000	0.0
63	0x00000000	0.0
64	0x3b14fbf8	0.0022733193
65	0x37ece996	2.8242164e-05
66	0x3bfe3414	0.007757673
67	0x00000000	0.0
68	0x00000000	0.0
69	0x00000000	0.0
70	0xbbcfbeae	-0.0063398695
71	0xbae6e2be	-0.0017615182
72	0x39ab76f4	0.0003270429
73	0x00000000	0.0
74	0x00000000	0.0
75	0x00000000	0.0
76	0xb9c3d47a	-0.00037351606
77	0xb98fe938	-0.00027448847
78	0x39a3224b	0.00031115333
79	0x00000000	0.0
80	0x00000000	0.0
81	0x00000000	0.0
82	0xb9cc3ae9	-0.00038953804
83	0xb9d8bae2	-0.0004133797
84	0x39bc5491	0.0003592116
85	0x00000000	0.0
86	0x00000000	0.0
87	0x00000000	0.0
88	0xba711b40	-0.0009197481
89	0xba693b8e	-0.0008897119
90	0xbbb37a33	-0.0054772138
91	0x00000000	0.0
92	0x00000000	0.0
93	0x00000000	0.0
94	0x3bb37a04	0.005477192
95	0x3a284ed0	0.00064204354
96	0x3bec0be2	0.007203565
97	0x00000000	0.0
98	0x00000000	0.0
99	0x00000000	0.0
100	0xbbec0b67	-0.0072035077
101	0xbb42eade	-0.0029742043
102	0x39b15e09	0.00033830132
103	0x00000000	0.0
104	0x00000000	0.0
105	0x00000000	0.0
106	0xb9b1574e	-0.00033825118
107	0xb97c4d18	-0.00024061312
108	0x3b6697b2	0.0035185632
109	0x00000000	0.0
110	0x00000000	0.0
111	0x00000000	0.0
112	0xbb668a16	-0.003517752
113	0xbb046d30	-0.0020206682
114	0xbaa0bd83	-0.001226351
115	0x00000000	0.0
116	0x00000000	0.0
117	0x00000000	0.0
118	0x3a5e3e58	0.0008477918
119	0xb93e93f8	-0.00018174935
120	0x3bae8eb8	0.005327072
121	0xba7c0836	-0.00096142606
122	0x3b673726	0.0035280674
123	0x3aecefc0	0.0018076822
124	0xba829667	-0.0009963036
125	0xbb64dcbd	-0.003492161
126	0xbb1f0267	-0.0024262907
127	0x3b9660bb	0.004589168
128	0xbb16eb53	-0.0023028448
129	0x3aef2bce	0.0018247308
130	0x3ad79fe4	0.0016450849
131	0x39b6265f	0.00034742334
132	0x00000000	0.0
133	0x00000000	0.0
134	0x00000000	0.0
135	0xb90f768f	-0.00013681709
136	0xb863235d	-5.4153952e-05
137	0x39d27789	0.00040143382
138	0x00000000	0.0
139	0x00000000	0.0
140	0x00000000	0.0
141	0xb9636f09	-0.00021689771
142	0xb8f12d54	-0.000115002185
143	0x39e14215	0.0004296458
144	0x00000000	0.0
145	0x00000000	0.0
146	0x00000000	0.0
147	0xb91edb1d	-0.0001514968
148	0xb7e9eab0	-2.788505e-05
149	0x3a485233	0.0007641643
150	0x00000000	0.0
151	0x00000000	0.0
152	0x00000000	0.0
153	0xb9f340b8	-0.0004639679
154	0xb965ff40	-0.0002193423
155	0x39a43352	0.00031318754
156	0x00000000	0.0
157	0x00000000	0.0
158	0x00000000	0.0
159	0xba102de7	-0.0005500004
160	0xba012067	-0.0004925788
161	0x39c5f187	0.0003775472
162	0x00000000	0.0
163	0x00000000	0.0
164	0x00000000	0.0
165	0xb875d58c	-5.8611433e-05
166	0x38741edc	5.8202873e-05
167	0x3a10eaf1	0.0005528173
168	0x00000000	0.0
169	0x00000000	0.0
170	0x00000000	0.0
171	0xb97bdcec	-0.00024019525
172	0xb78b1b21	-1.6582724e-05
173	0x39ea1ec3	0.00044654877
174	0x00000000	0.0
175	0x00000000	0.0
176	0x00000000	0.0
177	0xb88c4752	-6.689005e-05
178	0x38c37f64	9.322053e-05
179	0x3a4d5751	0.00078331406
180	0x00000000	0.0
181	0x00000000	0.0
182	0x00000000	0.0
183	0xb9df068b	-0.0004253875
184	0xb91675bf	-0.00014348979
185	0x3a047714	0.00050531444
186	0x00000000	0.0
187	0x00000000	0.0
188	0x00000000	0.0
189	0xb9ba40c8	-0.0003552495
190	0xb94cfa21	-0.00019548136
191	0x3978cf54	0.00023728359
192	0x00000000	0.0
193	0x00000000	0.0
194	0x00000000	0.0
195	0xba1c0fef	-0.0005953302
196	0xba31aeac	-0.00067780423
197	0x3a41dc9e	0.000739524
198	0x00000000	0.0
199	0x00000000	0.0
200	0x00000000	0.0
201	0xba7d7bf6	-0.00096696557
202	0xba58ae93	-0.00082657597
203	0x39f2ac07	0.00046286007
204	0x00000000	0.0
205	0x00000000	0.0
206	0x00000000	0.0
207	0xba43c4e8	-0.0007468001
208	0xba2984e3	-0.000646664
209	0x3a59784e	0.000829582
210	0x00000000	0.0
211	0x00000000	0.0
212	0x00000000	0.0
213	0xba890000	-0.001045227
214	0xba67846a	-0.0008831682
215	0x3a093ae9	0.00052349136
216	0x00000000	0.0
217	0x00000000	0.0
218	0x00000000	0.0
219	0xba2019d3	-0.0006107364
220	0xb9fabb8a	-0.00047823443
221	0x3a0b10e8	0.00053049484
222	0x00000000	0.0
223	0x00000000	0.0
224	0x00000000	0.0
225	0xba0b10c4	-0.00053049275
226	0xb9e03f91	-0.0004277197
227	0x3a611650	0.00085863937
228	0x00000000	0.0
229	0x00000000	0.0
230	0x00000000	0.0
231	0xba611206	-0.00085857545
232	0xba2a2a66	-0.0006491303
233	0x39fb087e	0.00047880778
234	0x00000000	0.0
235	0x00000000	0.0
236	0x00000000	0.0
237	0xb9fafef8	-0.00047873682
238	0xb9b289e9	-0.00034053557
239	0x3a71e752	0.000922789
240	0x00000000	0.0
241	0x00000000	0.0
242	0x00000000	0.0
243	0xba720f1f	-0.00092338206
244	0xba4060fc	-0.00073386705
245	0xb9baa881	-0.0003560223
246	0x00000000	0.0
247	0x00000000	0.0
248	0x00000000	0.0
249	0xb892c5bb	-6.998653e-05
250	0xba24de53	-0.00062892324
251	0x3b8440ae	0.0040360307
252	0x3af57c15	0.0018728996
253	0x3b500e92	0.0031746966
254	0x3b34d9a3	0.0027595542
255	0x3b093287	0.0020934658

exp_avg_sq f4 [64, 131]
0	0x39e69009	0.00043976333
1	0x00000000	0.0
2	0x00000000	0.0
3	0x00000000	0.0
4	0x39ccb516	0.00039044832
5	0x39c55038	0.00037634536
6	0x3a2160c4	0.0006156082
7	0x00000000	0.0
8	0x00000000	0.0
9	0x00000000	0.0
10	0x39db7163	0.00041855415
11	0x39b5f4b2	0.00034705322
12	0x386597e8	5.473933e-05
13	0x00000000	0.0
14	0x00000000	0.0
15	0x00000000	0.0
16	0x39b63aa0	0.00034757424
17	0x39c90002	0.00038337713
18	0x39bcd02b	0.00036013252
19	0x00000000	0.0
20	0x00000000	0.0
21	0x00000000	0.0
22	0x39bd23c5	0.0003607554
23	0x39b8bb1a	0.00035234616
24	0x397a533f	0.0002387287
25	0x00000000	0.0
26	0x00000000	0.0
27	0x00000000	0.0
28	0x39b16446	0.0003383478
29	0x39b9e100	0.00035453588
30	0x39e1726d	0.00043000598
31	0x00000000	0.0
32	0x00000000	0.0
33	0x00000000	0.0
34	0x39ce469a	0.00039343984
35	0x39bd7bda	0.00036141166
36	0x3a2a5a50	0.0006498443
37	0x00000000	0.0
38	0x00000000	0.0
39	0x00000000	0.0
40	0x39f9c32b	0.00047638392
41	0x39ad8601	0.00033096972
42	0x38412c31	4.6055942e-05
43	0x00000000	0.0
44	0x00000000	0.0
45	0x00000000	0.0
46	0x39a3d799	0.00031250415
47	0x39c083ce	0.00036719296
48	0x39b24153	0.00033999476
49	0x00000000	0.0
50	0x00000000	0.0
51	0x00000000	0.0
52	0x39be97f8	0.0003635285
53	0x39ace2a5	0.0003297526
54	0x398f99e9	0.00027389757
55	0x00000000	0.0
56	0x00000000	0.0
57	0x00000000	0.0
58	0x39c26582	0.00037078193
59	0x39cdec06	0.00039276498
60	0x39df630c	0.0004260767
61	0x00000000	0.0
62	0x00000000	0.0
63	0x00000000	0.0
64	0x395b58c9	0.00020918543
65	0x38103068	3.4377357e-05
66	0x3a323349	0.0006797803
67	0x00000000	0.0
68	0x00000000	0.0
69	0x00000000	0.0
70	0x39d5b1bd	0.0004075895
71	0x386959ff	5.5635344e-05
72	0x37c444fe	2.3397148e-05
73	0x00000000	0.0
74	0x00000000	0.0
75	0x00000000	0.0
76	0x381e812a	3.779043e-05
77	0x37df214d	2.6599178e-05
78	0x39ba2600	0.00035504997
79	0x00000000	0.0
80	0x00000000	0.0
81	0x00000000	0.0
82	0x397aee16	0.00023930552
83	0x384c0214	4.8639326e-05
84	0x399f77d1	0.00030416113
85	0x00000000	0.0
86	0x00000000	0.0
87	0x00000000	0.0
88	0x39a50d71	0.00031481267
89	0x399aeafe	0.00029548252
90	0x39cdd789	0.00039261233
91	0x00000000	0.0
92	0x00000000	0.0
93	0x00000000	0.0
94	0x39cdd6e6	0.0003926076
95	0x38a3b304	7.80579e-05
96	0x3a365e58	0.00069568073
97	0x00000000	0.0
98	0x00000000	0.0
99	0x00000000	0.0
100	0x3a365ec4	0.000695687
101	0x39009aca	0.00012264695
102	0x37728b0d	1.4456699e-05
103	0x00000000	0.0
104	0x00000000	0.0
105	0x00000000	0.0
106	0x37727058	1.4450481e-05
107	0x36e709e0	6.885486e-06
108	0x39b4c368	0.00034477864
109	0x00000000	0.0
110	0x00000000	0.0
111	0x00000000	0.0
112	0x39b497ac	0.0003444528
113	0x38801c5d	6.108799e-05
114	0x3976d8b9	0.00023541124
115	0x00000000	0.0
116	0x00000000	0.0
117	0x00000000	0.0
118	0x39263206	0.00015849629
119	0x387c3801	6.013364e-05
120	0x39a9f3e1	0.00032415896
121	0x394e6103	0.0001968183
122	0x39c84511	0.0003819843
123	0x39880df7	0.00025950346
124	0x399b4020	0.0002961168
125	0x39b97715	0.00035374673
126	0x39934c8b	0.00028095054
127	0x39c0990b	0.0003673512
128	0x3998ccdf	0.0002914434
129	0x39981c21	0.00029012657
130	0x399b59dc	0.00029630854
131	0x36d5e228	6.3742227e-06
132	0x00000000	0.0
133	0x00000000	0.0
134	0x00000000	0.0
135	0x38c5cee7	9.4322306e-05
136	0x38db6779	0.00010462007
137	0x376c3fa6	1.40815155e-05
138	0x00000000	0.0
139	0x00000000	0.0
140	0x00000000	0.0
141	0x38bd276e	9.019567e-05
142	0x38d70b1d	0.00010254069
143	0x380c68dc	3.347626e-05
144	0x00000000	0.0
145	0x00000000	0.0
146	0x00000000	0.0
147	0x38d059a8	9.934913e-05
148	0x38db6962	0.00010462363
149	0x383ad91b	4.454805e-05
150	0x00000000	0.0
151	0x00000000	0.0
152	0x00000000	0.0
153	0x38cbed92	9.724045e-05
154	0x38d7a35d	0.00010282428
155	0x36c93db4	5.99745e-06
156	0x00000000	0.0
157	0x00000000	0.0
158	0x00000000	0.0
159	0x38c89479	9.564398e-05
160	0x38d96620	0.000103663886
161	0x36e3a2c4	6.7840756e-06
162	0x00000000	0.0
163	0x00000000	0.0
164	0x00000000	0.0
165	0x38895388	6.548228e-05
166	0x389f07e2	7.583179e-05
167	0x375a3498	1.3006058e-05
168	0x00000000	0.0
169	0x00000000	0.0
170	0x00000000	0.0
171	0x3883c2e5	6.282869e-05
172	0x389a5698	7.3594216e-05
173	0x37deba05	2.6551084e-05
174	0x00000000	0.0
175	0x00000000	0.0
176	0x00000000	0.0
177	0x3897c099	7.236115e-05
178	0x38a11295	7.6805394e-05
179	0x3834839b	4.303791e-05
180	0x00000000	0.0
181	0x00000000	0.0
182	0x00000000	0.0
183	0x389a1506	7.347208e-05
184	0x3899f633	7.341467e-05
185	0x36dd45b8	6.5944296e-06
186	0x00000000	0.0
187	0x00000000	0.0
188	0x00000000	0.0
189	0x38b89519	8.801575e-05
190	0x38d0c407	9.954726e-05
191	0x37071d73	8.053484e-06
192	0x00000000	0.0
193	0x00000000	0.0
194	0x00000000	0.0
195	0x378ea108	1.7002705e-05
196	0x375c1325	1.3117479e-05
197	0x37717fcb	1.43944735e-05
198	0x00000000	0.0
199	0x00000000	0.0
200	0x00000000	0.0
201	0x37ca662b	2.4127852e-05
202	0x379a1d7c	1.837196e-05
203	0x37ae679e	2.0790667e-05
204	0x00000000	0.0
205	0x00000000	0.0
206	0x00000000	0.0
207	0x37ac2899	2.0522903e-05
208	0x3758747e	1.2901726e-05
209	0x382ce636	4.1222396e-05
210	0x00000000	0.0
211	0x00000000	0.0
212	0x00000000	0.0
213	0x382bac80	4.093023e-05
214	0x37a42adf	1.9570287e-05
215	0x3709234a	8.174053e-06
216	0x00000000	0.0
217	0x00000000	0.0
218	0x00000000	0.0
219	0x3862de85	5.4089836e-05
220	0x3883c078	6.282417e-05
221	0x371e1b7b	9.423932e-06
222	0x00000000	0.0
223	0x00000000	0.0
224	0x00000000	0.0
225	0x371e1d00	9.424286e-06
226	0x368fb64c	4.2829543e-06
227	0x378cf2c8	1.6802354e-05
228	0x00000000	0.0
229	0x00000000	0.0
230	0x00000000	0.0
231	0x378cee3b	1.6800235e-05
232	0x371f9189	9.511024e-06
233	0x373c75c0	1.1233089e-05
234	0x00000000	0.0
235	0x00000000	0.0
236	0x00000000	0.0
237	0x373c6976	1.1230228e-05
238	0x363a5a4d	2.7768722e-06
239	0x38211b67	3.841091e-05
240	0x00000000	0.0
241	0x00000000	0.0
242	0x00000000	0.0
243	0x382118ab	3.8408365e-05
244	0x3750b9e0	1.24410435e-05
245	0x370f7d25	8.552602e-06
246	0x00000000	0.0
247	0x00000000	0.0
248	0x00000000	0.0
249	0x3749e7d0	1.2034507e-05
250	0x370baf0d	8.325803e-06
251	0x39284a00	0.00016049296
252	0x38eb3feb	0.00011217579
253	0x39347c97	0.00017212551
254	0x390e60d6	0.0001357825
255	0x38f40126	0.000116350406

exp_avg f4 [64]
0	0xbadeccc6	-0.0016998283
1	0xbb1daa50	-0.0024057813
2	0x39bd3ce9	0.0003609427
3	0xba5f82ce	-0.00085262663
4	0xbad8df85	-0.0016546106
5	0x391d5f03	0.00015008081
6	0xbacb1b47	-0.00154958
7	0xbb4ad46c	-0.0030949367
8	0x39aa9368	0.00032534753
9	0xb9a6095d	-0.00031668963
10	0xb988a33b	-0.00026061558
11	0xbb079203	-0.0020686395
12	0xbac595c1	-0.0015074537
13	0xb9724c2a	-0.00023107292
14	0xb946afcf	-0.00018948245
15	0x399e986b	0.0003024967
16	0x3abe3b85	0.0014513588
17	0x3b0d584b	0.002156752
18	0xba186220	-0.00058129616
19	0x3a15ea3f	0.00057188043
20	0xba82ce93	-0.0009979777
21	0xb8fd259d	-0.00012070986
22	0xbb05f53f	-0.0020440368
23	0xba2c4ed2	-0.00065730244
24	0x39fe5e0b	0.00048516723
25	0x3abc2ea7	0.0014357165
26	0xb89361bb	-7.02771e-05
27	0xb9adc480	-0.00033143535
28	0xba97db2c	-0.0011585704
29	0xba82f8ca	-0.0009992358
30	0x3a4ba6a8	0.0007768669
31	0xbab704f0	-0.0013963263
32	0x3a256ef7	0.00063107855
33	0xba04f485	-0.00050718366
34	0x3acf03dd	0.0015793998
35	0x398f3b69	0.0002731935
36	0xb933f317	-0.00017161328
37	0xb92a8927	-0.00016263557
38	0xbaa20d3f	-0.0012363567
39	0xba77ead2	-0.0009457293
40	0xb93ba6ce	-0.0001789585
41	0x3802f14f	3.121915e-05
42	0x3a5e9dba	0.0008492131
43	0x3b8cd2e4	0.004297601
44	0x3abc9f57	0.0014390749
45	0xb9a48df8	-0.00031386293
46	0x393d0af7	0.0001802853
47	0xb9f749e8	-0.00047166576
48	0xb977f4d9	-0.00023646968
49	0x3ab948a9	0.0014136034
50	0xb8b5d744	-8.670849e-05
51	0xba8caf20	-0.0010733344
52	0xbb326158	-0.0027218666
53	0x3aad1470	0.0013204943
54	0xb8f98e1e	-0.000118997166
55	0xb91d57b5	-0.0001500536
56	0xb9a33cb3	-0.00031135007
57	0x3aeba47a	0.0017978095
58	0xba173784	-0.00057684653
59	0xba9f5c73	-0.0012158289
60	0x39c07820	0.00036710594
61	0xba496045	-0.0007681887
62	0xb98bd57f	-0.00026671213
63	0xba4963b5	-0.0007682399

exp_avg_sq f4 [64]
0	0x399eefdf	0.00030314826
1	0x3908dded	0.00013052644
2	0x3b2a5cfc	0.0025995364
3	0x3881105d	6.154247e-05
4	0x39387df7	0.00017594533
5	0x37cd9001	2.4504961e-05
6	0x39dc88ad	0.000420635
7	0x3918e6cc	0.00014581828
8	0x37a23672	1.9337258e-05
9	0x380f746b	3.420228e-05
10	0x3a73a481	0.00092942273
11	0x39a98d24	0.0003233935
12	0x38b4e6bc	8.6260465e-05
13	0x3814005f	3.5286295e-05
14	0x3a9f5382	0.0012155625
15	0x382c276d	4.1044714e-05
16	0x393d4d8b	0.00018053332
17	0x39a7e25a	0.00032021367
18	0x3829515d	4.0368515e-05
19	0x38adf65f	8.295173e-05
20	0x3958e450	0.00020684418
21	0x395db98f	0.00021145328
22	0x39ad38b7	0.00033039387
23	0x3903b6ca	0.00012561228
24	0x379f85fe	1.9016672e-05
25	0x39cab186	0.00038660708
26	0x38ba0e8b	8.87188e-05
27	0x394e4f78	0.00019675295
28	0x3903e657	0.00012578942
29	0x38148479	3.5409324e-05
30	0x39b187e2	0.0003386131
31	0x39197ad1	0.0001463697
32	0x388101b7	6.151519e-05
33	0x37a4fcf6	1.9668118e-05
34	0x392b88e6	0.0001635883
35	0x39d067cf	0.00039750195
36	0x39218851	0.00015404938
37	0x392a4a11	0.00016240055
38	0x39e409c5	0.00043494828
39	0x3a031ab1	0.0005001231
40	0x388cd6ca	6.715728e-05
41	0x385a9466	5.2113457e-05
42	0x380e66da	3.3951226e-05
43	0x3aa2f646	0.0012433014
44	0x38cec129	9.858824e-05
45	0x38472eeb	4.7488993e-05
46	0x390758cf	0.00012907687
47	0x37cf619d	2.4721778e-05
48	0x375b5944	1.3074201e-05
49	0x3a79158f	0.00095018087
50	0x37f3aa22	2.9047082e-05
51	0x383d9385	4.51985e-05
52	0x39f86d71	0.00047383786
53	0x38828ceb	6.225131e-05
54	0x379d6b6d	1.8765882e-05
55	0x3a540964	0.00080885575
56	0x3868466c	5.5378696e-05
57	0x3929ac83	0.00016181362
58	0x3985f123	0.00025547398
59	0x391226c9	0.00013938094
60	0x382f8d9b	4.185513e-05
61	0x38697b83	5.566656e-05
62	0x37ad0e95	2.0629997e-05
63	0x3902825c	0.00012446329
