results/Run00/OpponentML/OpponentML-3499965.onnx (onnx, 54547 bytes, 11 tensors)

60 f4 [120]
0.20295861 0.0005345251 0.0005345251 0.0005345251 0.41609812 0.38841936 0.27309343 0.0005345251
0.0005345251 0.0005345251 0.43915364 0.39733848 0.17861177 0.0005345251 0.0005345251 0.0005345251
0.4093258 0.38733402 0.28941205 0.0005345251 0.0005345251 0.0005345251 0.44507924 0.3980635
0.20054017 0.0005345251 0.0005345251 0.0005345251 0.43339384 0.40539178 0.20945352 0.0005345251
0.0005345251 0.0005345251 0.37191063 0.3333314 0.2819406 0.0005345251 0.0005345251 0.0005345251
0.40508246 0.3486535 0.1851797 0.0005345251 0.0005345251 0.0005345251 0.36226603 0.33101776
0.29887068 0.0005345251 0.0005345251 0.0005345251 0.41365635 0.35030946 0.20777325 0.0005345251
0.0005345251 0.0005345251 0.3954876 0.3574047 0.21572326 0.0005345251 0.0005345251 0.0005345251
0.3114632 0.25391698 0.2903692 0.0005345251 0.0005345251 0.0005345251 0.35986266 0.28050756
0.1914508 0.0005345251 0.0005345251 0.0005345251 0.2973725 0.2493132 0.307877 0.0005345251
0.0005345251 0.0005345251 0.3721442 0.28386545 0.2147409 0.0005345251 0.0005345251 0.0005345251
0.34423712 0.29017332 0.22171894 0.0005345251 0.0005345251 0.0005345251 0.22171976 0.10438431
0.29843014 0.0005345251 0.0005345251 0.0005345251 0.29843068 0.17118806 0.19752389 0.0005345251
0.0005345251 0.0005345251 0.19752605 0.087930195 0.31648755 0.0005345251 0.0005345251 0.0005345251
0.31664076 0.178786 0.22146097 0.0005345251 0.0005345251 0.0005345251 0.2724376 0.18353517
00000000: 62d4 4f3e 5f1f 0c3a 5f1f 0c3a 5f1f 0c3a
00000010: d00a d53e e7de c63e e7d2 8b3e 5f1f 0c3a
00000020: 5f1f 0c3a 5f1f 0c3a bfd8 e03e f36f cb3e
00000030: 01e6 363e 5f1f 0c3a 5f1f 0c3a 5f1f 0c3a
00000040: 2793 d13e a550 c63e d12d 943e 5f1f 0c3a
00000050: 5f1f 0c3a 5f1f 0c3a 6de1 e33e fbce cb3e
00000060: 675a 4d3e 5f1f 0c3a 5f1f 0c3a 5f1f 0c3a
00000070: cce5 dd3e 838f cf3e fc7a 563e 5f1f 0c3a
00000080: 5f1f 0c3a 5f1f 0c3a 126b be3e 6aaa aa3e
00000090: 855a 903e 5f1f 0c3a 5f1f 0c3a 5f1f 0c3a
000000a0: f866 cf3e b682 b23e bf9f 3d3e 5f1f 0c3a
000000b0: 5f1f 0c3a 5f1f 0c3a ef7a b93e 297b a93e
000000c0: 9405 993e 5f1f 0c3a 5f1f 0c3a 5f1f 0c3a
000000d0: c4ca d33e c35b b33e 83c2 543e 5f1f 0c3a
000000e0: 5f1f 0c3a 5f1f 0c3a 5a7d ca3e c0fd b63e
000000f0: 8fe6 5c3e 5f1f 0c3a 5f1f 0c3a 5f1f 0c3a
00000100: 1b78 9f3e 6801 823e 46ab 943e 5f1f 0c3a
00000110: 5f1f 0c3a 5f1f 0c3a eb3f b83e b09e 8f3e
00000120: ae0b 443e 5f1f 0c3a 5f1f 0c3a 5f1f 0c3a
00000130: 3541 983e f64b 7f3e 0ea2 9d3e 5f1f 0c3a
00000140: 5f1f 0c3a 5f1f 0c3a af89 be3e d056 913e
00000150: 0ae5 5b3e 5f1f 0c3a 5f1f 0c3a 5f1f 0c3a
00000160: d93f b03e 9991 943e 4a0a 633e 5f1f 0c3a
00000170: 5f1f 0c3a 5f1f 0c3a 810a 633e 71c7 d53d
00000180: d6cb 983e 5f1f 0c3a 5f1f 0c3a 5f1f 0c3a
00000190: e8cb 983e ec4b 2f3e b443 4a3e 5f1f 0c3a
000001a0: 5f1f 0c3a 5f1f 0c3a 4544 4a3e bf14 b43d
000001b0: a80a a23e 5f1f 0c3a 5f1f 0c3a 5f1f 0c3a
000001c0: bd1e a23e ad13 373e aac6 623e 5f1f 0c3a
000001d0: 5f1f 0c3a 5f1f 0c3a f17c 8b3e a5f0 3b3e

63 f4 [11]
128.17677 69.27359 127.56221 0.48935875 0.50724256 0.50598556 0.49471465 141.15167
55.742825 140.58037 0.5905242
00000000: 412d 0043 148c 8a42 da1f ff42 3b8d fa3e
00000010: a6da 013f 4588 013f 3d4b fd3e d426 0d43
00000020: a7f8 5e42 9394 0c43 982c 173f

action_model._continuous_distribution.log_sigma f4 [1, 2]
-0.5332217 -0.6256099
00000000: 3881 08bf f827 20bf

action_model._continuous_distribution.mu.bias f4 [2]
0.030973632 0.21295325
00000000: 6abc fd3c 6b10 5a3e

action_model._continuous_distribution.mu.weight f4 [2, 64]
-0.08812842 0.054835074 -0.083563805 0.058765117 -0.03787933 0.09560636 -0.11557856 -0.10850129
-0.23670256 0.08875554 0.06337611 -0.10686396 0.16951874 0.007558702 0.012494341 0.12414215
-0.06367486 -0.072513655 -0.07601379 -0.12601748 -0.0037214207 0.03994426 -0.0714843 -0.09213893
-0.120489866 -0.07822411 0.06527258 0.089443035 -0.07409151 -0.014737036 -0.10261707 0.045716025
0.014853833 -0.03273788 0.09548623 -0.11858406 0.028354144 -0.00593509 -0.03973198 0.111228764
-0.10107273 -0.08793214 0.0046261633 0.08059398 0.008195835 0.00071925775 0.023988115 -0.033425864
0.13282944 -0.053459395 -0.06503138 -0.15643404 0.096862726 0.043729465 0.07953172 -0.058192395
-0.0020044348 -0.045603815 -0.2091131 0.0071578007 0.03269493 -0.07888033 -0.022459596 0.119693
-0.025155434 0.06913092 -0.045372564 0.028095482 -0.12791201 0.059058167 -0.06664537 -0.15662043
-0.12280707 -0.00011059528 0.14309177 -0.12711276 0.11377885 0.06448874 0.0152546475 -0.0039513013
0.020071264 -0.0463231 -0.107923456 0.029479844 0.17378396 0.07801056 0.11594048 -0.030478433
0.11591849 -0.18766256 0.056087565 0.028818825 -0.15843657 -0.18793975 0.06267807 0.072914615
-0.14413989 0.07344468 0.04516273 0.06357866 0.013068711 0.127071 0.039678823 0.09211014
0.06961672 -0.17683388 0.06714386 0.03348743 0.021495547 -0.13855085 0.1293122 0.039356463
0.042383704 -0.17256476 -0.31855428 -0.18559939 0.13574846 -0.18353646 0.014510541 0.07250529
-0.21413 -0.16280048 0.08088295 0.06379846 0.033222634 -0.08652733 -0.15982251 0.061833482
00000000: ac7c b4bd be9a 603d 8023 abbd b1b3 703d
00000010: 5b27 1bbd 44cd c33d 74b4 ecbd ed35 debd
00000020: 2862 72be 77c5 b53d 55cb 813d 7edb dabd
00000030: 5296 2d3e fdae f73b 10b5 4c3c 3d3e fe3d
00000040: f767 82bd 0a82 94bd 1ead 9bbd ba0a 01be
00000050: 14e3 73bb 989c 233d 5c66 92bd 56b3 bcbd
00000060: 64c3 f6bd f633 a0bd a1ad 853d e92d b73d
00000070: 4abd 97bd 9c73 71bc e628 d2bd ba40 3b3d
00000080: 7e5d 733c 2818 06bd 498e c33d 33dc f2bd
00000090: f346 e83c 257b c2bb 00be 22bd e8cb e33d
000000a0: 38ff cebd c415 b4bd 1297 973b 750e a53d
000000b0: d347 063c 928c 3c3a b982 c43c 8fe9 08bd
000000c0: 7104 083e 3df8 5abd 2c2f 85bd 3f30 20be
000000d0: f75f c63d ab1d 333d 87e1 a23d 265b 6ebd
000000e0: d65c 03bb 11cb 3abd bf21 56be fc8b ea3b
000000f0: 1eeb 053d 038c a1bd 30fd b7bc 9b21 f53d
00000100: c512 cebc 8394 8d3d 95d8 39bd 7f28 e63c
00000110: 5efb 02be fae6 713d 5e7d 88bd 1b61 20be
00000120: 4682 fbbd 64ef e7b8 a686 123e d929 02be
00000130: e304 e93d ac12 843d a1ee 793c eb79 81bb
00000140: 7e6c a43c 4abd 3dbd f906 ddbd b77f f13c
00000150: 6cf4 313e 00c4 9f3d 3472 ed3d e8ad f9bc
00000160: ac66 ed3d 9d2a 40be 13bc 653d 7515 ec3c
00000170: 323d 22be 4773 40be 5c5d 803d 4254 953d
00000180: 6899 13be 2a6a 963d 8efc 383d 8735 823d
00000190: 261e 563c e61e 023e 4386 223d 3ea4 bc3d
000001a0: 3693 8e3d f113 35be b882 893d 1e2a 093d
000001b0: 6e17 b03c 46e0 0dbe 6b6a 043e 3e34 213d
000001c0: 899a 2d3d d1b4 30be 8c19 a3be c40d 3ebe
000001d0: a501 0b3e fbf0 3bbe 9fbd 6d3c a77d 943d
000001e0: e544 5bbe 2bb5 26be f6a5 a53d c4a8 823d
000001f0: 7514 083d 3e35 b1bd 83a8 23be 1b45 7d3d

network_body._body_endoder.seq_layers.0.bias f4 [64]
0.07821664 0.02198636 -0.09267704 -0.049255803 0.017661344 -0.03230511 0.0343596 0.11142914
0.0903929 -0.14850788 0.0922658 0.110230014 0.089849316 -0.1304503 0.09858338 0.036828764
0.0032636933 0.10598113 -0.13552116 -0.11607881 0.025592804 -0.015609733 0.09261946 -0.01332594
-0.07427765 0.0345285 -0.1006222 0.09228543 0.04770859 -0.06073596 0.009166288 0.005010687
0.06403088 -0.13715085 -0.0280576 0.010906276 0.08961024 0.060810503 -0.018952427 0.043176353
-0.06492935 0.024015179 0.003580968 -0.025755586 0.0014714608 -0.07322456 -0.039929092 -0.065835476
-0.030106034 0.06656723 -0.049097817 0.060892694 0.060278215 -0.025529908 -0.13470405 0.13434115
-0.05761003 0.0188226 -0.08381376 0.04837102 -0.02422477 0.041145295 -0.16285785 -0.11684611
00000000: 0c30 a03d bd1c b43c 76cd bdbd 74c0 49bd
00000010: 86ae 903c 5d52 04bd a7bc 0c3d f634 e43d
00000020: ea1f b93d 7312 18be daf5 bc3d 46c0 e13d
00000030: eb02 b83d c394 05be 15e6 c93d c2d9 163d
00000040: b0e3 553b a20c d93d 0fc6 0abe baba edbd
00000050: 00a8 d13c f7bf 7fbc 45af bd3d 0b55 5abc
00000060: e11e 98bd c26d 0d3d 0313 cebd 2500 bd3d
00000070: 156a 433d 45c6 78bd 332e 163c b030 a43b
00000080: 9f22 833d 4671 0cbe 0dd9 e5bc 3db0 323c
00000090: 9385 b73d 6f14 793d 1f42 9bbc b0d9 303d
000000a0: aef9 84bd 7bbb c43c acae 6a3b 61fd d2bc
000000b0: 08de c03a c2f6 95bd b08c 23bd c0d4 86bd
000000c0: eea0 f6bc 6654 883d cb1a 49bd 9e6a 793d
000000d0: 4ae6 763d 1924 d1bc dcef 09be ba90 093e
000000e0: 7ff8 6bbd da31 9a3c 8ca6 abbd b120 463d
000000f0: 0673 c6bc f887 283d 35c4 26be 034d efbd

network_body._body_endoder.seq_layers.0.weight f4 [64, 131]
0.0734288 -0.07028066 -0.0047403798 0.0798008 -0.083668746 -0.09116796 0.22594655 -0.01929533
0.025871662 -0.14297393 -0.17812349 -0.10251038 -0.009075029 -0.11595549 -0.06188723 0.00059823116
-0.11596253 0.0867455 -0.06629322 -0.116709106 0.08217079 -0.033534355 -0.05112283 -0.084365
0.13285856 -0.044659752 -0.0012237661 0.1112588 -0.03678666 0.13136873 0.058743197 0.13405761
0.089757614 0.036917515 0.0127422055 0.05399056 0.10362875 0.023598874 -0.11319756 0.01019672
-0.03473503 -0.051210605 0.01600059 -0.07920655 0.13515808 -0.23463109 -0.051175583 -0.06956435
-0.24618232 -0.14673103 -0.10466784 0.013780496 0.0205972 0.090110466 0.14125843 0.16129625
-0.04954777 0.13311386 0.020832466 -0.20469241 0.08154841 0.08667026 -0.050382532 0.09049557
0.22212513 0.31059352 0.12794347 0.09474621 -0.085370705 -0.13051708 0.0268389 0.10391969
-0.07804634 0.021689126 0.04715948 -0.09691248 0.2871174 0.10354904 -0.079498895 -0.053639743
0.08031181 -0.054983918 0.07104308 0.205314 0.07652416 -0.020469267 0.074769445 0.09805208
-0.1206244 -0.2752794 -0.017042631 0.14364477 -0.10177236 0.04141688 0.096641265 0.11525047
0.32951224 -0.08148881 -0.0889995 0.053675763 -0.25944322 0.009323137 -0.2501148 0.03354125
-0.020787382 0.09522129 0.22957681 0.19769579 -0.0072807344 0.2147934 -0.08351115 0.05834768
0.23603898 0.22027932 0.047343496 -0.10147698 0.13544652 -0.019513922 0.0051918244 -0.016936598
0.06889865 -0.02852241 -0.16093965 0.065134145 -0.10035087 0.37319878 0.057237506 0.11143227
0.14262627 0.014467695 -0.18134545 -0.1149203 -0.015692437 0.06033701 0.16930875 -0.06463897
-0.11216948 0.0009245493 0.0037673444 -0.008155377 0.11606925 -0.13276145 0.09867855 0.022651197
-0.045416176 -0.030729987 0.0004043823 -0.05321371 0.012565377 0.11676939 0.010958668 0.15389863
-0.021094622 0.021680467 0.028772453 -0.1771569 -0.005856704 0.031458363 -0.0010901522 0.0691913
0.047891986 -0.16687843 0.046140675 -0.0264092 -0.12604466 0.024079291 -0.037579726 -0.14265296
-0.08700433 -0.017235292 0.046537984 0.040275455 0.01924746 0.012451245 0.06608317 -0.021677805
-0.089416176 0.062279604 0.057366513 0.027715202 -0.05668394 0.25706673 0.041772965 0.04306629
0.13460983 -0.22526096 0.077536635 0.006557786 -0.051957384 -0.046489406 -0.24708253 -0.020300744
0.046838745 -0.058163222 0.0038001759 -0.032958653 0.19956635 -0.05594321 0.08334468 -0.104263574
-0.061125625 0.10655921 0.17923725 -0.008713924 0.047998257 0.027225874 -0.06043067 -0.07384782
-0.025592534 0.02916654 0.17327969 -0.08239087 -0.13286209 0.037507962 0.09109495 -0.19128191
-0.11365228 0.051226426 0.14184782 -0.104020335 -0.2171721 -0.052838806 -0.04878614 -0.12026166
0.04361549 -0.03570314 0.12390567 -0.09831562 0.0010964412 0.031842917 0.0055175787 0.042626925
0.027164448 -0.053360764 -0.0973789 0.06575632 0.034448396 0.01606104 0.18725486 -0.029006768
0.032253534 0.1195184 -0.06826907 0.13033271 0.08685939 -0.024282489 0.018582232 -0.08811234
-0.043732926 0.114191 0.050066978 -0.0012701055 0.129107 -0.24658498 0.32496697 -0.14790411
00000000: d761 963d 4fef 8fbd 3055 9bbb 9a6e a33d
00000010: 855a abbd 44b6 babd 885e 673e 3d11 9ebc
00000020: cff0 d33c c267 12be 0166 36be f6f0 d1bd
00000030: 6eaf 14bc 127a edbd 777d 7dbd 9dd2 1c3a
00000040: c37d edbd a0a7 b13d bdc4 87bd 2f05 efbd
00000050: 2949 a83d 525b 09bd 2c66 51bd 8fc7 acbd
00000060: 130c 083e 25ed 36bd c766 a0ba a7db e33d
00000070: 9cad 16bd 8685 063e b59c 703d 6646 093e
00000080: d7d2 b73d d236 173d afc4 503c 3525 5d3d
00000090: 4f3b d43d 6d52 c13c 1fd4 e7bd 2510 273c
000000a0: 5246 0ebd 36c2 51bd ab13 833c 0b37 a2bd
000000b0: e166 0a3e 2243 70be 7d9d 51bd c177 8ebd
000000c0: 3817 7cbe a940 16be 185c d6bd 97c7 613c
000000d0: 76bb a83c d68b b83d 0da6 103e d82a 253e
000000e0: 9af2 4abd 004f 083e d9a8 aa3c e39a 51be
000000f0: da02 a73d 2d80 b13d ea5d 4ebd be55 b93d
00000100: c574 633e 1d06 9f3e 9d03 033e 4d0a c23d
00000110: d6d6 aebd 45a6 05be 41dd db3c d9d3 d43d
00000120: c2d6 9fbd 65ad b13c 4d2a 413d 0d7a c6bd
00000130: 0d01 933e 8511 d43d 51d0 a2bd 59b5 5bbd
00000140: 857a a43d d136 61bd 097f 913d d53d 523e
00000150: b3b8 9c3d 2aaf a7bc b920 993d 87cf c83d
00000160: ed09 f7bd 6cf1 8cbe fd9c 8bbc 9d17 133e
00000170: 076e d0bd bfa4 293d dbeb c53d 7008 ec3d
00000180: d4b5 a83e 9be3 a6bd 5f45 b6bd 1edb 5b3d
00000190: bed5 84be 12c0 183c 0c0f 80be 8d62 093d
000001a0: 4d4a aabc 6103 c33d 2f16 6b3e c470 4a3e
000001b0: 3a93 eebb cdf2 5b3e e507 abbd fafd 6e3d
000001c0: 34b4 713e e790 613e 41eb 413d 2ad3 cfbd
000001d0: 7eb2 0a3e a9db 9fbc 2e20 aa3b 9fbe 8abc
000001e0: bc1a 8d3d d4a7 e9bc 5dcd 24be 0d65 853d
000001f0: c284 cdbd e913 bf3e e071 6a3d 9a36 e43d
00000200: 9f0c 123e e909 6d3c 9fb2 39be 565b ebbd
00000210: 6d8d 80bc f123 773d 465f 2d3e 7061 84bd
00000220: 1db9 e5bd 745d 723a 8de5 763b 219e 05bc
00000230: b7b5 ed3d 9ef2 07be fb17 ca3d 018f b93c
00000240: 5006 3abd 74bd fbbc 4603 d439 9ff6 59bd
00000250: 03df 4d3c ca24 ef3d fc8b 333c 9a97 1d3e
00000260: a1ce acbc 3c9b b13c 35b4 eb3c 9e68 35be
00000270: 98e9 bfbb 7cda 003d 70e3 8eba 2bb4 8d3d
00000280: 632a 443d 2ee2 2abe 01fe 3c3d 1b58 d8bc
00000290: da11 01be ef41 c53c 33ed 19bd 9e13 12be
000002a0: 532f b2bd 0731 8dbc 9d9e 3e3d e0f7 243d
000002b0: d9ac 9d3c 4f00 4c3c 9d56 873d a795 b1bc
000002c0: d41f b7bd e618 7f3d 26f9 6a3d fe0a e33c
000002d0: 6b2d 68bd 409e 833e 211a 2b3d 4766 303d
000002e0: 29d7 093e cfaa 66be 87cb 9e3d b2e2 d63b
000002f0: 44d1 54bd ad6b 3ebd 3403 7dbe bf4d a6bc
00000300: fcd9 3f3d 8f3c 6ebd 5f0c 793b a7ff 06bd
00000310: 1f5b 4c3e b524 65bd 9eb0 aa3d 2488 d5bd
00000320: dd5e 7abd b73b da3d f889 373e d9c4 0ebc
00000330: d299 443d cc08 df3c 2686 77bd 873d 97bd
00000340: 6fa7 d1bc abee ee3c 3b70 313e 8bbc a8bd
00000350: 000d 08be f3a1 193d fd8f ba3d 68df 43be
00000360: 87c2 e8bd cdd2 513d 8e40 113e 9d08 d5bd
00000370: 5d62 5ebe 816d 58bd fad3 47bd bf4b f6bd
00000380: 28a6 323d 753d 12bd 42c2 fd3d b359 c9bd
00000390: 76b6 8f3a b86d 023d cecc b43b 9299 2e3d
000003a0: fa87 de3c d190 5abd 976e c7bd 40ab 863d
000003b0: c319 0d3d 7192 833c bdbf 3f3e 9a9f edbc
000003c0: 481c 043d 10c6 f43d a7d0 8bbd f075 053e
000003d0: 56e3 b13d 12ec c6bc c439 983c 3e74 b4bd
000003e0: 4c21 33bd f9dc e93d 0813 4d3d ab79 a6ba
000003f0: a034 043e c680 7cbe 1262 a63e 2d74 17be

network_body._body_endoder.seq_layers.2.bias f4 [64]
-0.14433715 0.024401201 -0.116054125 0.11333698 -0.2254458 0.12953296 -0.074690096 -0.15563688
-0.10087522 -0.020055657 0.1717009 -0.17630135 0.06396326 0.043544736 0.048818257 -0.007452007
-0.08081035 -0.2249037 -0.05069745 0.0024270467 0.14224039 0.03175603 0.038079 -0.104197346
0.048483707 -0.16956772 0.09739343 0.0060438067 -0.17813128 -0.081900015 0.041330907 0.08854094
-0.12390263 0.057051513 0.08379023 0.0043074004 0.062685154 0.11904557 -0.075326376 0.14883439
0.03671235 -0.17432667 0.09199836 -0.047263354 0.101167925 -0.12013247 0.14868127 0.03532664
0.12300194 -0.058746498 -0.08043483 -0.044609547 0.1498198 -0.05977585 -0.010320057 0.040283553
-0.09574036 -0.15766203 -0.0010096069 0.13677439 0.08754346 -0.24951465 -0.14041004 0.14270839
00000000: 1ecd 13be 07e5 c73c c9ad edbd 381d e83d
00000010: 44db 66be 4aa4 043e 1ff7 98bd 465f 1fbe
00000020: ab97 cebd c34b a4bc 5cd2 2f3e 5788 34be
00000030: 2bff 823d f75b 323d a7f5 473d f72f f4bb
00000040: e67f a5bd 284d 66be 21a8 4fbd 160f 1f3b
00000050: 77a7 113e 9c12 023d baf8 1b3d 6b65 d5bd
00000060: da96 463d 29a3 2dbe 3576 c73d 200b c63b
00000070: 0c68 36be 32bb a7bd 994a 293d f454 b53d
00000080: a9c0 fdbd d9ae 693d 369a ab3d 1825 8d3b
00000090: 1361 803d 2ace f33d b744 9abd 0b68 183e
000000a0: b05f 163d b182 32be a369 bc3d 3897 41bd
000000b0: 2131 cf3d 0308 f6bd e73f 183e abb2 103d
000000c0: 71e8 fb3d 2ba0 70bd 04bb a4bd 80b8 36bd
000000d0: 5d6a 193e 86d7 74bd 7515 29bc 5e00 253d
000000e0: 8613 c4bd 2872 21be c954 84ba 960e 0c3e
000000f0: fc49 b33d c580 7fbe a6c7 0fbe 2622 123e

network_body._body_endoder.seq_layers.2.weight f4 [64, 64]
0.047170464 -0.14880231 -0.19845964 -0.09861795 -0.0355498 -0.31156635 -0.011668974 0.026807291
-0.14308652 0.24610753 -0.34027898 0.01630175 0.06396922 -0.18951346 -0.057546116 0.12503281
-0.06720708 -0.21361078 0.32959858 0.03731185 0.10245461 -0.058902197 0.23172744 -0.057889886
0.05366384 0.26708826 -0.04456797 -0.047582008 0.023440313 0.1802149 0.08214175 0.021015164
0.023635099 0.13631803 -0.24712427 0.08363811 -0.3036962 0.078673646 -0.16261648 -0.2470943
-0.030366095 -0.3592674 -0.089089654 0.17347996 0.005357508 -0.065067835 -0.057617016 0.054951355
-0.11145961 -0.17464797 -0.2890893 0.15585068 -0.16227561 -0.12253003 -0.035210833 -0.10106024
-0.23561537 -0.026779294 -0.05438855 -0.21490607 -0.27503377 -0.15807022 0.006006404 0.18160728
-0.15576056 -0.059495717 -0.19370224 0.07579508 -0.09988287 -0.04568808 -0.04520219 -0.28837603
0.0028593764 0.11374121 0.04607794 -0.11961337 0.036660146 -0.007788724 0.06420567 0.11606436
0.07249562 -0.020320024 -0.146306 0.1116882 0.15722342 0.05571051 -0.016461587 -0.1993548
0.055209294 0.15687104 -0.010410297 0.13066904 -0.4289187 -0.10790196 0.26876235 -0.014322777
0.22236997 -0.027411174 0.09830823 0.032757442 -0.35453147 0.1379154 -0.06347474 0.05204668
-0.37742007 0.07904308 -0.046923943 0.24234834 0.12032045 -0.12094631 -0.1676678 0.15279016
-0.043252513 0.13140622 -0.09740241 0.014243915 0.14560977 -0.040151037 0.03494963 0.18675444
0.002374457 0.10630267 0.12875871 0.026489593 -0.26505026 -0.2418667 -0.100945406 -0.118359014
0.008257644 -0.14693809 -0.014491801 -0.07494273 0.1753815 0.06311576 0.13500158 -0.30295
-0.38723746 0.10149387 -0.24735591 -0.35626665 -0.048397128 -0.035740793 0.13567562 0.04003858
-0.20034526 0.15796305 0.03002016 -0.07047553 -0.19329676 0.012398001 -0.16518904 0.03263686
0.22324347 0.095630296 -0.026889438 -0.08247079 0.25553083 0.12237832 -0.04222397 -0.31536445
-0.06232066 0.15752453 -0.121123426 -0.11996623 -0.045406874 -0.02830439 -0.17992018 -0.15855294
-0.17244117 -0.06564099 -0.08181967 -0.028707223 -0.139233 -0.07249479 0.038971495 -0.19894513
-0.13311951 -0.26829433 -0.044982173 -0.17970698 0.024696663 0.16964646 0.118134886 0.025899827
-0.2746381 -0.2184508 -0.11069949 -0.10225392 -0.12527984 -0.10166213 -0.138376 0.12214652
0.034586992 -0.16933227 -0.18762195 0.022416003 0.061503567 0.10607579 0.12082173 -0.020637387
-0.18216978 -0.14253019 0.10186213 -0.05142125 0.3551533 -0.014050386 0.10081459 -0.19554193
0.11300158 0.070186354 0.1385063 0.20016506 -0.059902523 -0.01181437 0.15101478 0.17139022
0.10523707 0.24882352 -0.05217627 0.1440118 -0.1419517 0.06710987 0.11999609 -0.21304375
-0.054408927 -0.14417438 -0.004999173 0.20305048 -0.038989704 0.006975874 -0.07483095 0.023658544
-0.33626485 0.1257441 0.0153970495 0.2535239 -0.17472069 0.20867911 0.11813041 -0.16251707
-0.079561345 -0.008982187 0.21907113 -0.0025919087 -0.023002055 0.15357788 -0.02624719 0.069209054
0.16074477 0.047505267 0.14910246 0.21186261 0.10314058 0.15970664 0.02675731 -0.062806636
00000000: d135 413d a25f 18be 0139 4bbe 35f8 c9bd
00000010: ab9c 11bd a085 9fbe 392f 3fbc f79a db3c
00000020: 4685 12be 9d03 7c3e 0c39 aebe 3f8b 853c
00000030: 4b02 833d d10f 42be 7ab5 6bbd 9a08 003e
00000040: dea3 89bd c9bc 5abe 25c1 a83e 4fd4 183d
00000050: b9d3 d13d 6e43 71bd f549 6d3e f21d 6dbd
00000060: 9dce 5b3d cbbf 883e e78c 36bd 5ae5 42bd
00000070: e605 c03c 418a 383e ef39 a83d fe27 ac3c
00000080: 659e c13c f496 0b3e 250e 7dbe 754a ab3d
00000090: 117e 9bbe a61f a13d ef84 26be 4a06 7dbe
000000a0: 51c2 f8bc e6f1 b7be a374 b6bd bba4 313e
000000b0: 098e af3b 4942 85bd d2ff 6bbd ac14 613d
000000c0: f044 e4bd ebd6 32be 8303 94be 5297 1f3e
000000d0: 942b 26be 06f1 fabd 3c39 10bd acf8 cebd
000000e0: 2845 71be 4060 dbbc 87c6 5ebd 5610 5cbe
000000f0: 3ad1 8cbe 29dd 21be 5ed1 c43b 42f7 393e
00000100: b27f 1fbe c8b1 73bd e159 46be 733a 9b3d
00000110: 648f ccbd 6d23 3bbd ee25 39bd 06a6 93be
00000120: 6064 3b3b 27f1 e83d 39bc 3c3d dbf7 f4bd
00000130: f328 163d 8d38 ffbb 437e 833d 27b3 ed3d
00000140: 9578 943d 2e76 a6bc 3dd1 15be c8bc e43d
00000150: 2dff 203e b430 643d 73da 86bc aa23 4cbe
00000160: 2423 623d cda2 203e f38f 2abc 1bce 053e
00000170: 3b9b dbbe b4fb dcbd 389b 893e 15aa 6abc
00000180: f4b4 633e 668d e0bc d355 c93d ab2c 063d
00000190: 2685 b5be b239 0d3e 0bff 81bd e62e 553d
000001a0: 343d c1be 57e1 a13d 5233 40bd 2a2a 783e
000001b0: 916a f63d b3b2 f7bd 1cb1 2bbe 0675 1c3e
000001c0: 8c29 31bd 5a8f 063e ea7a c7bd 4f5f 693c
000001d0: ba1a 153e 6a75 24bd 5827 0f3d 8e3c 3f3e
000001e0: c79c 1b3b 37b5 d93d 53d9 033e b400 d93c
000001f0: abb4 87be e7ab 77be 77bc cebd 3666 f2bd
00000200: 124b 073c f076 16be 056f 6dbc 937b 99bd
00000210: 3597 333e d642 813d db3d 0a3e 431c 9bbe
00000220: fd43 c6be 05dc cf3d de4a 7dbe 9568 b6be
00000230: 113c 46bd f064 12bd 8dee 0a3e 7eff 233d
00000240: 4f27 4dbe 11c1 213e d7ec f53c 7a55 90bd
00000250: 96ef 45be fc20 4b3c 5127 29be 3aae 053d
00000260: f099 643e d1d9 c33d 3d47 dcbc 72e6 a8bd
00000270: f0d4 823e 7ca1 fa3d 0bf3 2cbd 7377 a1be
00000280: f343 7fbd 1c4e 213e 8f0f f8bd dbb0 f5bd
00000290: 8ffc 39bd 9cde e7bc ff3c 38be b45b 22be
000002a0: 6b94 30be c96e 86bd 1291 a7bd 692b ebbc
000002b0: 1893 0ebe 2678 94bd 93a0 1f3d 46b8 4bbe
000002c0: 7b50 08be e05d 89be 3a3f 38bd 1b05 38be
000002d0: a850 ca3c cdb7 2d3e b4f0 f13d e02b d43c
000002e0: 5d9d 8cbe 91b1 5fbe 6ab6 e2bd 816a d1bd
000002f0: 5c49 00be 3c34 d0bd 70b2 0dbe f427 fa3d
00000300: 17ab 0d3d 7065 2dbe f81f 40be c4a1 b73c
00000310: 2aeb 7b3d 443e d93d 6271 f73d bd0f a9bc
00000320: b78a 3abe 6ff3 11be 189d d03d 179f 52bd
00000330: a7d6 b53e 9733 66bc e177 ce3d 253c 48be
00000340: 5f6d e73d ddbd 8f3d 98d4 0d3e 12f8 4c3e
00000350: 595c 75bd 0f91 41bc 9ea3 1a3e eb80 2f3e
00000360: 8886 d73d 98cb 7e3e c9b6 55bd d477 133e
00000370: c95b 11be e670 893d 83c0 f53d 2428 5abe
00000380: e5db 5ebd 73a2 13be 1ad0 a3bb 77ec 4f3e
00000390: abb3 1fbd df95 e43b f840 99bd 90cf c13c
000003a0: e82a acbe 10c3 003e e843 7c3c e2cd 813e
000003b0: fbe9 32be faaf 553e 5bee f13d e06a 26be
000003c0: 0ff1 a2bd 062a 13bc 2f54 603e 03dd 29bb
000003d0: ce6e bcbc 8543 1d3e 5904 d7bc 7abd 8d3d
000003e0: 479a 243e e294 423d 51ae 183e 83f2 583e
000003f0: 5e3b d33d 238a 233e 2532 db3c c4a0 80bd

network_body.observation_encoder.processors.0.normalizer.running_mean f4 [120]
0.04303717 0.0 0.0 0.0 0.7772021 0.8047358 0.08117346 0.0
0.0 0.0 0.73908305 0.7816027 0.03299068 0.0 0.0 0.0
0.78725773 0.80980104 0.09229353 0.0 0.0 0.0 0.72781163 0.7770331
0.041981086 0.0 0.0 0.0 0.7492172 0.7776768 0.04597832 0.0
0.0 0.0 0.8341817 0.8635795 0.08706631 0.0 0.0 0.0
0.79310477 0.83866644 0.035553344 0.0 0.0 0.0 0.84460706 0.8689227
0.09915729 0.0 0.0 0.0 0.78087413 0.8337455 0.04521533 0.0
0.0 0.0 0.8059541 0.83637017 0.04893056 0.0 0.0 0.0
0.89113116 0.9223955 0.092944525 0.0 0.0 0.0 0.8471438 0.895755
0.03810579 0.0 0.0 0.0 0.90196353 0.928079 0.10603434 0.0
0.0 0.0 0.8339261 0.8904684 0.048462808 0.0 0.0 0.0
0.86258763 0.8951881 0.051855065 0.0 0.0 0.0 0.9481254 0.98123616
0.098828055 0.0 0.0 0.0 0.90117633 0.95281965 0.04067287 0.0
0.0 0.0 0.95934504 0.9871865 0.11291596 0.0 0.0 0.0
0.88693744 0.94715667 0.051723264 0.0 0.0 0.0 0.9192732 0.9538735
00000000: be47 303d 0000 0000 0000 0000 0000 0000
00000010: b8f6 463f 2a03 4e3f 453e a63d 0000 0000
00000020: 0000 0000 0000 0000 8c34 3d3f 1d17 483f
00000030: 3c21 073d 0000 0000 0000 0000 0000 0000
00000040: b989 493f 1f4f 4f3f 6404 bd3d 0000 0000
00000050: 0000 0000 0000 0000 dd51 3a3f a4eb 463f
00000060: 5cf4 2b3d 0000 0000 0000 0000 0000 0000
00000070: b3cc 3f3f d415 473f c353 3c3d 0000 0000
00000080: 0000 0000 0000 0000 ef8c 553f 8c13 5d3f
00000090: d24f b23d 0000 0000 0000 0000 0000 0000
000000a0: ea08 4b3f d8b2 563f 62a0 113d 0000 0000
000000b0: 0000 0000 0000 0000 2b38 583f b871 5e3f
000000c0: fa12 cb3d 0000 0000 0000 0000 0000 0000
000000d0: 5ee7 473f 5870 553f b633 393d 0000 0000
000000e0: 0000 0000 0000 0000 0253 4e3f 5b1c 563f
000000f0: 696b 483d 0000 0000 0000 0000 0000 0000
00000100: 2c21 643f 1d22 6c3f b359 be3d 0000 0000
00000110: 0000 0000 0000 0000 6bde 583f 3350 653f
00000120: d114 1c3d 0000 0000 0000 0000 0000 0000
00000130: 15e7 663f 9696 6d3f 8828 d93d 0000 0000
00000140: 0000 0000 0000 0000 2e7c 553f bdf5 633f
00000150: f080 463d 0000 0000 0000 0000 0000 0000
00000160: 8bd2 5c3f 0c2b 653f fa65 543d 0000 0000
00000170: 0000 0000 0000 0000 59b8 723f 4b32 7b3f
00000180: 5d66 ca3d 0000 0000 0000 0000 0000 0000
00000190: 7eb3 663f fdeb 733f 9898 263d 0000 0000
000001a0: 0000 0000 0000 0000 a397 753f 41b8 7c3f
000001b0: 7c40 e73d 0000 0000 0000 0000 0000 0000
000001c0: 550e 633f dc78 723f c6db 533d 0000 0000
000001d0: 0000 0000 0000 0000 7d55 6b3f 0e31 743f

network_body.observation_encoder.processors.1.normalizer.running_mean f4 [11]
-3.0484881 91.5119 3.031895 0.0017159212 0.013977202 -0.046491776 0.010382937 -4.5548067
79.75345 0.015781812 0.020450018
00000000: 6e1a 43c0 1806 b742 910a 4240 c3e8 e03a
00000010: a200 653c 296e 3ebd 321d 2a3c fac0 91c0
00000020: c481 9f42 dc48 813c cc86 a73c
