results/Run00/OpponentML/OpponentML-3999965.onnx (onnx, 54547 bytes, 11 tensors)

60 f4 [120]
000000 44 49 4c 3e 93 12 03 3a 93 12 03 3a 93 12 03 3a
       0.19949824 0.0005000021 0.0005000021 0.0005000021
000010 0a 85 d4 3e 71 b6 c6 3e 8f ec 88 3e 93 12 03 3a
       0.4150775 0.38811067 0.2674298 0.0005000021
000020 93 12 03 3a 93 12 03 3a f3 d2 df 3e e6 06 cb 3e
       0.0005000021 0.0005000021 0.4371563 0.396537
000030 5b 37 31 3e 93 12 03 3a 93 12 03 3a 93 12 03 3a
       0.17306273 0.0005000021 0.0005000021 0.0005000021
000040 72 d9 d0 3e d5 31 c6 3e 67 17 92 3e 93 12 03 3a
       0.40790898 0.38709894 0.2853348 0.0005000021
000050 93 12 03 3a 93 12 03 3a ee 1e e3 3e b5 5c cb 3e
       0.0005000021 0.0005000021 0.44359535 0.39719167
000060 03 b9 46 3e 93 12 03 3a 93 12 03 3a 93 12 03 3a
       0.19406514 0.0005000021 0.0005000021 0.0005000021
000070 b6 16 dd 3e e8 85 cf 3e ee d8 52 3e 93 12 03 3a
       0.4318139 0.4053185 0.20590565 0.0005000021
000080 93 12 03 3a 93 12 03 3a 85 ae bd 3e 44 63 aa 3e
       0.0005000021 0.0005000021 0.3704721 0.3327886
000090 8a 61 8d 3e 93 12 03 3a 93 12 03 3a 93 12 03 3a
       0.2761348 0.0005000021 0.0005000021 0.0005000021
0000a0 bd f2 cd 3e 8e cc b1 3e dc bb 37 3e 93 12 03 3a
       0.40224257 0.34726375 0.17942756 0.0005000021
0000b0 93 12 03 3a 93 12 03 3a 7c 65 b8 3e c5 42 a9 3e
       0.0005000021 0.0005000021 0.36014926 0.33058754
0000c0 2b e2 96 3e 93 12 03 3a 93 12 03 3a 93 12 03 3a
       0.29469427 0.0005000021 0.0005000021 0.0005000021
0000d0 1a b9 d2 3e 21 a2 b2 3e f1 ea 4d 3e 93 12 03 3a
       0.41156846 0.3488932 0.20109154 0.0005000021
0000e0 93 12 03 3a 93 12 03 3a 8c 48 c9 3e 54 d7 b6 3e
       0.0005000021 0.0005000021 0.3931316 0.35711157
0000f0 58 2c 59 3e 93 12 03 3a 93 12 03 3a 93 12 03 3a
       0.21208322 0.0005000021 0.0005000021 0.0005000021
000100 fd 58 9e 3e 31 84 81 3e d1 a0 91 3e 93 12 03 3a
       0.30927268 0.25296167 0.28443006 0.0005000021
000110 93 12 03 3a 93 12 03 3a 2a 2c b6 3e a2 65 8e 3e
       0.0005000021 0.0005000021 0.3558057 0.27811915
000120 1a f6 3d 3e 93 12 03 3a 93 12 03 3a 93 12 03 3a
       0.18550912 0.0005000021 0.0005000021 0.0005000021
000130 8c 90 96 3e 1e 76 7e 3e 16 75 9b 3e 93 12 03 3a
       0.29407156 0.24849746 0.30362767 0.0005000021
000140 93 12 03 3a 93 12 03 3a c4 02 bd 3e c8 1f 90 3e
       0.0005000021 0.0005000021 0.36916173 0.28149247
000150 85 da 54 3e 93 12 03 3a 93 12 03 3a 93 12 03 3a
       0.20786484 0.0005000021 0.0005000021 0.0005000021
000160 b4 83 ae 3e 84 3c 94 3e 9f 39 5f 3e 93 12 03 3a
       0.34084857 0.2895242 0.21799324 0.0005000021
000170 93 12 03 3a 93 12 03 3a db 39 5f 3e ed 6e cf 3d
       0.0005000021 0.0005000021 0.21799414 0.10128579
000180 47 b1 95 3e 93 12 03 3a 93 12 03 3a 93 12 03 3a
       0.29236814 0.0005000021 0.0005000021 0.0005000021
000190 59 b1 95 3e 48 0a 2a 3e d2 fb 43 3e 93 12 03 3a
       0.29236868 0.16605484 0.1913903 0.0005000021
0001a0 93 12 03 3a 93 12 03 3a 52 fc 43 3e fd cb ad 3d
       0.0005000021 0.0005000021 0.19139221 0.08486173
0001b0 b3 d3 9f 3e 93 12 03 3a 93 12 03 3a 93 12 03 3a
       0.312162 0.0005000021 0.0005000021 0.0005000021
0001c0 46 e5 9f 3e 3c 0f 32 3e 02 8b 5b 3e 93 12 03 3a
       0.3122961 0.17388624 0.21439746 0.0005000021
0001d0 93 12 03 3a 93 12 03 3a be c2 88 3e c0 50 3a 3e
       0.0005000021 0.0005000021 0.26711076 0.18194866

63 f4 [11]
000000 be 98 ff 42 62 81 87 42 39 49 fe 42 20 90 fa 3e
       127.798325 67.7527 127.14301 0.48938084
000010 57 b1 01 3f 30 e2 01 3f 6e eb fc 3e 1d 0a 0d 43
       0.50661224 0.5073576 0.4939837 141.0395
000020 bb ff 5e 42 a1 6b 0c 43 46 5a 17 3f
       55.749737 140.42043 0.5912212

action_model._continuous_distribution.log_sigma f4 [1, 2]
000000 c8 19 23 bf 5e db 35 bf
       -0.63711214 -0.7103785

action_model._continuous_distribution.mu.bias f4 [2]
000000 03 7f 03 3d 5b 24 5a 3e
       0.03210355 0.21302931

action_model._continuous_distribution.mu.weight f4 [2, 64]
000000 ba 2d b9 bd bd 10 96 3d c5 4c b5 bd fc 3c 7e 3d
       -0.09041925 0.07327411 -0.08852533 0.062069878
000010 db 5e 29 bd 57 67 bc 3d e5 6a fa bd 86 51 ca bd
       -0.041350227 0.09199398 -0.1222742 -0.098788306
000020 3c d7 72 be ad a2 af 3d 29 61 82 3d af 0d e1 bd
       -0.23714918 0.0857595 0.06366188 -0.10988938
000030 30 f9 39 3e 66 95 17 3c bf 33 82 3c e9 78 ff 3d
       0.18161464 0.009251928 0.015893815 0.12474234
000040 e8 61 86 bd 13 5b 5e bd 05 6c 9f bd d8 23 f6 bd
       -0.06561643 -0.054286074 -0.07784275 -0.120185554
000050 b3 21 d7 bb 65 71 06 3d 1d fc 9c bd 10 00 b2 bd
       -0.0065652966 0.032822985 -0.07665274 -0.08691418
000060 91 ad f6 bd 1b 80 b9 bd a8 d9 87 3d b5 d0 b4 3d
       -0.12044824 -0.09057637 0.066333115 0.0882887
000070 80 55 97 bd ab 60 0a bc 72 38 d9 bd 03 93 45 3d
       -0.07389355 -0.008445899 -0.10606469 0.048235904
000080 cb 93 a9 3c 46 6f 1d bd cb 2d cc 3d 51 fc 00 be
       0.020700356 -0.038436197 0.09969672 -0.12596251
000090 87 f3 4f 3b c5 aa 30 bc 16 93 b4 bc 04 b4 e1 3d
       0.0031730847 -0.010782902 -0.022042792 0.110206634
0000a0 4d 57 ce bd 22 f9 cd bd b9 05 0b 38 99 ce c0 3d
       -0.10075245 -0.10057284 3.3145512e-05 0.094144054
0000b0 d6 39 f1 3b 8f 86 08 bc 95 d4 85 3c 97 e9 25 bd
       0.007361631 -0.0083328625 0.016336719 -0.04050597
0000c0 cf b4 06 3e b0 6e 6c bd 95 58 74 bd 2a 48 18 be
       0.1315491 -0.057722747 -0.05965479 -0.14871278
0000d0 24 9c c4 3d b1 f0 16 3d 31 c6 a6 3d f9 95 80 bd
       0.09600094 0.036850635 0.08143271 -0.06278605
0000e0 74 19 aa bc 43 80 47 bd 80 eb 56 be 0d f9 0e 3c
       -0.02076409 -0.048706304 -0.20988274 0.0087263705
0000f0 64 bb 1e 3d 4f ff a6 bd 48 fb a3 bc 05 78 fe 3d
       0.03875293 -0.08154165 -0.020017281 0.12425236
000100 e2 54 f0 bc a5 31 5d 3d 64 ed 3b bd 99 10 e3 3c
       -0.02933735 0.054002423 -0.04588069 0.027717875
000110 c3 7c f5 bd 18 e2 70 3d 7c 54 81 bd b9 9e 2f be
       -0.11986687 0.05880937 -0.06314942 -0.17150392
000120 b5 14 ee bd 64 a4 8b 3b 94 11 10 3e d9 db 05 be
       -0.11625043 0.0042615402 0.14069206 -0.13072146
000130 33 35 d0 3d 10 a0 8c 3d 2d f3 4c 3c d6 28 36 bc
       0.10166397 0.06866467 0.0125091495 -0.0111181345
000140 d7 6e a1 3c 48 0b 41 bd ca 1f e6 bd c9 11 ca 3c
       0.019706173 -0.0471299 -0.11236532 0.024666684
000150 ef 98 34 3e ba a5 a8 3d 6c 6f fe 3d 63 00 27 bd
       0.17636465 0.08234735 0.12423596 -0.040771853
000160 04 26 ea 3d 6b 4b 3f be 27 8f 39 3d 62 e6 f6 3c
       0.11433032 -0.18681113 0.045302536 0.030139152
000170 93 93 21 be 55 12 45 be a3 de 61 3d 93 e3 8d 3d
       -0.15778951 -0.19245274 0.055143964 0.06928172
000180 03 88 19 be a4 e3 91 3d 6e 9e eb 3c b9 2d 8f 3d
       -0.1499329 0.07123497 0.028762069 0.06991143
000190 28 be d3 3c 0d 16 01 3e c4 c2 0c 3d a6 98 ac 3d
       0.02584751 0.12606068 0.03436543 0.08427553
0001a0 42 10 96 3d 96 e5 36 be e5 bd 8f 3d 76 9d 45 3c
       0.0732732 -0.17861018 0.070186414 0.012061467
0001b0 2d d8 88 3c 47 d7 07 be 7a 67 06 3e 76 ad 10 3d
       0.016704643 -0.13265716 0.1312541 0.035321675
0001c0 e2 f2 23 3d 2e b6 31 be 77 7d aa be 21 39 3c be
       0.040026553 -0.17354652 -0.33298847 -0.18381168
0001d0 ec ec 01 3e 5f bb 3e be 61 e5 ea 3b 87 94 a5 3d
       0.12688035 -0.18626164 0.0071684574 0.0808497
0001e0 6c c7 64 be 4a 90 28 be b3 f2 ab 3d 2e 7c 62 3d
       -0.22341698 -0.16461292 0.083959006 0.05529421
0001f0 f2 81 ec 3c ad a8 a4 bd cd cc 31 be 0a 1c 7d 3d
       0.028870557 -0.08039985 -0.17363282 0.06179432

network_body._body_endoder.seq_layers.0.bias f4 [64]
000000 d9 14 99 3d 94 57 a6 3c 44 cf c2 bd a2 2a 76 bd
       0.074746795 0.020305432 -0.09512189 -0.06009925
000010 98 55 dd 3c 81 3d 2e bd 9b 86 fb 3c 3d aa e4 3d
       0.027018353 -0.042539123 0.030703833 0.11165283
000020 2b 3a bf 3d 23 94 23 be d6 8a c3 3d d7 6d ed 3d
       0.093372665 -0.15974478 0.09547965 0.11593216
000030 c6 d7 ac 3d dd 09 0c be 45 3a ce 3d a4 00 42 3d
       0.08439593 -0.13675638 0.10069708 0.047363892
000040 23 54 2e 3b 84 51 e6 3d 60 dc f1 bd 9b 8b ee bd
       0.0026600442 0.112460166 -0.11809611 -0.116477214
000050 94 c5 d9 3c 0c 03 25 bc a4 a5 c7 3d 16 b6 0a 3b
       0.02658347 -0.010071527 0.0974839 0.002116566
000060 38 0d 95 bd 1b 0f 0d 3d b3 48 d5 bd 30 c6 af 3d
       -0.07277912 0.034438234 -0.10414257 0.08582723
000070 04 fd 33 3d 3c 32 62 bd d2 30 2c 3c b5 9d d0 3b
       0.043942466 -0.05522369 0.010509687 0.0063664564
000080 64 f9 82 3d 24 c2 0b be 86 b7 c0 bc a4 d3 b1 3b
       0.06395224 -0.13648278 -0.02352501 0.005426841
000090 b9 37 ac 3d c1 d2 6c 3d 23 78 84 bc ae 21 37 3d
       0.08409066 0.057818178 -0.016170567 0.044709854
0000a0 13 99 84 bd 39 38 ae 3c e8 95 28 3c 6a e6 a5 bc
       -0.06474509 0.021267043 0.010289647 -0.020251472
0000b0 ba fd 20 3a 41 3f 94 bd 59 ee 43 bd 7f 8f 87 bd
       0.0006141324 -0.07238627 -0.047834728 -0.066191666
0000c0 bc 01 e9 bc a4 ec 7f 3d b2 59 37 bd bf 35 7c 3d
       -0.02844321 0.062481537 -0.044763274 0.061574694
0000d0 44 dc 79 3d 0a 6e eb bc e1 7c fc bd c0 a4 05 3e
       0.061001077 -0.028738994 -0.12328506 0.13051128
0000e0 db e5 81 bd 5d f8 d2 3c 57 4f 9b bd 3b f8 31 3d
       -0.063426696 0.025753194 -0.07583492 0.04344962
0000f0 6b a1 1d bd 19 85 15 3d 23 ad 2a be d9 52 db bd
       -0.03848402 0.036503885 -0.16667609 -0.10709161

network_body._body_endoder.seq_layers.0.weight f4 [64, 131]
000000 8a bc 8a 3d 4f ef 8f bd 30 55 9b bb 9a 6e a3 3d
       0.06774242 -0.07028066 -0.0047403798 0.0798008
000010 29 1f 97 bd e3 1b ab bd b5 fa 6c 3e 3d 11 9e bc
       -0.0737899 -0.08354928 0.23142512 -0.01929533
000020 cf f0 d3 3c c2 67 12 be 71 00 35 be 32 b0 c5 bd
       0.025871662 -0.14297393 -0.1767595 -0.09652747
000030 d2 b6 bb bb 12 7a ed bd 77 7d 7d bd 9d d2 1c 3a
       -0.005728581 -0.11595549 -0.06188723 0.00059823116
000040 b5 c2 df bd 2d d2 c1 3d a3 88 71 bd 2f 05 ef bd
       -0.10925809 0.09463916 -0.058968198 -0.116709106
000050 29 49 a8 3d 52 5b 09 bd fd 4a 4a bd b9 a7 9e bd
       0.08217079 -0.033534355 -0.04938792 -0.07746834
000060 22 e4 15 3e 25 ed 36 bd c7 66 a0 ba a7 db e3 3d
       0.14637807 -0.044659752 -0.0012237661 0.1112588
000070 1c 9e 16 bd 21 09 0c 3e 0c 03 40 3d 66 46 09 3e
       -0.03677188 0.13675357 0.046877906 0.13405761
000080 d7 d2 b7 3d d2 36 17 3d e5 e7 b0 3c 8d 77 71 3d
       0.089757614 0.036917515 0.02159495 0.058951903
000090 75 56 d0 3d 6d 52 c1 3c 1f d4 e7 bd 25 10 27 3c
       0.1017274 0.023598874 -0.11319756 0.01019672
0000a0 ad 64 04 bd 7c f3 41 bd 03 01 3d 3a 0b 37 a2 bd
       -0.032322574 -0.047351345 0.00072099286 -0.07920655
0000b0 e1 66 0a 3e 22 43 70 be 0b e0 32 bd 15 a3 86 bd
       0.13515808 -0.23463109 -0.043670695 -0.06574074
0000c0 9f d3 7a be a9 40 16 be 18 5c d6 bd 97 c7 61 3c
       -0.2449479 -0.14673103 -0.10466784 0.013780496
0000d0 3e de ae 3c ee e9 c0 3d 37 65 1a 3e d8 2a 25 3e
       0.021346208 0.094196185 0.15077673 0.16129625
0000e0 9a f2 4a bd 00 4f 08 3e 77 37 b2 3c a3 c9 4d be
       -0.04954777 0.13311386 0.021754963 -0.2009645
0000f0 ba 64 9f 3d 2d 80 b1 3d ea 5d 4e bd be 55 b9 3d
       0.07782884 0.08667026 -0.050382532 0.09049557
000100 17 03 66 3e a5 b5 9e 3e 30 29 f6 3d 4d 0a c2 3d
       0.22462116 0.3099796 0.12019575 0.09474621
000110 d6 d6 ae bd 45 a6 05 be 3d 5e 0a 3d de 4f ca 3d
       -0.085370705 -0.13051708 0.03378128 0.09878515
000120 6e 0f 9b bd 65 ad b1 3c 4d 2a 41 3d 0d 7a c6 bd
       -0.07571302 0.021689126 0.04715948 -0.09691248
000130 59 91 91 3e b9 19 c9 3d c5 46 92 bd 59 b5 5b bd
       0.28431204 0.09819359 -0.071424045 -0.053639743
000140 85 7a a4 3d d1 36 61 bd bd 59 80 3d f0 d5 4b 3e
       0.08031181 -0.054983918 0.06267116 0.1990583
000150 63 72 c7 3d 2a af a7 bc b9 20 99 3d 87 cf c8 3d
       0.097386144 -0.020469267 0.074769445 0.09805208
000160 24 5a 0e be 98 f0 92 be e0 04 dd bc 9d 17 13 3e
       -0.13901573 -0.28699183 -0.026979864 0.14364477
000170 07 6e d0 bd bf a4 29 3d c1 45 da 3d a9 ce fa 3d
       -0.10177236 0.04141688 0.10657836 0.122464485
000180 e9 79 a6 3e 9b e3 a6 bd 5f 45 b6 bd 1e db 5b 3d
       0.32514885 -0.08148881 -0.0889995 0.053675763
000190 d6 99 82 be 19 ca c7 3b 7f e1 83 be 8d 62 09 3d
       -0.25507993 0.00609709 -0.25757977 0.03354125
0001a0 4d 4a aa bc 61 03 c3 3d 8e bb 72 3e ee 43 50 3e
       -0.020787382 0.09522129 0.23704359 0.20338413
0001b0 52 6a 0e 3c cd f2 5b 3e e5 07 ab bd fa fd 6e 3d
       0.008692341 0.2147934 -0.08351115 0.05834768
0001c0 a5 7b 61 3e 11 af 59 3e 77 a3 83 3d 2a d3 cf bd
       0.22019823 0.21258189 0.06427663 -0.10147698
0001d0 7e b2 0a 3e a9 db 9f bc 55 1a 43 bc ea f4 c7 bc
       0.13544652 -0.019513922 -0.0119081335 -0.024408776
0001e0 2c c4 92 3d 5f 6e b2 bc 47 c7 28 be 82 62 80 3d
       0.07166323 -0.021781145 -0.16482268 0.06268789
0001f0 ab 49 bc bd d3 a3 b6 3e 18 a8 33 3d 37 5c 00 3e
       -0.091937385 0.35671863 0.04386148 0.12535177
000200 2e 97 13 3e a6 9d 83 3c 68 68 35 be 31 fc 00 be
       0.14413139 0.016066384 -0.17715609 -0.12596203
000210 6d 8d 80 bc f1 23 77 3d 46 5f 2d 3e 2c 19 53 bd
       -0.015692437 0.06033701 0.16930875 -0.051537678
000220 b0 9a cd bd c9 4e 32 bb 8d e5 76 3b 21 9e 05 bc
       -0.1003927 -0.0027207604 0.0037673444 -0.008155377
000230 b7 b5 ed 3d 4f dc f6 bd 44 de e2 3d 32 b1 ca 3c
       0.11606925 -0.12053739 0.1107755 0.024742696
000240 50 06 3a bd 74 bd fb bc 46 03 d4 39 40 9f 2a bd
       -0.045416176 -0.030729987 0.0004043823 -0.04165578
000250 7f ba c8 3c f7 e7 07 3e fc 8b 33 3c 9a 97 1d 3e
       0.02450299 0.13272081 0.010958668 0.15389863
000260 a1 ce ac bc 44 6c c2 3c 8f 75 1f 3d ac 20 38 be
       -0.021094622 0.023733266 0.038930472 -0.17981213
000270 98 e9 bf bb 7c da 00 3d 70 e3 8e ba 94 51 a5 3d
       -0.005856704 0.031458363 -0.0010901522 0.080722004
000280 0f fa 71 3d e8 f1 32 be 01 fe 3c 3d 1b 58 d8 bc
       0.059076365 -0.17475092 0.046140675 -0.0264092
000290 da 11 01 be 12 3d 0e 3d bd 3b e5 bc aa be 0f be
       -0.12604466 0.03472621 -0.027982587 -0.14037576
0002a0 53 2f b2 bd 07 31 8d bc 9d 9e 3e 3d b1 64 45 3d
       -0.08700433 -0.017235292 0.046537984 0.04819173
0002b0 bb f9 e5 3c a6 2a 98 3c 9d 56 87 3d a7 95 b1 bc
       0.028073182 0.018575024 0.06608317 -0.021677805
0002c0 d4 1f b7 bd 7d bf 90 3d f1 20 88 3d f6 b6 06 3d
       -0.089416176 0.070677735 0.06646908 0.03288933
0002d0 6b 2d 68 bd 40 9e 83 3e 21 1a 2b 3d d5 d5 3d 3d
       -0.05668394 0.25706673 0.041772965 0.046346504
0002e0 f7 b5 11 3e c2 52 6d be 87 cb 9e 3d b2 e2 d6 3b
       0.1422957 -0.23176101 0.077536635 0.006557786
0002f0 44 d1 54 bd 04 d3 0e bd 8a 1b 72 be 31 8f cc bc
       -0.051957384 -0.03486921 -0.23643318 -0.024970623
000300 fc d9 3f 3d 8f 3c 6e bd 5f 0c 79 3b 07 a8 f0 bc
       0.046838745 -0.058163222 0.0038001759 -0.029376997
000310 c8 c5 4e 3e b3 c6 56 bd 9e b0 aa 3d 24 88 d5 bd
       0.20192635 -0.052435588 0.08334468 -0.104263574
000320 dd 5e 7a bd 95 cf d7 3d 98 a1 38 3e 51 9e 9d bc
       -0.061125625 0.1053764 0.18030393 -0.01924053
000330 d2 99 44 3d cc 08 df 3c 26 86 77 bd f9 a4 87 bd
       0.047998257 0.027225874 -0.06043067 -0.06623263
000340 1f 44 c6 bc 74 22 2b 3d 3b 70 31 3e 8b bc a8 bd
       -0.024202405 0.041780904 0.17327969 -0.08239087
000350 00 0d 08 be 47 0f dd 3c 83 65 aa 3d 5b 7b 42 be
       -0.13286209 0.026984824 0.08320143 -0.18992369
000360 87 c2 e8 bd cd d2 51 3d 8e 40 11 3e 6a 26 d3 bd
       -0.11365228 0.051226426 0.14184782 -0.10310061
000370 5f 72 5c be 3d 0c 7a bd fa d3 47 bd bf 4b f6 bd
       -0.21528004 -0.061046828 -0.04878614 -0.12026166
000380 28 a6 32 3d c2 3d e1 bc f2 d5 01 3e d8 f8 c6 bd
       0.04361549 -0.027495269 0.1267927 -0.09715432
000390 76 b6 8f 3a b8 6d 02 3d ce cc b4 3b 72 d8 29 3d
       0.0010964412 0.031842917 0.0055175787 0.041466184
0003a0 3a 4c d8 3c 54 de 86 bd 97 6e c7 bd 40 ab 86 3d
       0.026403535 -0.065853745 -0.0973789 0.06575632
0003b0 c3 19 0d 3d df ee e9 3c 20 69 3e 3e ab 26 34 bc
       0.034448396 0.028556285 0.1859479 -0.010995547
0003c0 48 1c 04 3d 10 c6 f4 3d a7 d0 8b bd f6 5b e6 3d
       0.032253534 0.1195184 -0.06826907 0.11248009
0003d0 a7 86 89 3d c8 82 0c bd c4 39 98 3c 3e 74 b4 bd
       0.06715136 -0.03430441 0.018582232 -0.08811234
0003e0 4c 21 33 bd 36 33 fa 3d 26 79 6e 3d 60 dc ef bb
       -0.043732926 0.12216799 0.058221005 -0.007319972
0003f0 80 a3 20 3e 85 b9 86 be a4 8a ab 3e 31 f9 1a be
       0.1568737 -0.26313415 0.33504212 -0.15134121

network_body._body_endoder.seq_layers.2.bias f4 [64]
000000 b4 65 11 be da f0 d5 3c 60 4c 01 be b0 bb ee 3d
       -0.14198953 0.026115824 -0.12626791 0.11656892
000010 40 53 72 be a2 31 05 3e e1 bf 93 bd 39 1c 1c be
       -0.2366457 0.13007215 -0.07214332 -0.15245141
000020 87 cf d1 bd 11 6a 16 bd 2e 08 32 3e 90 ff 3d be
       -0.10244661 -0.036722247 0.17385933 -0.1855452
000030 ad 55 8c 3d c6 4a 30 3d e3 29 3a 3d 45 ea aa bc
       0.06852279 0.04304006 0.045450103 -0.020863662
000040 b0 b8 b5 bd 85 ef 6f be f6 ab 30 bd f9 41 2b bc
       -0.08873117 -0.23431213 -0.043132745 -0.010452741
000050 cb 44 10 3e 09 29 da 3c 89 7d 6f 3d 0c af e5 bd
       0.14088742 0.026630895 0.05846933 -0.11215028
000060 0d 36 6c 3d 42 ea 2b be bd 85 cc 3d 2f 4a 0d 3c
       0.057668734 -0.16788581 0.09986446 0.008623644
000070 b5 60 41 be c5 0e 98 bd f1 80 41 3d a8 fc b4 3d
       -0.18884547 -0.07424692 0.04724211 0.08837253
000080 2b fa f6 bd 7a d5 8a 3d 74 7f b9 3d 5b cf 83 3c
       -0.120594345 0.06778999 0.09057513 0.016090086
000090 e2 cb 69 3d ca d8 e6 3d e1 fc ad bd 61 79 15 3e
       0.057079203 0.11271818 -0.084954984 0.14597084
0000a0 43 6e 03 3d 0f d1 29 be eb e8 bc 3d f1 33 10 bd
       0.032087576 -0.16583656 0.09224113 -0.035205785
0000b0 d0 9e c1 3d 99 db f3 bd 59 e7 15 3e 80 21 04 3d
       0.09454119 -0.11907119 0.14639033 0.03225851
0000c0 92 7a fd 3d 9c 12 8c bd 7d 2c 98 bd f2 54 49 bd
       0.12376894 -0.06839487 -0.074303605 -0.049153276
0000d0 6b ca 18 3e e2 b8 4f bd 13 28 88 bb f6 34 6d 3d
       0.14920966 -0.050713427 -0.004155168 0.057911836
0000e0 38 c9 b7 bd b4 44 1f be ea e3 80 3c c5 95 06 3e
       -0.08973926 -0.15553552 0.015733678 0.1314307
0000f0 20 c6 b3 3d 76 60 84 be a3 93 08 be ea ea 14 3e
       0.08778024 -0.25854844 -0.13337569 0.14542738

network_body._body_endoder.seq_layers.2.weight f4 [64, 64]
000000 aa c6 5f 3d 22 8c 11 be 81 3f 32 be 12 bc b3 bd
       0.05463282 -0.14213613 -0.17407037 -0.08776106
000010 37 2e 26 bd 73 26 a3 be 17 c2 41 bc 31 aa ef 3c
       -0.040571418 -0.31865272 -0.01182606 0.029255958
000020 af 37 08 be ea d3 88 3e a3 a3 b4 be 4d 2e b5 3c
       -0.13302492 0.26724178 -0.35281095 0.022116804
000030 82 26 84 3d 6a b9 4d be 55 cc 86 bd 83 67 fb 3d
       0.06452657 -0.20090261 -0.06581942 0.12275603
000040 d9 c9 71 bd d5 18 5e be b5 10 a8 3e 89 91 7a 3b
       -0.059030388 -0.2168916 0.32825246 0.0038233718
000050 9b ab d1 3d ce f7 88 bd 62 ca 67 3e cc 68 59 bd
       0.10237809 -0.0668789 0.22635797 -0.053078458
000060 0b 3e 62 3d e7 2a 91 3e 33 87 62 bd c3 1b 18 bd
       0.05523495 0.28353044 -0.055304717 -0.03713585
000070 b8 ea 72 3c 89 f3 40 3e 89 27 a6 3d ad cd cc 3c
       0.014826469 0.18842901 0.081130095 0.025000418
000080 61 7e 91 3c 42 c6 0d 3e 6a 8f 84 be e4 3e 90 3d
       0.017760457 0.1384516 -0.25890666 0.070432454
000090 c8 8f 9b be 08 24 a4 3d 43 17 26 be 78 da 77 be
       -0.30383134 0.08014685 -0.16219811 -0.24204433
0000a0 df b9 62 bd 34 6e b7 be bf 2b c4 bd 87 6c 3d 3e
       -0.05535304 -0.35826266 -0.095786564 0.18498431
0000b0 46 12 00 bc 27 16 af bd 8d 31 96 bd bc 26 66 3d
       -0.007816857 -0.08549147 -0.0733367 0.056189284
0000c0 35 f9 d4 bd 79 cf 2c be e2 ae 99 be 10 5d 23 3e
       -0.10399095 -0.1687602 -0.30016237 0.1595347
0000d0 40 cd 25 be 1c 1b 01 be e1 b5 2a bd c6 fd bd bd
       -0.16191578 -0.12607998 -0.04167736 -0.09276919
0000e0 60 26 75 be 01 6b c9 bc bb f7 5c bd e5 78 5c be
       -0.2394042 -0.024587156 -0.05394719 -0.21530493
0000f0 ae 25 8a be 93 1e 2c be e5 bf 6f bb 6e c2 2e 3e
       -0.26981872 -0.16808538 -0.0036582884 0.17066357
000100 b8 2f 2f be a6 eb 7b bd 9e a7 48 be 00 b7 88 3d
       -0.17108047 -0.06150403 -0.19595191 0.066755295
000110 93 87 d5 bd 03 0b 14 bd 9d 13 3b bd 39 c6 95 be
       -0.10426249 -0.036143314 -0.045673 -0.29252794
000120 db d4 6c 3a fc b5 da 3d 61 89 42 3d a0 c4 00 be
       0.00090344035 0.10679242 0.047494296 -0.12575006
000130 1c 97 b8 3c ae c8 0d b9 1c d9 83 3d a6 64 ed 3d
       0.022532992 -0.00013521567 0.06437895 0.11591463
000140 fe 8b ab 3d 98 8f a6 bc 31 9a 10 be cc 92 f6 3d
       0.08376311 -0.020332143 -0.1412132 0.12039718
000150 b5 63 19 3e 5f 05 80 3d e7 29 de bc 0e dc 51 be
       0.14979441 0.062510245 -0.02711959 -0.204941
000160 f6 57 31 3d 9c c5 22 3e cb 79 4c bc a4 3a 06 3e
       0.043296777 0.15895694 -0.01248021 0.13108307
000170 ae 83 e1 be 91 59 e7 bd 0a 97 8b 3e c7 64 a2 bc
       -0.44045776 -0.1129638 0.2726367 -0.019823445
000180 7e 18 66 3e 3b e8 04 bd 22 df cf 3d 6f e7 d2 3c
       0.2247028 -0.032448035 0.10149981 0.025745122
000190 34 6c b7 be f3 07 00 3e fc c6 74 bd 19 09 5b 3d
       -0.3582474 0.12503032 -0.05976008 0.053475473
0001a0 01 45 b4 be eb a3 9b 3d df 8b 5d bd c9 ce 7e 3e
       -0.35208896 0.07599624 -0.05408847 0.2488357
0001b0 78 94 e4 3d 1f 86 e9 bd 49 69 21 be 44 c1 18 3e
       0.11161131 -0.11402535 -0.1576282 0.14917475
0001c0 68 bb 40 bd cc 50 03 3e f1 fd e8 bd 73 30 94 3c
       -0.047053725 0.1282379 -0.113765605 0.018089509
0001d0 e5 ee 12 3e f5 4a 1a bd 70 b1 29 3d e4 30 39 3e
       0.14348944 -0.03766914 0.041428983 0.18085057
0001e0 43 f8 c4 3a bd a0 cc 3d 81 9d fb 3d 9b c5 ed 3c
       0.0015027601 0.09991596 0.12285901 0.02902489
0001f0 85 0f 82 be db 9e 6e be 22 e3 d6 bd 0f 80 f2 bd
       -0.25402465 -0.23302786 -0.10492541 -0.118408315
000200 77 ec 90 3c 6f ef 25 be d6 ff 9c bc 62 a7 95 bd
       0.01769088 -0.16204618 -0.01916496 -0.07307316
000210 52 8a 37 3e 23 1b 77 3d 9a c2 0f 3e 12 da 99 be
       0.17923859 0.060328614 0.14039078 -0.30049187
000220 19 bc ce be f2 a3 d1 3d 82 77 80 be f4 39 be be
       -0.40377882 0.10236348 -0.25091177 -0.3715359
000230 b9 0d 35 bd 82 f9 b1 bc 89 e9 09 3e 2e a0 06 3d
       -0.04420254 -0.02172542 0.13467993 0.032867603
000240 4c 8f 57 be a1 06 24 3e 02 25 cf 3c 3f 06 8d bd
       -0.21050757 0.16018154 0.025286201 -0.06885957
000250 0e 09 50 be ae a1 22 3c 15 54 37 be e8 c8 fd 3c
       -0.20315954 0.009926243 -0.17903168 0.030979589
000260 36 c6 56 3e 9c 0a d0 3d 95 77 a8 bc e8 d1 af bd
       0.20974049 0.101582736 -0.020564834 -0.08584958
000270 05 f6 82 3e f9 41 01 3e 3e 9b cf bc 67 2f a3 be
       0.25578323 0.12622823 -0.02534258 -0.31872103
000280 20 6e 68 bd 64 26 22 3e 70 9f fe bd a1 a3 d1 bd
       -0.05674565 0.15834957 -0.12432754 -0.10236288
000290 cf b7 67 bd f6 f0 53 bd 74 2d 42 be 75 95 28 be
       -0.056571778 -0.05174347 -0.18962651 -0.16463263
0002a0 4a b7 33 be 43 88 9f bd e4 77 89 bd 8f 4a ee bc
       -0.17550388 -0.07789662 -0.067123204 -0.029088287
0002b0 c0 da 13 be 90 cb 3b bd 2b 3c 0b 3d a1 8a 4e be
       -0.14438915 -0.04584843 0.033992928 -0.2017007
0002c0 38 9f 14 be 48 88 8e be ba ed 83 bd b6 2a 47 be
       -0.14513862 -0.2783835 -0.06441827 -0.19449887
0002d0 a6 a2 a1 3c e9 76 22 3e 8a ec 05 3e bc 16 97 3c
       0.019730877 0.15865673 0.13078514 0.018443458
0002e0 39 2e 8d be 48 04 5d be 0c 8c 1c be b0 43 e2 bd
       -0.27574328 -0.21583664 -0.15287799 -0.110480666
0002f0 5f f6 06 be 24 38 b5 bd 4a 85 fb bd 33 48 ff 3d
       -0.1317992 -0.088485986 -0.12281282 0.12464943
000300 71 b9 2e 3d 1c 51 3a be 45 73 37 be 1f 09 83 3c
       0.04265732 -0.18195003 -0.17915066 0.01599556
000310 ac ac 92 3d c8 2e f3 3d 40 f7 fc 3d f4 f8 a5 bc
       0.07161841 0.11874157 0.12351847 -0.020260312
000320 33 88 31 be 2e 35 0b be 64 41 d7 3d 81 78 8a bd
       -0.17337112 -0.13594505 0.10510519 -0.067612655
000330 ad 23 b0 3e 20 ae 71 bb e6 64 cc 3d 6d 0f 45 be
       0.34402218 -0.0036877468 0.09980182 -0.19244166
000340 70 d1 eb 3d e8 ad 9d 3d 50 ed 0e 3e 8a 86 4c 3e
       0.115145564 0.076991856 0.13957715 0.19973198
000350 ad 61 86 bd 40 f5 a1 bb 21 d6 11 3e 7a 79 3a 3e
       -0.06561599 -0.004942566 0.1424184 0.18210402
000360 a9 30 d3 3d 0f 60 82 3e c3 37 2c bd 38 f5 12 3e
       0.103120156 0.25463912 -0.042045366 0.14351356
000370 4d 4b 17 be d5 12 76 3d aa dc 04 3e e2 31 64 be
       -0.14774819 0.060076553 0.12974802 -0.22284654
000380 e2 3f 68 bd d9 5b 19 be e5 7f 02 bc 1a 29 4e 3e
       -0.05670155 -0.14976443 -0.007965063 0.20132867
000390 1c 87 33 bd c0 70 f3 bb 88 6b 86 bd 2d 29 d5 3c
       -0.043830022 -0.0074292123 -0.06563479 0.02602061
0003a0 ab 5d a9 be 89 6a ea 3d 46 69 9d 3b 7b df 85 3e
       -0.33079275 0.11446101 0.0048038093 0.26147065
0003b0 06 7d 39 be 03 1b 57 3e d3 6b 00 3e c9 cc 3f be
       -0.18114099 0.21006398 0.12541132 -0.18730463
0003c0 b3 9f a3 bd 9f 53 18 bc eb 09 53 3e e5 b1 5e bc
       -0.079894446 -0.009297281 0.20609252 -0.013592218
0003d0 5f fb d2 bc 3c 24 20 3e 33 0f 94 bc ca 54 8a 3d
       -0.025754629 0.15638822 -0.018073654 0.067544535
0003e0 a0 a9 24 3e 40 66 3a 3d 7b 70 27 3e 99 7a 54 3e
       0.16080332 0.04550767 0.16351502 0.20749892
0003f0 1e 99 cf 3d 20 14 2b 3e dd 96 cf 3c e7 78 45 bd
       0.10136627 0.16706896 0.025340492 -0.048211005

network_body.observation_encoder.processors.0.normalizer.running_mean f4 [120]
000000 ec 10 2a 3d 00 00 00 00 00 00 00 00 00 00 00 00
       0.041520044 0.0 0.0 0.0
000010 4a 58 47 3f d0 2f 4e 3f 75 c9 9e 3d 00 00 00 00
       0.77869093 0.80541706 0.07753269 0.0
000020 00 00 00 00 00 00 00 00 b1 20 3e 3f a9 a3 48 3f
       0.0 0.0 0.74268633 0.78374726
000030 81 2d fd 3c 00 00 00 00 00 00 00 00 00 00 00 00
       0.030905487 0.0 0.0 0.0
000040 f6 10 4a 3f 31 7e 4f 3f cb 24 b7 3d 00 00 00 00
       0.7893213 0.8105193 0.089425646 0.0
000050 00 00 00 00 00 00 00 00 1f 0d 3b 3f f2 74 47 3f
       0.0 0.0 0.73066896 0.7791282
000060 66 8d 20 3d 00 00 00 00 00 00 00 00 00 00 00 00
       0.039197348 0.0 0.0 0.0
000070 99 80 40 3f 1b 5a 47 3f 42 b0 35 3d 00 00 00 00
       0.75196224 0.77871865 0.044357546 0.0
000080 00 00 00 00 00 00 00 00 48 f6 55 3f 73 43 5d 3f
       0.0 0.0 0.8357892 0.86431044
000090 2a 51 aa 3d 00 00 00 00 00 00 00 00 00 00 00 00
       0.08316262 0.0 0.0 0.0
0000a0 88 07 4c 3f 87 4b 57 3f 30 67 08 3d 00 00 00 00
       0.7969899 0.8409962 0.033301532 0.0
0000b0 00 00 00 00 00 00 00 00 10 cb 58 3f 82 a2 5e 3f
       0.0 0.0 0.8468485 0.8696672
0000c0 67 c6 c4 3d 00 00 00 00 00 00 00 00 00 00 00 00
       0.09608155 0.0 0.0 0.0
0000d0 90 b1 48 3f f2 05 56 3f 59 ee 2c 3d 00 00 00 00
       0.7839594 0.8360282 0.042219494 0.0
0000e0 00 00 00 00 00 00 00 00 11 15 4f 3f e9 69 56 3f
       0.0 0.0 0.8089152 0.83755356
0000f0 89 59 41 3d 00 00 00 00 00 00 00 00 00 00 00 00
       0.047204528 0.0 0.0 0.0
000100 c9 90 64 3f 49 59 6c 3f f1 cf b5 3d 00 00 00 00
       0.89283425 0.9232374 0.08877552 0.0
000110 00 00 00 00 00 00 00 00 e0 ee 59 3f 3b f5 65 3f
       0.0 0.0 0.8513012 0.89827317
000120 73 2c 12 3d 00 00 00 00 00 00 00 00 00 00 00 00
       0.03568692 0.0 0.0 0.0
000130 04 85 67 3f cc c9 6d 3f 6d 6e d2 3d 00 00 00 00
       0.9043734 0.9288604 0.10274968 0.0
000140 00 00 00 00 00 00 00 00 e3 53 56 3f ee 92 64 3f
       0.0 0.0 0.8372175 0.89286697
000150 28 5c 39 3d 00 00 00 00 00 00 00 00 00 00 00 00
       0.045253903 0.0 0.0 0.0
000160 94 a3 5d 3f 7f 7e 65 3f 26 ea 4c 3d 00 00 00 00
       0.86577725 0.8964614 0.05002799 0.0
000170 00 00 00 00 00 00 00 00 57 31 73 3f aa 6c 7b 3f
       0.0 0.0 0.9499716 0.98212683
000180 e9 4e c1 3d 00 00 00 00 00 00 00 00 00 00 00 00
       0.09438879 0.0 0.0 0.0
000190 9d d6 67 3f b9 99 74 3f b3 ff 1b 3d 00 00 00 00
       0.9056185 0.9554706 0.03808565 0.0
0001a0 00 00 00 00 00 00 00 00 5a 40 76 3f d9 ec 7c 3f
       0.0 0.0 0.9619194 0.987989
0001b0 8f 16 e0 3d 00 00 00 00 00 00 00 00 00 00 00 00
       0.10941803 0.0 0.0 0.0
0001c0 be f4 63 3f 69 23 73 3f fd d4 45 3d 00 00 00 00
       0.8904532 0.94975907 0.048298825 0.0
0001d0 00 00 00 00 00 00 00 00 59 36 6c 3f 01 8d 74 3f
       0.0 0.0 0.9227043 0.95527655

network_body.observation_encoder.processors.1.normalizer.running_mean f4 [11]
000000 68 a4 57 c0 4d 6d b7 42 25 b9 3b 40 b1 d8 b6 3b
       -3.3694096 91.71348 2.9331753 0.005580031
000010 35 49 56 3c f2 c0 3f bd c6 40 a2 3b ca 9a b3 c0
       0.013078977 -0.046814866 0.0049515693 -5.612645
000020 17 91 9f 42 56 e4 19 bf 3f bc 15 3d
       79.78338 -0.6011404 0.03655648
