results/Run00/OpponentML/OpponentML-2999959.pt (torch, 330687 bytes, 52 tensors)

network_body.observation_encoder.processors.0.normalizer.running_mean f4 [120]
000000 da 7e 33 3d 00 00 00 00 00 00 00 00 00 00 00 00
       0.043822147 0.0 0.0 0.0
000010 b0 c5 46 3f bb de 4d 3f b8 01 a4 3d 00 00 00 00
       0.776454 0.80417985 0.0800814 0.0
000020 00 00 00 00 00 00 00 00 7b 7e 3d 3f d0 0d 48 3f
       0.0 0.0 0.7402112 0.78146076
000030 e0 32 10 3d 00 00 00 00 00 00 00 00 00 00 00 00
       0.03520477 0.0 0.0 0.0
000040 74 fb 48 3f b1 26 4f 3f 0a 35 b7 3d 00 00 00 00
       0.78508687 0.80918413 0.08945663 0.0
000050 00 00 00 00 00 00 00 00 22 0e 3b 3f c5 1c 47 3f
       0.0 0.0 0.7306844 0.77778274
000060 7a a2 34 3d 00 00 00 00 00 00 00 00 00 00 00 00
       0.044100262 0.0 0.0 0.0
000070 e8 43 3f 3f 48 d8 46 3f 75 d1 3f 3d 00 00 00 00
       0.7471299 0.7767377 0.046830613 0.0
000080 00 00 00 00 00 00 00 00 8a 57 55 3f d6 ea 5c 3f
       0.0 0.0 0.833367 0.8629583
000090 b3 f1 af 3d 00 00 00 00 00 00 00 00 00 00 00 00
       0.08591022 0.0 0.0 0.0
0000a0 04 57 4b 3f 28 a9 56 3f c9 72 1b 3d 00 00 00 00
       0.7942965 0.8385186 0.037951265 0.0
0000b0 00 00 00 00 00 00 00 00 d3 9d 57 3f e9 47 5e 3f
       0.0 0.0 0.84225196 0.86828476
0000c0 87 d1 c4 3d 00 00 00 00 00 00 00 00 00 00 00 00
       0.09610277 0.0 0.0 0.0
0000d0 1b af 48 3f dc a4 55 3f 8b 8c 42 3d 00 00 00 00
       0.7839219 0.8345468 0.047497313 0.0
0000e0 00 00 00 00 00 00 00 00 82 bf 4d 3f ea dc 55 3f
       0.0 0.0 0.8037034 0.83540213
0000f0 67 34 4c 3d 00 00 00 00 00 00 00 00 00 00 00 00
       0.049854662 0.0 0.0 0.0
000100 d9 e5 63 3f 57 f8 6b 3f 30 d7 bb 3d 00 00 00 00
       0.89022595 0.9217581 0.09171903 0.0
000110 00 00 00 00 00 00 00 00 75 2f 59 3f 36 44 65 3f
       0.0 0.0 0.8483804 0.89557207
000120 f2 a2 26 3d 00 00 00 00 00 00 00 00 00 00 00 00
       0.04068274 0.0 0.0 0.0
000130 8f 3f 66 3f 63 69 6d 3f d5 76 d2 3d 00 00 00 00
       0.8994073 0.9273893 0.10276572 0.0
000140 00 00 00 00 00 00 00 00 3c 52 56 3f ba 2b 64 3f
       0.0 0.0 0.8371923 0.8912922
000150 85 81 50 3d 00 00 00 00 00 00 00 00 00 00 00 00
       0.05090477 0.0 0.0 0.0
000160 e5 33 5c 3f ec e3 64 3f cb 79 58 3d 00 00 00 00
       0.86016685 0.8941028 0.052850526 0.0
000170 00 00 00 00 00 00 00 00 0a 78 72 3f 98 04 7b 3f
       0.0 0.0 0.94714415 0.98053885
000180 e3 bd c7 3d 00 00 00 00 00 00 00 00 00 00 00 00
       0.09753015 0.0 0.0 0.0
000190 28 08 67 3f e3 df 73 3f 61 e8 31 3d 00 00 00 00
       0.9024682 0.952635 0.043434504 0.0
0001a0 00 00 00 00 00 00 00 00 94 e2 74 3f e5 85 7c 3f
       0.0 0.0 0.9565823 0.98641807
0001b0 ef 1c e0 3d 00 00 00 00 00 00 00 00 00 00 00 00
       0.10943019 0.0 0.0 0.0
0001c0 8a f1 63 3f 73 b2 72 3f 56 85 5e 3d 00 00 00 00
       0.89040434 0.9480354 0.054326378 0.0
0001d0 00 00 00 00 00 00 00 00 ef ab 6a 3f 00 e6 73 3f
       0.0 0.0 0.916686 0.9527283

network_body.observation_encoder.processors.0.normalizer.running_variance f4 [120]
000000 ae 83 f5 47 00 00 80 3f 00 00 80 3f 00 00 80 3f
       125703.36 1.0 1.0 1.0
000010 64 42 fe 48 44 49 dd 48 8f d1 57 48 00 00 80 3f
       520723.12 453194.12 220998.23 1.0
000020 00 00 80 3f 00 00 80 3f 14 d9 0c 49 a3 83 e7 48
       1.0 1.0 576913.25 474141.1
000030 4b 03 c7 47 00 00 80 3f 00 00 80 3f 00 00 80 3f
       101894.586 1.0 1.0 1.0
000040 1e 38 f7 48 c0 01 dc 48 cf 9a 6e 48 00 00 80 3f
       506304.94 450574.0 244331.23 1.0
000050 00 00 80 3f 00 00 80 3f 83 23 10 49 92 55 e8 48
       1.0 1.0 590392.2 475820.56
000060 50 f9 f6 47 00 00 80 3f 00 00 80 3f 00 00 80 3f
       126450.625 1.0 1.0 1.0
000070 05 57 0a 49 61 d4 f0 48 f8 c4 02 48 00 00 80 3f
       566640.3 493219.03 133907.88 1.0
000080 00 00 80 3f 00 00 80 3f 71 71 cb 48 22 31 a3 48
       1.0 1.0 416651.53 334217.06
000090 32 10 66 48 00 00 80 3f 00 00 80 3f 00 00 80 3f
       235584.78 1.0 1.0 1.0
0000a0 1f 57 ef 48 32 5d b2 48 d4 ef d5 47 00 00 80 3f
       490168.97 365289.56 109535.66 1.0
0000b0 00 00 80 3f 00 00 80 3f a7 a0 c2 48 22 e6 a0 48
       1.0 1.0 398597.22 329521.06
0000c0 1a 7f 7e 48 00 00 80 3f 00 00 80 3f 00 00 80 3f
       260604.4 1.0 1.0 1.0
0000d0 c8 1b f8 48 8f e3 b3 48 e7 8a 04 48 00 00 80 3f
       508126.25 368412.47 135723.61 1.0
0000e0 00 00 80 3f 00 00 80 3f c5 21 e7 48 cd 62 bb 48
       1.0 1.0 473358.16 383766.4
0000f0 06 c5 0a 48 00 00 80 3f 00 00 80 3f 00 00 80 3f
       142100.1 1.0 1.0 1.0
000100 dd 26 8f 48 3b 07 3e 48 a4 0e 74 48 00 00 80 3f
       293174.9 194588.92 249914.56 1.0
000110 00 00 80 3f 00 00 80 3f 1e 6d bc 48 cd 43 67 48
       1.0 1.0 385896.94 236815.2
000120 de ad e4 47 00 00 80 3f 00 00 80 3f 00 00 80 3f
       117083.734 1.0 1.0 1.0
000130 cd 86 84 48 9d 40 37 48 99 0e 87 48 00 00 80 3f
       271414.4 187650.45 276596.78 1.0
000140 00 00 80 3f 00 00 80 3f 98 a5 c7 48 29 0d 6c 48
       1.0 1.0 408876.75 241716.64
000150 6f 87 0d 48 00 00 80 3f 00 00 80 3f 00 00 80 3f
       144925.73 1.0 1.0 1.0
000160 18 2c b0 48 27 a5 77 48 5e a5 12 48 00 00 80 3f
       360800.75 253588.61 150165.47 1.0
000170 00 00 80 3f 00 00 80 3f cd a5 12 48 48 b9 05 47
       1.0 1.0 150167.2 34233.28
000180 d2 ed 80 48 00 00 80 3f 00 00 80 3f 00 00 80 3f
       264046.56 1.0 1.0 1.0
000190 e7 ed 80 48 b7 8a ad 47 38 6c f3 47 00 00 80 3f
       264047.22 88853.43 124632.44 1.0
0001a0 00 00 80 3f 00 00 80 3f a2 6d f3 47 c0 50 c1 46
       1.0 1.0 124635.266 24744.375
0001b0 48 c0 8e 48 00 00 80 3f 00 00 80 3f 00 00 80 3f
       292354.25 1.0 1.0 1.0
0001c0 24 ea 8e 48 f7 cd ba 47 2b 81 16 48 00 00 80 3f
       292689.12 95643.93 154116.67 1.0
0001d0 00 00 80 3f 00 00 80 3f 68 d4 5f 48 b9 59 c8 47
       1.0 1.0 229201.62 102579.445

network_body.observation_encoder.processors.1.normalizer.running_mean f4 [11]
000000 d6 7f 01 c0 44 09 b9 42 ef dd 30 40 b5 f4 21 b9
       -2.0234275 92.5181 2.7635458 -0.00015445317
000010 8d 5c 57 3c 3e 86 3a bd b0 33 94 3c ee f8 35 c0
       0.013144624 -0.04553818 0.018091053 -2.8433185
000020 84 b3 9f 42 68 c4 8f 3f ba c1 2e bb
       79.85062 1.1231813 -0.0026665763

network_body.observation_encoder.processors.1.normalizer.running_variance f4 [11]
000000 d4 4f 3b 51 69 fa 64 50 25 86 3c 51 09 59 30 49
       5.0281136e+10 1.5366465e+10 5.0606526e+10 722320.56
000010 ea 3e 3a 49 3d 77 3b 49 4b 77 34 49 cb 44 5e 51
       762862.6 767859.8 739188.7 5.9664806e+10
000020 92 19 0b 50 da 0e 5e 51 19 26 80 49
       9.334835e+09 5.9608244e+10 1.0497951e+06

network_body.processors.0.normalizer.running_mean f4 [120]
000000 da 7e 33 3d 00 00 00 00 00 00 00 00 00 00 00 00
       0.043822147 0.0 0.0 0.0
000010 b0 c5 46 3f bb de 4d 3f b8 01 a4 3d 00 00 00 00
       0.776454 0.80417985 0.0800814 0.0
000020 00 00 00 00 00 00 00 00 7b 7e 3d 3f d0 0d 48 3f
       0.0 0.0 0.7402112 0.78146076
000030 e0 32 10 3d 00 00 00 00 00 00 00 00 00 00 00 00
       0.03520477 0.0 0.0 0.0
000040 74 fb 48 3f b1 26 4f 3f 0a 35 b7 3d 00 00 00 00
       0.78508687 0.80918413 0.08945663 0.0
000050 00 00 00 00 00 00 00 00 22 0e 3b 3f c5 1c 47 3f
       0.0 0.0 0.7306844 0.77778274
000060 7a a2 34 3d 00 00 00 00 00 00 00 00 00 00 00 00
       0.044100262 0.0 0.0 0.0
000070 e8 43 3f 3f 48 d8 46 3f 75 d1 3f 3d 00 00 00 00
       0.7471299 0.7767377 0.046830613 0.0
000080 00 00 00 00 00 00 00 00 8a 57 55 3f d6 ea 5c 3f
       0.0 0.0 0.833367 0.8629583
000090 b3 f1 af 3d 00 00 00 00 00 00 00 00 00 00 00 00
       0.08591022 0.0 0.0 0.0
0000a0 04 57 4b 3f 28 a9 56 3f c9 72 1b 3d 00 00 00 00
       0.7942965 0.8385186 0.037951265 0.0
0000b0 00 00 00 00 00 00 00 00 d3 9d 57 3f e9 47 5e 3f
       0.0 0.0 0.84225196 0.86828476
0000c0 87 d1 c4 3d 00 00 00 00 00 00 00 00 00 00 00 00
       0.09610277 0.0 0.0 0.0
0000d0 1b af 48 3f dc a4 55 3f 8b 8c 42 3d 00 00 00 00
       0.7839219 0.8345468 0.047497313 0.0
0000e0 00 00 00 00 00 00 00 00 82 bf 4d 3f ea dc 55 3f
       0.0 0.0 0.8037034 0.83540213
0000f0 67 34 4c 3d 00 00 00 00 00 00 00 00 00 00 00 00
       0.049854662 0.0 0.0 0.0
000100 d9 e5 63 3f 57 f8 6b 3f 30 d7 bb 3d 00 00 00 00
       0.89022595 0.9217581 0.09171903 0.0
000110 00 00 00 00 00 00 00 00 75 2f 59 3f 36 44 65 3f
       0.0 0.0 0.8483804 0.89557207
000120 f2 a2 26 3d 00 00 00 00 00 00 00 00 00 00 00 00
       0.04068274 0.0 0.0 0.0
000130 8f 3f 66 3f 63 69 6d 3f d5 76 d2 3d 00 00 00 00
       0.8994073 0.9273893 0.10276572 0.0
000140 00 00 00 00 00 00 00 00 3c 52 56 3f ba 2b 64 3f
       0.0 0.0 0.8371923 0.8912922
000150 85 81 50 3d 00 00 00 00 00 00 00 00 00 00 00 00
       0.05090477 0.0 0.0 0.0
000160 e5 33 5c 3f ec e3 64 3f cb 79 58 3d 00 00 00 00
       0.86016685 0.8941028 0.052850526 0.0
000170 00 00 00 00 00 00 00 00 0a 78 72 3f 98 04 7b 3f
       0.0 0.0 0.94714415 0.98053885
000180 e3 bd c7 3d 00 00 00 00 00 00 00 00 00 00 00 00
       0.09753015 0.0 0.0 0.0
000190 28 08 67 3f e3 df 73 3f 61 e8 31 3d 00 00 00 00
       0.9024682 0.952635 0.043434504 0.0
0001a0 00 00 00 00 00 00 00 00 94 e2 74 3f e5 85 7c 3f
       0.0 0.0 0.9565823 0.98641807
0001b0 ef 1c e0 3d 00 00 00 00 00 00 00 00 00 00 00 00
       0.10943019 0.0 0.0 0.0
0001c0 8a f1 63 3f 73 b2 72 3f 56 85 5e 3d 00 00 00 00
       0.89040434 0.9480354 0.054326378 0.0
0001d0 00 00 00 00 00 00 00 00 ef ab 6a 3f 00 e6 73 3f
       0.0 0.0 0.916686 0.9527283

network_body.processors.0.normalizer.running_variance f4 [120]
000000 ae 83 f5 47 00 00 80 3f 00 00 80 3f 00 00 80 3f
       125703.36 1.0 1.0 1.0
000010 64 42 fe 48 44 49 dd 48 8f d1 57 48 00 00 80 3f
       520723.12 453194.12 220998.23 1.0
000020 00 00 80 3f 00 00 80 3f 14 d9 0c 49 a3 83 e7 48
       1.0 1.0 576913.25 474141.1
000030 4b 03 c7 47 00 00 80 3f 00 00 80 3f 00 00 80 3f
       101894.586 1.0 1.0 1.0
000040 1e 38 f7 48 c0 01 dc 48 cf 9a 6e 48 00 00 80 3f
       506304.94 450574.0 244331.23 1.0
000050 00 00 80 3f 00 00 80 3f 83 23 10 49 92 55 e8 48
       1.0 1.0 590392.2 475820.56
000060 50 f9 f6 47 00 00 80 3f 00 00 80 3f 00 00 80 3f
       126450.625 1.0 1.0 1.0
000070 05 57 0a 49 61 d4 f0 48 f8 c4 02 48 00 00 80 3f
       566640.3 493219.03 133907.88 1.0
000080 00 00 80 3f 00 00 80 3f 71 71 cb 48 22 31 a3 48
       1.0 1.0 416651.53 334217.06
000090 32 10 66 48 00 00 80 3f 00 00 80 3f 00 00 80 3f
       235584.78 1.0 1.0 1.0
0000a0 1f 57 ef 48 32 5d b2 48 d4 ef d5 47 00 00 80 3f
       490168.97 365289.56 109535.66 1.0
0000b0 00 00 80 3f 00 00 80 3f a7 a0 c2 48 22 e6 a0 48
       1.0 1.0 398597.22 329521.06
0000c0 1a 7f 7e 48 00 00 80 3f 00 00 80 3f 00 00 80 3f
       260604.4 1.0 1.0 1.0
0000d0 c8 1b f8 48 8f e3 b3 48 e7 8a 04 48 00 00 80 3f
       508126.25 368412.47 135723.61 1.0
0000e0 00 00 80 3f 00 00 80 3f c5 21 e7 48 cd 62 bb 48
       1.0 1.0 473358.16 383766.4
0000f0 06 c5 0a 48 00 00 80 3f 00 00 80 3f 00 00 80 3f
       142100.1 1.0 1.0 1.0
000100 dd 26 8f 48 3b 07 3e 48 a4 0e 74 48 00 00 80 3f
       293174.9 194588.92 249914.56 1.0
000110 00 00 80 3f 00 00 80 3f 1e 6d bc 48 cd 43 67 48
       1.0 1.0 385896.94 236815.2
000120 de ad e4 47 00 00 80 3f 00 00 80 3f 00 00 80 3f
       117083.734 1.0 1.0 1.0
000130 cd 86 84 48 9d 40 37 48 99 0e 87 48 00 00 80 3f
       271414.4 187650.45 276596.78 1.0
000140 00 00 80 3f 00 00 80 3f 98 a5 c7 48 29 0d 6c 48
       1.0 1.0 408876.75 241716.64
000150 6f 87 0d 48 00 00 80 3f 00 00 80 3f 00 00 80 3f
       144925.73 1.0 1.0 1.0
000160 18 2c b0 48 27 a5 77 48 5e a5 12 48 00 00 80 3f
       360800.75 253588.61 150165.47 1.0
000170 00 00 80 3f 00 00 80 3f cd a5 12 48 48 b9 05 47
       1.0 1.0 150167.2 34233.28
000180 d2 ed 80 48 00 00 80 3f 00 00 80 3f 00 00 80 3f
       264046.56 1.0 1.0 1.0
000190 e7 ed 80 48 b7 8a ad 47 38 6c f3 47 00 00 80 3f
       264047.22 88853.43 124632.44 1.0
0001a0 00 00 80 3f 00 00 80 3f a2 6d f3 47 c0 50 c1 46
       1.0 1.0 124635.266 24744.375
0001b0 48 c0 8e 48 00 00 80 3f 00 00 80 3f 00 00 80 3f
       292354.25 1.0 1.0 1.0
0001c0 24 ea 8e 48 f7 cd ba 47 2b 81 16 48 00 00 80 3f
       292689.12 95643.93 154116.67 1.0
0001d0 00 00 80 3f 00 00 80 3f 68 d4 5f 48 b9 59 c8 47
       1.0 1.0 229201.62 102579.445

network_body.processors.1.normalizer.running_mean f4 [11]
000000 d6 7f 01 c0 44 09 b9 42 ef dd 30 40 b5 f4 21 b9
       -2.0234275 92.5181 2.7635458 -0.00015445317
000010 8d 5c 57 3c 3e 86 3a bd b0 33 94 3c ee f8 35 c0
       0.013144624 -0.04553818 0.018091053 -2.8433185
000020 84 b3 9f 42 68 c4 8f 3f ba c1 2e bb
       79.85062 1.1231813 -0.0026665763

network_body.processors.1.normalizer.running_variance f4 [11]
000000 d4 4f 3b 51 69 fa 64 50 25 86 3c 51 09 59 30 49
       5.0281136e+10 1.5366465e+10 5.0606526e+10 722320.56
000010 ea 3e 3a 49 3d 77 3b 49 4b 77 34 49 cb 44 5e 51
       762862.6 767859.8 739188.7 5.9664806e+10
000020 92 19 0b 50 da 0e 5e 51 19 26 80 49
       9.334835e+09 5.9608244e+10 1.0497951e+06

network_body._body_endoder.seq_layers.0.weight f4 [64, 131]
000000 ea 86 7f 3d 4f ef 8f bd 30 55 9b bb 9a 6e a3 3d
       0.062384523 -0.07028066 -0.0047403798 0.0798008
000010 83 02 a1 bd 2e c2 bd bd 5d 00 68 3e 3d 11 9e bc
       -0.07861807 -0.092655525 0.22656389 -0.01929533
000020 cf f0 d3 3c c2 67 12 be 99 97 38 be 1c ac d5 bd
       0.025871662 -0.14297393 -0.1802658 -0.10433218
000030 f1 9f 9a bc 12 7a ed bd 77 7d 7d bd 9d d2 1c 3a
       -0.018875094 -0.11595549 -0.06188723 0.00059823116
000040 35 be e4 bd 31 2f b0 3d 47 e8 6b bd 2f 05 ef bd
       -0.111690916 0.08602751 -0.057594564 -0.116709106
000050 29 49 a8 3d 52 5b 09 bd b7 8c 74 bd d1 2f b9 bd
       0.08217079 -0.033534355 -0.05970451 -0.090423234
000060 6c b0 00 3e 25 ed 36 bd c7 66 a0 ba a7 db e3 3d
       0.125673 -0.044659752 -0.0012237661 0.1112588
000070 f7 00 16 bd a6 6f 04 3e 4c 5b 57 3d 66 46 09 3e
       -0.036622014 0.12933215 0.0525773 0.13405761
000080 d7 d2 b7 3d d2 36 17 3d 98 9a c6 3c 86 74 6e 3d
       0.089757614 0.036917515 0.024243638 0.058216594
000090 12 f3 db 3d 6d 52 c1 3c 1f d4 e7 bd 25 10 27 3c
       0.10739721 0.023598874 -0.11319756 0.01019672
0000a0 28 75 01 bd ea 15 48 bd 71 7b 03 3d 0b 37 a2 bd
       -0.03160587 -0.048849024 0.032100145 -0.07920655
0000b0 e1 66 0a 3e 22 43 70 be 11 45 4d bd d5 25 84 bd
       0.13515808 -0.23463109 -0.050114695 -0.064525284
0000c0 b4 a7 79 be a9 40 16 be 18 5c d6 bd 97 c7 61 3c
       -0.2438038 -0.14673103 -0.10466784 0.013780496
0000d0 98 bb d7 3c 9b 9b ba 3d 3d 0e 10 3e d8 2a 25 3e
       0.026334569 0.09111711 0.14067931 0.16129625
0000e0 9a f2 4a bd 00 4f 08 3e 9b 53 e9 3c 51 21 4a be
       -0.04954777 0.13311386 0.028482249 -0.19739272
0000f0 88 1f b2 3d 2d 80 b1 3d ea 5d 4e bd be 55 b9 3d
       0.0869742 0.08667026 -0.050382532 0.09049557
000100 cc d3 61 3e 65 3b 9f 3e d4 28 01 3e 4d 0a c2 3d
       0.2205345 0.31100002 0.12613231 0.09474621
000110 d6 d6 ae bd 45 a6 05 be 18 80 f8 3c 74 d4 cb 3d
       -0.085370705 -0.13051708 0.030334517 0.099526316
000120 eb 9b a0 bd 65 ad b1 3c 4d 2a 41 3d 0d 7a c6 bd
       -0.07842239 0.021689126 0.04715948 -0.09691248
000130 c7 f0 94 3e 14 3f de 3d ba 9e 9c bd 59 b5 5b bd
       0.2908995 0.10851875 -0.07647462 -0.053639743
000140 85 7a a4 3d d1 36 61 bd cc 65 8e 3d 62 f1 43 3e
       0.08031181 -0.054983918 0.0695301 0.19135049
000150 62 ec 95 3d 2a af a7 bc b9 20 99 3d 87 cf c8 3d
       0.07320477 -0.020469267 0.074769445 0.09805208
000160 a3 76 c5 bd 10 31 81 be a2 22 cd bc 9d 17 13 3e
       -0.09641769 -0.25232744 -0.025040928 0.14364477
000170 07 6e d0 bd bf a4 29 3d 75 4d d6 3d 70 fb c5 3d
       -0.10177236 0.04141688 0.104639925 0.096670985
000180 c0 5e a5 3e 9b e3 a6 bd 5f 45 b6 bd 1e db 5b 3d
       0.3229885 -0.08148881 -0.0889995 0.053675763
000190 f1 7e 81 be ab 5e 47 bc 33 f0 6e be 8d 62 09 3d
       -0.2529216 -0.012168567 -0.23333816 0.03354125
0001a0 4d 4a aa bc 61 03 c3 3d 69 e8 59 3e 4e 31 41 3e
       -0.020787382 0.09522129 0.21280064 0.18866464
0001b0 91 32 be bb cd f2 5b 3e e5 07 ab bd fa fd 6e 3d
       -0.005804368 0.2147934 -0.08351115 0.05834768
0001c0 99 6d 70 3e 91 b6 51 3e e9 89 3a 3d 2a d3 cf bd
       0.23479308 0.204798 0.045541678 -0.10147698
0001d0 7e b2 0a 3e a9 db 9f bc a3 1f e5 3b de b9 a6 bc
       0.13544652 -0.019513922 0.006992297 -0.0203523
0001e0 56 01 73 3d 51 9c 86 bc 7a 50 0d be c2 78 6b 3d
       0.059327446 -0.01643196 -0.1380023 0.05748821
0001f0 c5 bf b8 bd 92 da c0 3e 83 b0 5e 3d 78 b6 bf 3d
       -0.09020952 0.37666756 0.054367553 0.09360975
000200 49 f4 21 3e 30 a1 02 3c 47 43 30 be 5a 91 fb bd
       0.15815844 0.007973 -0.17213164 -0.12283583
000210 6d 8d 80 bc f1 23 77 3d 46 5f 2d 3e 1a 15 96 bd
       -0.015692437 0.06033701 0.16930875 -0.073282436
000220 62 7e f8 bd 47 f7 ac bb 8d e5 76 3b 21 9e 05 bc
       -0.121334806 -0.005278501 0.0037673444 -0.008155377
000230 b7 b5 ed 3d f4 a6 10 be 5c 6f b9 3d 47 1b d7 3c
       0.11606925 -0.14126188 0.09054443 0.026258124
000240 50 06 3a bd 74 bd fb bc 46 03 d4 39 7c c0 81 bd
       -0.045416176 -0.030729987 0.0004043823 -0.063355416
000250 d8 7d 80 3b f2 a1 ef 3d fc 8b 33 3c 9a 97 1d 3e
       0.0039212517 0.117008105 0.010958668 0.15389863
000260 a1 ce ac bc ab a8 4b 3c 27 51 94 3c b1 2f 45 be
       -0.021094622 0.01243035 0.018105103 -0.19256474
000270 98 e9 bf bb 7c da 00 3d 70 e3 8e ba 50 2d 78 3d
       -0.005856704 0.031458363 -0.0010901522 0.06059009
000280 cf bc 19 3d 01 bf 30 be 01 fe 3c 3d 1b 58 d8 bc
       0.037533578 -0.17260362 0.046140675 -0.0264092
000290 da 11 01 be cb 17 98 3c 96 32 32 bd 06 05 23 be
       -0.12604466 0.018566033 -0.043505274 -0.15919885
0002a0 53 2f b2 bd 07 31 8d bc 9d 9e 3e 3d ca 63 1d 3d
       -0.08700433 -0.017235292 0.046537984 0.038425244
0002b0 79 19 64 3c a0 58 c4 ba 9d 56 87 3d a7 95 b1 bc
       0.013922089 -0.0014980026 0.06608317 -0.021677805
0002c0 d4 1f b7 bd 6d 30 73 3d 0b 98 50 3d 6a 96 85 3c
       -0.089416176 0.059372354 0.05092625 0.016307075
0002d0 6b 2d 68 bd 40 9e 83 3e 21 1a 2b 3d 5e 68 32 3d
       -0.05668394 0.25706673 0.041772965 0.043556564
0002e0 b7 39 05 3e 74 a7 63 be 87 cb 9e 3d b2 e2 d6 3b
       0.13010298 -0.22231847 0.077536635 0.006557786
0002f0 44 d1 54 bd 87 36 40 bd 10 a8 7c be 10 de 2d bd
       -0.051957384 -0.046927 -0.24673486 -0.042448103
000300 fc d9 3f 3d 8f 3c 6e bd 5f 0c 79 3b 2b 13 95 bc
       0.046838745 -0.058163222 0.0038001759 -0.018197617
000310 5c 03 53 3e 23 a3 8b bd 9e b0 aa 3d 24 88 d5 bd
       0.2060675 -0.06818225 0.08334468 -0.104263574
000320 dd 5e 7a bd 1b 10 ef 3d c7 cc 3e 3e 7b 56 c8 bc
       -0.061125625 0.11672994 0.18632804 -0.0244553
000330 d2 99 44 3d cc 08 df 3c 26 86 77 bd af 91 78 bd
       0.047998257 0.027225874 -0.06043067 -0.06068581
000340 51 ec a9 bc 8d b6 2e 3c 3b 70 31 3e 8b bc a8 bd
       -0.020742567 0.010663641 0.17327969 -0.08239087
000350 00 0d 08 be b5 5d 63 3d f7 ae d0 3d f2 69 4d be
       -0.13286209 0.055509288 0.10189622 -0.20059946
000360 87 c2 e8 bd cd d2 51 3d 8e 40 11 3e 03 a2 98 bd
       -0.11365228 0.051226426 0.14184782 -0.07452776
000370 55 c9 3e be ff cb 8c bd fa d3 47 bd bf 4b f6 bd
       -0.1863149 -0.06874847 -0.04878614 -0.12026166
000380 28 a6 32 3d 3c 26 a2 bc 7f ca 09 3e f9 54 d6 bd
       0.04361549 -0.019793622 0.13456152 -0.10465426
000390 76 b6 8f 3a b8 6d 02 3d ce cc b4 3b 5b 90 48 3d
       0.0010964412 0.031842917 0.0055175787 0.048965793
0003a0 8c 72 dc 3c f9 94 83 bd 97 6e c7 bd 40 ab 86 3d
       0.026910089 -0.06424899 -0.0973789 0.06575632
0003b0 c3 19 0d 3d 4f c6 dc 3c ac 45 41 3e 47 94 0c bd
       0.034448396 0.02695003 0.18874234 -0.034321096
0003c0 48 1c 04 3d 10 c6 f4 3d a7 d0 8b bd 5b 6c 0b 3e
       0.032253534 0.1195184 -0.06826907 0.13615553
0003d0 76 87 c3 3d cf 7a 70 bc c4 39 98 3c 3e 74 b4 bd
       0.095473215 -0.014677717 0.018582232 -0.08811234
0003e0 4c 21 33 bd 53 9c d9 3d 0b f8 41 3d 1e fe f2 bb
       -0.043732926 0.106255196 0.047355693 -0.007415547
0003f0 8d ce 1c 3e 96 c4 52 be 3b ee a1 3e 41 d0 0f be
       0.15313168 -0.20582804 0.31627068 -0.14044286

network_body._body_endoder.seq_layers.0.bias f4 [64]
000000 9a f9 a2 3d 02 67 f1 3c 5e 18 c1 bd f2 6f 70 bd
       0.07957764 0.029468063 -0.09428476 -0.05870051
000010 0a cb 55 3c 53 f4 fc bc 8c 62 e2 3c 02 94 f3 3d
       0.013048897 -0.030878222 0.027634881 0.118934646
000020 66 8a e5 3d bf d5 09 be a5 cc ac 3d 4f 82 e0 3d
       0.11208038 -0.13460444 0.0843747 0.109623544
000030 e4 eb b9 3d 86 6b 01 be 86 8d be 3d d8 47 e9 3c
       0.09078196 -0.12638673 0.09304337 0.02847664
000040 90 63 9c bb 06 33 a9 3d 16 28 02 be 4a 81 02 be
       -0.004772611 0.08261685 -0.12710604 -0.12744632
000050 84 41 a2 3c 79 5a 01 bd 2b a2 9a 3d 2d 95 49 bc
       0.01980663 -0.031580422 0.07550462 -0.012303633
000060 45 20 7b bd bd 8b 00 3d f4 43 a4 bd 4b 98 a2 3d
       -0.06131007 0.031383265 -0.080207735 0.07939204
000070 4a f9 42 3d ba f0 4c bd bf cc 93 3b da cb 83 3c
       0.04760102 -0.050034262 0.0045104916 0.016088415
000080 31 14 60 3d e2 92 04 be 0e 7a 13 bd 48 e2 ef 3a
       0.054706756 -0.12946656 -0.036005072 0.001830169
000090 95 dd a1 3d 82 c4 4c 3d 31 c7 84 bc 51 78 f9 3c
       0.079035915 0.049992092 -0.016208263 0.03045288
0000a0 87 e6 6b bd fc 6b 20 3d bf 6b ad bc 33 60 e2 bc
       -0.057592895 0.039165482 -0.021169541 -0.027633762
0000b0 a2 c6 8e bc ef b9 8a bd ae d4 4d bd 21 e3 99 bd
       -0.0174287 -0.06773745 -0.050251655 -0.075140245
0000c0 c8 c1 f8 bc 58 3f 8d 3d 5e e1 40 bd 01 61 43 3d
       -0.03036584 0.068968475 -0.047089927 0.047699932
0000d0 37 ab 5c 3d a8 0e 0e bd 37 a1 04 be b4 da 08 3e
       0.05387422 -0.034681946 -0.12952124 0.13364679
0000e0 48 73 65 bd 17 9b e5 3b 44 34 b0 bd 0a 68 38 3d
       -0.056018144 0.0070070135 -0.08603719 0.045021094
0000f0 42 c3 71 bc 41 6b 11 3d 68 19 0e be fc d8 d7 bd
       -0.014756026 0.035502676 -0.13876879 -0.10539433

network_body._body_endoder.seq_layers.2.weight f4 [64, 64]
000000 89 ff 67 3d 99 d7 12 be 5f 8c 3f be 0e 10 d3 bd
       0.05664018 -0.14340056 -0.18705891 -0.103057966
000010 9a 23 b3 bc fd 2c 97 be 59 ee 1d 3c fe b3 2b 3d
       -0.021867562 -0.2952651 0.009639346 0.0419197
000020 e0 a0 1c be 5a ef 86 3e da a4 aa be 8a bf cb 3c
       -0.15295744 0.26354486 -0.33328897 0.024871606
000030 ba 37 88 3d 1f 79 28 be 7e b8 43 bd 0c 65 ff 3d
       0.06651254 -0.16452454 -0.047783367 0.12470445
000040 30 45 3e bd 8b e5 3d be ce dd ab 3e 92 6e 2b 3d
       -0.0464527 -0.18544595 0.3356766 0.041853495
000050 27 dd e7 3d 17 87 4b bd 37 7d 7c 3e ed 31 47 bd
       0.11321478 -0.04968938 0.2465714 -0.048631597
000060 89 21 a9 3d 2e 98 8e 3e bb 56 fd bc cb 2e 2b bd
       0.082583494 0.2785048 -0.030925145 -0.041792672
000070 83 2c 23 3d e7 ad 3b 3e b6 c3 8a 3d f2 e3 d1 3c
       0.03983737 0.18328057 0.0677561 0.025621388
000080 3b 83 7e 3c 9b eb 1a 3e 89 8b 72 be b2 19 a6 3d
       0.0155342175 0.15128939 -0.23686041 0.0811037
000090 0f fe 9d be b6 c9 6e 3d 33 e5 28 be b8 88 78 be
       -0.30857894 0.058297835 -0.16493683 -0.24270904
0000a0 66 ca d0 bc 59 b3 c4 be be 5a a6 bd 4d 06 2e 3e
       -0.025487136 -0.3841808 -0.081227764 0.16994591
0000b0 05 69 91 3c f0 c8 3a bd b3 97 5b bd d3 9b 5c 3d
       0.017750273 -0.045601785 -0.05361147 0.053859543
0000c0 7a cc dd bd a2 c3 40 be 8d 9b 97 be a9 9b 0f 3e
       -0.108300164 -0.18824628 -0.29610863 0.14024223
0000d0 f1 11 16 be 17 b5 0c be 24 cf 0d bd 70 d9 cd bd
       -0.14655282 -0.13740955 -0.034621373 -0.100512385
0000e0 15 e0 80 be 1c 61 50 bc 92 fd 5c bd 3e 24 63 be
       -0.2517096 -0.012718465 -0.05395276 -0.22181794
0000f0 6b 07 8b be a9 60 09 be f3 3e 00 3d 6c 1e 51 3e
       -0.27154097 -0.13415779 0.031310033 0.20421761
000100 b1 51 1c be b5 22 76 bd 32 4f 37 be 7f 0b 9c 3d
       -0.15265538 -0.060091693 -0.17901304 0.0761938
000110 5b ee ad bd 02 99 13 bd 0b 22 94 bd a3 e1 8e be
       -0.08492728 -0.03603459 -0.07233056 -0.27906522
000120 a4 11 a1 3c b4 bb 0c 3e 84 b9 1c 3d fb 21 04 be
       0.019661732 0.13743478 0.03826286 -0.12903588
000130 f5 98 a7 3c 7e c9 40 bb 7f 16 5b 3d 5b 73 f6 3d
       0.020458678 -0.0029416974 0.05348825 0.12033721
000140 49 99 4c 3d f0 33 c6 bc 25 1e 09 be 78 d5 aa 3d
       0.04995087 -0.024194688 -0.13390405 0.08341497
000150 a5 25 10 3e ea 7f 55 3d ae 2b 11 bd 5d 27 3c be
       0.1407686 0.05212394 -0.035442047 -0.18374391
000160 40 98 b1 3d f1 b6 1d 3e 52 21 02 3c 8f 2e 06 3e
       0.086716175 0.15401818 0.0079425145 0.13103698
000170 76 93 e3 be d8 24 da bd a7 5e 84 3e 8f 12 c1 bc
       -0.4444844 -0.10651559 0.25853464 -0.02356842
000180 10 cb 62 3e b0 41 b8 bc 90 ef c3 3d bb 4e 5f 3c
       0.22147775 -0.02249226 0.09567177 0.013629611
000190 23 c3 b2 be b9 42 e3 3d cd 0c 55 bd 07 25 2d 3d
       -0.34914503 0.11096711 -0.05201416 0.04227164
0001a0 10 95 c5 be e6 9c ba 3d 4d b6 69 bd f5 16 67 3e
       -0.38590288 0.09111957 -0.05705862 0.22567351
0001b0 53 f8 db 3d 98 49 0b be 3a 71 0c be a8 ea f2 3d
       0.107407235 -0.13602293 -0.13715068 0.118611634
0001c0 d4 50 01 bd d1 96 1b 3e 20 35 c7 bd 6d 6d 9d 3c
       -0.031571224 0.1519425 -0.0972693 0.019217217
0001d0 63 d8 15 3e 94 4c 4a bd 2f 8e 50 3d cd 61 3e 3e
       0.14633326 -0.049389437 0.050916847 0.18591996
0001e0 a7 19 b8 3b a6 4b a7 3d 2d c1 17 3e 01 5a ba 3c
       0.0056182924 0.08168726 0.14819784 0.022747995
0001f0 7f a8 82 be 86 06 80 be 78 35 ee bd 76 39 01 be
       -0.25519177 -0.25004977 -0.11631292 -0.12619576
000200 ed 43 e3 3b 75 f9 25 be 86 0d 30 bd a0 83 e1 bd
       0.0069355876 -0.16208442 -0.042981647 -0.110114336
000210 cb 52 33 3e 8f 21 3f 3d ee d6 d5 3d 14 ed a2 be
       0.17512052 0.046662863 0.10441385 -0.318215
000220 03 a9 be be b5 1f 90 3d 61 0b 87 be 9c 63 bd be
       -0.3723832 0.07037298 -0.2637587 -0.36990058
000230 07 ad 8b bd bb a7 61 bd 42 76 fa 3d b0 d6 64 3d
       -0.06820112 -0.0550916 0.12229587 0.055868804
000240 9e e1 3f be 86 ae 07 3e 6f 1b 52 3d c9 06 e0 bd
       -0.1873841 0.13250169 0.051295694 -0.10938794
000250 e6 83 48 be 00 91 cf 3b 81 72 35 be e3 46 3d 3d
       -0.19581565 0.006334424 -0.17719461 0.04621018
000260 f5 0c 70 3e 11 66 c3 3d ff bc b2 bc c3 27 d5 bd
       0.23442443 0.09540952 -0.021818636 -0.104079746
000270 c8 5a 82 3e 6f 39 fd 3d c8 3b 20 bd 9e 5b ae be
       0.25459886 0.1236447 -0.03911951 -0.34054273
000280 fe 1b 76 bd 15 c8 25 3e af 58 ec bd c9 e0 fc bd
       -0.06008529 0.16189606 -0.115403526 -0.12347562
000290 b0 a5 29 bd c0 87 89 bd ed c9 33 be 94 90 34 be
       -0.041417778 -0.067153454 -0.17557497 -0.17633277
0002a0 b7 dd 29 be 36 91 5f bd 01 94 be bd 18 db c4 bc
       -0.16588484 -0.054581843 -0.09305573 -0.024030253
0002b0 9c 6e 20 be f8 f0 ea bd f6 46 41 3d 8a 6c 4e be
       -0.15667194 -0.114717424 0.047186814 -0.20158592
0002c0 79 35 06 be aa 44 88 be 0b d8 b5 bd 12 e7 15 be
       -0.13106336 -0.26614887 -0.088790976 -0.14638928
0002d0 67 fb 3d 3c b7 e4 32 3e df 83 f8 3d c6 65 49 3b
       0.0115955835 0.1747006 0.121345274 0.0030730828
0002e0 87 cd 8a be b3 5b 5b be ac 48 8c bd 4c 84 f9 bd
       -0.2710993 -0.21421699 -0.068497986 -0.12183437
0002f0 58 e8 ea bd 19 84 e0 bd 89 38 24 be af 63 f4 3d
       -0.11470097 -0.10962696 -0.16037191 0.11933076
000300 ed f8 14 3d 14 42 27 be cc 54 31 be d5 43 f2 3c
       0.036370207 -0.163338 -0.17317504 0.02957336
000310 2f 83 52 3d 0a ae cb 3d 16 ce ae 3d b1 8e ff bc
       0.051394638 0.09945305 0.085354015 -0.03119597
000320 bc 44 2d be 13 34 f1 bd 6b 03 ae 3d 8d 3e 67 bd
       -0.16920751 -0.117775105 0.08496746 -0.056456137
000330 79 a3 ac 3e ca c3 08 bd 12 05 a9 3d e3 fd 42 be
       0.3371847 -0.033389844 0.0825292 -0.19042163
000340 1c dc ee 3d ea b7 8d 3d f3 4f 17 3e db cd 33 3e
       0.11663076 0.069198444 0.14776592 0.17558996
000350 b9 63 ad bd a3 40 b7 bc 0d 76 eb 3d ab c3 2e 3e
       -0.08466286 -0.022369688 0.11497126 0.17066829
000360 0b 1a 0f 3e 1f b2 83 3e 4f cf 5c bd 4d cc 0b 3e
       0.13974778 0.25721833 -0.053908642 0.13652153
000370 ad e4 31 be 0a 32 8f 3d 61 63 e9 3d 07 8f 68 be
       -0.17372389 0.06991966 0.11395908 -0.2271081
000380 12 46 30 bd 44 b4 0b be d1 45 71 bc f2 18 31 3e
       -0.043035574 -0.13642985 -0.014726118 0.17294672
000390 47 dc 40 bd 41 41 ab bc 24 7b 4d bd cc 78 4e 3c
       -0.047085073 -0.020905139 -0.050166264 0.012602042
0003a0 33 e8 a5 be f6 a3 0e 3e 81 aa ab 3c 66 9a 75 3e
       -0.32403716 0.13929734 0.020955326 0.2398468
0003b0 b7 62 27 be 96 3c 37 3e 58 0c 0f 3e 7b 45 1b be
       -0.1634625 0.17894205 0.13969553 -0.15163223
0003c0 06 52 78 bd 93 7f 3a 37 08 a4 74 3e 81 3e a8 3a
       -0.0606251 1.1116167e-05 0.23890698 0.001283601
0003d0 52 ab 3f bd a1 bc 13 3e bc 57 02 bd ff d8 80 3d
       -0.046794243 0.14427425 -0.03182195 0.06291389
0003e0 02 84 2c 3e 8d 88 85 3c 81 80 2a 3e 48 3d 57 3e
       0.16847232 0.016300464 0.16650583 0.2101947
0003f0 0d a2 e5 3d d3 19 19 3e 77 2b 0b 3b 9f 8e b4 bd
       0.11212549 0.14951257 0.0021235624 -0.08816265

network_body._body_endoder.seq_layers.2.bias f4 [64]
000000 67 71 0d be d1 df a4 3c 37 a5 fa bd 3e 78 d4 3d
       -0.13812791 0.020126255 -0.122385435 0.10374497
000010 60 d5 73 be 28 4b 00 3e 80 6e 90 bd 10 09 2a be
       -0.23811865 0.1252867 -0.07052326 -0.1660502
000020 f1 7a d3 bd 8c c5 8e bc 62 f6 25 3e 22 c7 30 be
       -0.103261836 -0.017428182 0.16207269 -0.17263463
000030 44 34 52 3d cb 30 ee 3c 8f 33 40 3d 9d 6b 87 bc
       0.051319376 0.029076 0.04692417 -0.016530806
000040 14 78 ad bd b9 e4 62 be 31 fb 75 bd f8 e8 7e bb
       -0.08470169 -0.22157563 -0.060054008 -0.0038896184
000050 9d 0c 08 3e 68 38 82 3c 41 d3 06 3d 07 34 fb bd
       0.13286062 0.015896037 0.03291631 -0.12265783
000060 b7 1a 57 3d 9b 8b 25 be 37 7f a2 3d 80 f3 af bc
       0.05251571 -0.16166537 0.079344206 -0.021478415
000070 82 50 31 be ec e3 9e bd 35 ca 19 3d 2c 26 97 3d
       -0.17315868 -0.077583164 0.037546355 0.073803276
000080 2a 3a 04 be b2 ef 8b 3d 24 09 8f 3d 5f 7a b0 bb
       -0.12912813 0.06832828 0.06984165 -0.0053856815
000090 8e 98 3f 3d 34 81 f8 3d 00 c8 8c bd 85 a8 0b 3e
       0.046776347 0.121340185 -0.068740845 0.13638504
0000a0 30 29 2e 3d 1f 02 25 be 86 f7 ba 3d 91 ec 60 bd
       0.04251975 -0.1611409 0.091292426 -0.054913107
0000b0 e5 07 bc 3d 46 dd 08 be 35 69 10 3e 16 33 50 3d
       0.09181193 -0.13365659 0.14102633 0.05082997
0000c0 12 36 d1 3d 56 98 91 bd 75 28 bb bd 16 a6 46 bd
       0.10215391 -0.07109134 -0.09138576 -0.048498236
0000d0 a5 dd 11 3e 73 91 9a bd 1c 6a bf bc 51 d2 04 3d
       0.14244707 -0.075472735 -0.023366027 0.032427136
0000e0 67 50 cf bd e3 13 20 be fb 01 9a 3b 4e e8 0d 3e
       -0.101227574 -0.15632586 0.004699943 0.13858148
0000f0 c7 87 a8 3d 24 3c 77 be 45 fc 0e be bf cf 03 3e
       0.082290225 -0.24144036 -0.1396342 0.12872218

action_model._continuous_distribution.log_sigma f4 [1, 2]
000000 6e 3a e9 be 7d 55 fc be
       -0.4555239 -0.49283972

action_model._continuous_distribution.mu.weight f4 [2, 64]
000000 1e 34 ab bd 16 3f 28 3d 0a 85 94 bd aa e4 21 3d
       -0.0835955 0.04107579 -0.07251938 0.03952471
000010 7b 82 1f bd 82 83 c6 3d ca 44 d7 bd 90 ef b3 bd
       -0.038942795 0.09693052 -0.10511167 -0.08785927
000020 dd 21 66 be 8a 73 cc 3d ce b8 5b 3d 70 f1 bc bd
       -0.22473855 0.09982975 0.05364304 -0.09225738
000030 d6 d2 26 3e 51 2b 2a 3c d9 8f 07 bc 0b da fe 3d
       0.16291365 0.010386304 -0.008274042 0.12443932
000040 45 8c 60 bd cc fb 99 bd 6a 54 71 bd 47 f0 d3 bd
       -0.05482127 -0.075187296 -0.058918394 -0.10348564
000050 b9 c0 a4 bc 2d 2a ba 3c eb fa a5 bd 02 54 88 bd
       -0.020111429 0.02272519 -0.081044994 -0.06656648
000060 5d 6e f1 bd 12 54 8b bd e9 9b 3b 3d cd bc b3 3d
       -0.11788628 -0.068031445 0.045802984 0.08776245
000070 55 00 83 bd 3c b6 d6 bb c8 84 bc bd 52 75 01 3d
       -0.06396548 -0.0065524857 -0.092050135 0.031606026
000080 24 21 13 3c 0e e7 39 bd eb 87 b4 3d 67 22 e5 bd
       0.008980069 -0.045386367 0.08814987 -0.11188202
000090 60 93 09 3c d7 47 ec bc 57 db 40 bd e5 03 d5 3d
       0.008396953 -0.02884285 -0.04708418 0.104011334
0000a0 e0 74 b9 bd e0 37 94 bd ff 3d e6 ba a4 0f af 3d
       -0.09055495 -0.0723722 -0.0017566084 0.08547905
0000b0 59 9b 25 bc 87 90 a0 3c 1e 64 aa 3b 2a d6 67 bd
       -0.010107839 0.019600166 0.005199923 -0.056600727
0000c0 c1 0b f1 3d 64 5a 17 bd ca 29 60 bd 9b 51 10 be
       0.1176982 -0.036951438 -0.054727353 -0.1409363
0000d0 75 b4 a7 3d 28 a7 4c 3d 8d 60 97 3d db 71 5b bd
       0.08188716 0.0499641 0.073914625 -0.053575378
0000e0 e9 4d c2 3c d2 db 31 bd 97 9e 57 be b6 29 91 bc
       0.023718791 -0.043422528 -0.21056591 -0.017720085
0000f0 44 c2 e5 3c f3 00 80 bd aa 11 0d bb 74 f8 e4 3d
       0.028046735 -0.06250181 -0.0021525421 0.11180201
000100 31 8e 16 bd 87 54 8d 3d 79 40 36 bd 87 81 b8 3c
       -0.036756698 0.06900888 -0.04449508 0.022522701
000110 51 67 f7 bd 73 09 89 3d 4c b9 8d bd d9 ca 10 be
       -0.12080253 0.066912554 -0.06920108 -0.1413988
000120 58 54 d0 bd 96 6a 56 ba 5c c1 0e 3e 85 48 fd bd
       -0.10172337 -0.00081793347 0.13940948 -0.12367348
000130 fb 5e d4 3d 09 25 3b 3d 03 40 90 3c 91 2a 50 bb
       0.103696786 0.045689616 0.017608648 -0.0031763653
000140 87 2e 88 3c 5e 31 5b bd 71 a6 c9 bd 9d 4e 1a 3d
       0.016623748 -0.053513877 -0.09846199 0.037672628
000150 79 88 23 3e f9 ff 4a 3d c1 f9 c2 3d d7 20 00 bd
       0.15970029 0.04956052 0.09520293 -0.03128132
000160 c7 4c dd 3d a1 48 3f be c2 d8 25 3d 52 52 d4 3c
       0.1080566 -0.1868005 0.04048992 0.02591816
000170 45 ed 1d be 3c b6 41 be aa e8 71 3d e0 a4 64 3d
       -0.15422542 -0.18917173 0.059059776 0.0558213
000180 53 c7 11 be 75 ca 7d 3d 3e fb cb 3c 7b f4 87 3d
       -0.14236192 0.061960656 0.024900075 0.06638428
000190 a1 79 5b 3c 59 f4 f1 3d c1 1f fb 3c b6 86 be 3d
       0.013395698 0.11814184 0.03065479 0.09303038
0001a0 d7 a7 a2 3d 38 cf 31 be 48 18 75 3d da fd 9f 3c
       0.07942169 -0.17364204 0.05983761 0.019530226
0001b0 33 ef c0 3c 9c 9a f7 bd c9 e1 e5 3d 40 12 37 3d
       0.02355156 -0.12090036 0.11224706 0.04469514
0001c0 db 19 31 3d d1 4a 2e be 3d 63 96 be 49 f2 26 be
       0.04323755 -0.17020728 -0.29372588 -0.16303362
0001d0 e1 b0 0b 3e 28 cd 31 be 03 ff a5 3c 78 37 9c 3d
       0.13641693 -0.17363417 0.0202632 0.07627767
0001e0 19 3d 50 be 8c 78 1f be cc dd 8b 3d 58 48 7b 3d
       -0.20335807 -0.15573329 0.06829414 0.06134829
0001f0 89 18 f3 3c 4f e5 ac bd ae 51 1d be 79 8f 62 3d
       0.029674785 -0.08442175 -0.1536319 0.055312607

action_model._continuous_distribution.mu.bias f4 [2]
000000 43 09 a2 3c 22 76 57 3e
       0.019779807 0.21041158

exp_avg f4 [64, 131]
000000 f7 26 77 3b 00 00 00 00 00 00 00 00 00 00 00 00
       0.0037712434 0.0 0.0 0.0
000010 1e 6b cf ba d8 5a 0a ba 30 d3 8e 3b 00 00 00 00
       -0.001582477 -0.0005277819 0.0043586716 0.0
000020 00 00 00 00 00 00 00 00 8e e9 1f bb 3e 8f 2b ba
       0.0 0.0 -0.0024400684 -0.0006544477
000030 21 26 92 bb 00 00 00 00 00 00 00 00 00 00 00 00
       -0.0044601117 0.0 0.0 0.0
000040 7e 4e 1a 3b a6 1d 30 3a eb 03 d1 3b 00 00 00 00
       0.002354532 0.0006718285 0.006378641 0.0
000050 00 00 00 00 00 00 00 00 2a 21 7c bb 71 61 ee ba
       0.0 0.0 -0.0038471916 -0.0018186999
000060 c6 9c f0 ba 00 00 00 00 00 00 00 00 00 00 00 00
       -0.0018357269 0.0 0.0 0.0
000070 8d c9 53 3a b3 68 c0 38 85 90 87 3b 00 00 00 00
       0.00080790446 9.174775e-05 0.004137101 0.0
000080 00 00 00 00 00 00 00 00 50 3c 8b bb 97 b8 51 bb
       0.0 0.0 -0.004249133 -0.0032000893
000090 78 18 95 3b 00 00 00 00 00 00 00 00 00 00 00 00
       0.004550036 0.0 0.0 0.0
0000a0 52 dc a0 bb 93 33 5d bb af 00 c9 bb 00 00 00 00
       -0.0049090767 -0.0033752664 -0.0061341147 0.0
0000b0 00 00 00 00 00 00 00 00 8c ec a8 3a 7b 78 c4 ba
       0.0 0.0 0.0012887879 -0.0014989519
0000c0 fc ee 88 3b 00 00 00 00 00 00 00 00 00 00 00 00
       0.00417888 0.0 0.0 0.0
0000d0 74 7e 9a bb be 2d 73 bb b0 40 97 ba 00 00 00 00
       -0.0047147814 -0.0037106122 -0.0011539664 0.0
0000e0 00 00 00 00 00 00 00 00 75 de 8b b9 a3 ef 47 ba
       0.0 0.0 -0.0002667789 -0.0007626956
0000f0 e3 09 59 3b 00 00 00 00 00 00 00 00 00 00 00 00
       0.0033117465 0.0 0.0 0.0
000100 1e 03 e7 ba a3 89 18 ba 98 c5 6b 3b 00 00 00 00
       -0.001762483 -0.00058188493 0.003597593 0.0
000110 00 00 00 00 00 00 00 00 45 ae 1e bb b3 3c b2 39
       0.0 0.0 -0.002421276 0.0003399603
000120 aa 45 e4 ba 00 00 00 00 00 00 00 00 00 00 00 00
       -0.0017415781 0.0 0.0 0.0
000130 15 ed df 3a b9 06 36 3a 58 66 86 3b 00 00 00 00
       0.0017084206 0.0006943751 0.004101556 0.0
000140 00 00 00 00 00 00 00 00 e7 d3 3e bb db 47 b3 b9
       0.0 0.0 -0.0029118003 -0.00034195077
000150 ca 33 f6 ba 00 00 00 00 00 00 00 00 00 00 00 00
       -0.0018783745 0.0 0.0 0.0
000160 20 35 de 3a bb c9 96 3a 26 60 50 3b 00 00 00 00
       0.0016953088 0.0011504212 0.003179559 0.0
000170 00 00 00 00 00 00 00 00 ae 5e 50 bb 9b 63 0a bb
       0.0 0.0 -0.0031794715 -0.0021116498
000180 fc 3d 35 3b 00 00 00 00 00 00 00 00 00 00 00 00
       0.0027655354 0.0 0.0 0.0
000190 a7 3d 35 bb 7b d1 ec 38 07 11 7a ba 00 00 00 00
       -0.0027655156 0.00011292376 -0.00095392804 0.0
0001a0 00 00 00 00 00 00 00 00 b0 00 7a 3a fd f7 66 39
       0.0 0.0 0.00095368456 0.00022026892
0001b0 be 98 5e 3b 00 00 00 00 00 00 00 00 00 00 00 00
       0.0033965553 0.0 0.0 0.0
0001c0 65 5e 5e bb 23 8c 9a ba 3c 7e 18 bb 00 00 00 00
       -0.0033930775 -0.0011791032 -0.00232686 0.0
0001d0 00 00 00 00 00 00 00 00 fb 25 10 3b db d4 bd 3a
       0.0 0.0 0.0021995294 0.0014482992
0001e0 d0 a0 0b bb 85 44 16 bb 62 cd a1 ba 44 35 0c bb
       -0.0021305569 -0.0022929024 -0.0012344534 -0.0021394053
0001f0 5b c4 09 3b d7 f9 fb ba 20 0d 3e 39 1f f9 ee 3a
       0.0021021578 -0.0019224238 0.00018124701 0.0018232203
000200 57 fc 17 3b 11 7b 1a bb 47 ec c6 b9 b8 12 87 b9
       0.0023191178 -0.0023571888 -0.00037941543 -0.00025763153
000210 00 00 00 00 00 00 00 00 00 00 00 00 aa d9 59 b9
       0.0 0.0 0.0 -0.00020775819
000220 8f b6 a9 b9 bd 59 97 b9 00 00 00 00 00 00 00 00
       -0.0003237021 -0.00028867825 0.0 0.0
000230 00 00 00 00 0d d2 11 b9 ff be 9e b9 66 7f aa b7
       0.0 -0.00013906528 -0.00030278412 -2.0324904e-05
000240 00 00 00 00 00 00 00 00 00 00 00 00 62 bd ad b9
       0.0 0.0 0.0 -0.00033138233
000250 c0 eb b5 b9 7d dc c2 b9 00 00 00 00 00 00 00 00
       -0.00034698658 -0.0003716684 0.0 0.0
000260 00 00 00 00 07 02 9d b8 6b 40 82 b9 fc b2 15 b9
       0.0 -7.486721e-05 -0.00024843527 -0.00014276424
000270 00 00 00 00 00 00 00 00 00 00 00 00 5e 51 3f 38
       0.0 0.0 0.0 4.5613728e-05
000280 e3 51 a3 b7 a6 21 2c b9 00 00 00 00 00 00 00 00
       -1.9469246e-05 -0.00016415733 0.0 0.0
000290 00 00 00 00 40 84 00 ba ea 83 21 ba fe 24 b0 b8
       0.0 -0.0004902519 -0.00061613193 -8.399224e-05
0002a0 00 00 00 00 00 00 00 00 00 00 00 00 40 7b fb b9
       0.0 0.0 0.0 -0.0004796628
0002b0 ac 2a 16 ba 18 1c 08 38 00 00 00 00 00 00 00 00
       -0.00057284045 3.245109e-05 0.0 0.0
0002c0 00 00 00 00 f6 eb 20 ba 56 a0 27 ba 21 ed ee b9
       0.0 -0.00061386765 -0.00063944364 -0.00045571572
0002d0 00 00 00 00 00 00 00 00 00 00 00 00 58 9f 53 b9
       0.0 0.0 0.0 -0.00020181888
0002e0 9b b8 14 ba 62 87 da b8 00 00 00 00 00 00 00 00
       -0.00056732603 -0.00010420267 0.0 0.0
0002f0 00 00 00 00 45 ec 68 b9 ea e5 99 b9 d2 39 32 b9
       0.0 -0.00022213261 -0.00029353733 -0.00016996943
000300 00 00 00 00 00 00 00 00 00 00 00 00 96 97 b6 39
       0.0 0.0 0.0 0.00034826685
000310 d3 a5 ad 39 64 ad 5b b9 00 00 00 00 00 00 00 00
       0.0003312068 -0.0002095006 0.0 0.0
000320 00 00 00 00 3c 76 c1 39 70 28 a4 39 26 ba 2d 35
       0.0 0.0003689992 0.00031310646 6.4718404e-07
000330 00 00 00 00 00 00 00 00 00 00 00 00 67 21 7a 39
       0.0 0.0 0.0 0.00023854301
000340 8a 17 a4 39 e4 25 83 b9 00 00 00 00 00 00 00 00
       0.00031298056 -0.00025014498 0.0 0.0
000350 00 00 00 00 c7 08 d2 39 6c c7 ac 39 70 42 67 b9
       0.0 0.0004006086 0.00032954977 -0.00022054627
000360 00 00 00 00 00 00 00 00 00 00 00 00 9c 78 15 b8
       0.0 0.0 0.0 -3.5636695e-05
000370 1e 8f 0f b9 79 43 d7 b8 00 00 00 00 00 00 00 00
       -0.00013690858 -0.00010264567 0.0 0.0
000380 00 00 00 00 17 49 d7 38 d4 a4 dd 38 4c bc bf b9
       0.0 0.00010265613 0.00010568803 -0.0003657065
000390 00 00 00 00 00 00 00 00 00 00 00 00 9e bc bf 39
       0.0 0.0 0.0 0.0003657089
0003a0 da d0 f6 38 c5 92 a4 b8 00 00 00 00 00 00 00 00
       0.00011769096 -7.847467e-05 0.0 0.0
0003b0 00 00 00 00 26 7e a4 38 24 57 9d 38 df 34 89 b9
       0.0 7.8436264e-05 7.5025746e-05 -0.00026170068
0003c0 00 00 00 00 00 00 00 00 00 00 00 00 df 41 89 39
       0.0 0.0 0.0 0.00026179754
0003d0 5f 6c 23 39 b5 2c 3d b9 00 00 00 00 00 00 00 00
       0.00015585263 -0.00018041099 0.0 0.0
0003e0 00 00 00 00 71 54 55 39 bc 84 2f 39 17 23 fa b9
       0.0 0.0002034472 0.00016738748 -0.0004770986
0003f0 d9 5e 83 b9 fc 3f be b9 fb 0e 1c ba 90 28 0b 3a
       -0.00025056934 -0.00036287296 -0.000595316 0.00053084735

exp_avg_sq f4 [64, 131]
000000 f4 8b 88 39 00 00 00 00 00 00 00 00 00 00 00 00
       0.00026044215 0.0 0.0 0.0
000010 fb d1 87 39 98 89 8a 39 cd 0e b1 39 00 00 00 00
       0.00025905654 0.00026423926 0.00033771098 0.0
000020 00 00 00 00 00 00 00 00 ef 6a 8d 39 b1 81 85 39
       0.0 0.0 0.00026973287 0.00025464364
000030 fe cb b3 39 00 00 00 00 00 00 00 00 00 00 00 00
       0.00034293527 0.0 0.0 0.0
000040 fe a8 8a 39 98 ae 8b 39 9a f4 76 39 00 00 00 00
       0.0002644732 0.00026642228 0.0002355151 0.0
000050 00 00 00 00 00 00 00 00 2b 5a 7e 39 b3 72 83 39
       0.0 0.0 0.00024256918 0.00025071725
000060 0e 68 bd 3a 00 00 00 00 00 00 00 00 00 00 00 00
       0.0014450566 0.0 0.0 0.0
000070 23 d8 bc 39 5c eb 72 39 7c 59 84 39 00 00 00 00
       0.0003601919 0.00023166597 0.00025243673 0.0
000080 00 00 00 00 00 00 00 00 ea be 6b 39 b6 ea 60 39
       0.0 0.0 0.00022482467 0.00021449741
000090 2b aa ae 39 00 00 00 00 00 00 00 00 00 00 00 00
       0.0003331465 0.0 0.0 0.0
0000a0 f6 5f 86 39 8c c9 5b 39 cf 84 10 3a 00 00 00 00
       0.00025629968 0.0002096055 0.0005512954 0.0
0000b0 00 00 00 00 00 00 00 00 24 42 94 39 c9 57 61 39
       0.0 0.0 0.00028278038 0.00021490375
0000c0 40 8d 6d 39 00 00 00 00 00 00 00 00 00 00 00 00
       0.00022654701 0.0 0.0 0.0
0000d0 a2 33 62 39 69 7d 59 39 2c 20 b8 3a 00 00 00 00
       0.00021572274 0.00020741452 0.0014047674 0.0
0000e0 00 00 00 00 00 00 00 00 1a 57 ef 39 8c f0 7c 39
       0.0 0.0 0.00045650528 0.00024122203
0000f0 22 c8 6d 39 00 00 00 00 00 00 00 00 00 00 00 00
       0.00022676637 0.0 0.0 0.0
000100 8e c5 ef 38 48 8e 02 38 47 6f a3 39 00 00 00 00
       0.000114332055 3.1126925e-05 0.0003117269 0.0
000110 00 00 00 00 00 00 00 00 07 e1 4d 39 b7 a8 88 38
       0.0 0.0 0.00019634153 6.516411e-05
000120 70 8b ae 39 00 00 00 00 00 00 00 00 00 00 00 00
       0.00033291755 0.0 0.0 0.0
000130 0d 13 16 39 eb 23 a2 37 aa a7 65 39 00 00 00 00
       0.00014312212 1.932863e-05 0.00021901602 0.0
000140 00 00 00 00 00 00 00 00 37 5b 1e 39 f2 84 92 38
       0.0 0.0 0.00015102034 6.9865855e-05
000150 0e 49 b8 3a 00 00 00 00 00 00 00 00 00 00 00 00
       0.0014059858 0.0 0.0 0.0
000160 82 07 0b 3a c4 5b 1f 39 04 9d 55 39 00 00 00 00
       0.0005303548 0.00015197607 0.00020371756 0.0
000170 00 00 00 00 00 00 00 00 4f 9c 55 39 93 97 a6 38
       0.0 0.0 0.00020371492 7.94373e-05
000180 23 47 a1 39 00 00 00 00 00 00 00 00 00 00 00 00
       0.00030761314 0.0 0.0 0.0
000190 da 46 a1 39 6f 32 20 39 1e b1 4a 38 00 00 00 00
       0.00030761102 0.00015277577 4.8325506e-05 0.0
0001a0 00 00 00 00 00 00 00 00 49 ac 4a 38 06 7a 2a 37
       0.0 0.0 4.8321006e-05 1.01612e-05
0001b0 f7 c6 5a 39 00 00 00 00 00 00 00 00 00 00 00 00
       0.0002086422 0.0 0.0 0.0
0001c0 69 88 5a 39 6a d3 23 39 cc 80 ab 3a 00 00 00 00
       0.00020840917 0.00015623649 0.0013084649 0.0
0001d0 00 00 00 00 00 00 00 00 51 2b 5a 3a fc cb 2e 39
       0.0 0.0 0.00083224947 0.00016669923
0001e0 e4 af 1b 39 25 3f 03 39 63 f0 39 39 d7 f0 27 39
       0.00014847476 0.00012516657 0.00017732526 0.00016016081
0001f0 4d d1 60 39 e0 3a 3f 39 ca 8d 3c 39 12 5b 48 39
       0.00021440275 0.00018237112 0.00017981898 0.00019107413
000200 74 eb 51 39 9e c6 75 39 a3 1a 7b 39 49 78 17 36
       0.00020019506 0.00023439011 0.00023947148 2.2570769e-06
000210 00 00 00 00 00 00 00 00 00 00 00 00 16 dd 2d 38
       0.0 0.0 0.0 4.1452317e-05
000220 f2 31 4a 38 9b f7 7c 36 00 00 00 00 00 00 00 00
       4.8207068e-05 3.7695052e-06 0.0 0.0
000230 00 00 00 00 9f 0f 1c 38 f8 07 3f 38 a6 7c 8b 36
       0.0 3.7207847e-05 4.554537e-05 4.157034e-06
000240 00 00 00 00 00 00 00 00 00 00 00 00 dc a6 34 38
       0.0 0.0 0.0 4.3070744e-05
000250 fa af 4b 38 41 e5 fe 36 00 00 00 00 00 00 00 00
       4.8562863e-05 7.5964786e-06 0.0 0.0
000260 00 00 00 00 88 1b 1d 38 2a fb 3d 38 73 6f 9e 36
       0.0 3.7457357e-05 4.5295026e-05 4.7217413e-06
000270 00 00 00 00 00 00 00 00 00 00 00 00 12 57 27 38
       0.0 0.0 0.0 3.9896993e-05
000280 06 fc 3c 38 c4 0e 01 36 00 00 00 00 00 00 00 00
       4.5057408e-05 1.9231093e-06 0.0 0.0
000290 00 00 00 00 0b 6b ea 37 b0 29 0e 38 bf 6c 6d 36
       0.0 2.794482e-05 3.3894263e-05 3.537905e-06
0002a0 00 00 00 00 00 00 00 00 00 00 00 00 2f 41 d3 37
       0.0 0.0 0.0 2.5183514e-05
0002b0 60 a0 04 38 ab 66 ae 36 00 00 00 00 00 00 00 00
       3.1620613e-05 5.197556e-06 0.0 0.0
0002c0 00 00 00 00 c2 d7 f9 37 ab a4 0f 38 6b c8 12 37
       0.0 2.9783583e-05 3.4247216e-05 8.748942e-06
0002d0 00 00 00 00 00 00 00 00 00 00 00 00 2c 6a dc 37
       0.0 0.0 0.0 2.6275484e-05
0002e0 53 2d 04 38 d5 a2 b5 36 00 00 00 00 00 00 00 00
       3.1513464e-05 5.4131765e-06 0.0 0.0
0002f0 00 00 00 00 c2 71 1b 38 e6 e4 35 38 d3 e0 15 36
       0.0 3.7060825e-05 4.336694e-05 2.2333595e-06
000300 00 00 00 00 00 00 00 00 00 00 00 00 4c 7a af 36
       0.0 0.0 0.0 5.2296436e-06
000310 92 78 94 36 9b aa 7d 36 00 00 00 00 00 00 00 00
       4.42478e-06 3.7799243e-06 0.0 0.0
000320 00 00 00 00 78 2e e7 36 8d ee bf 36 c6 4c c9 36
       0.0 6.889746e-06 5.7200145e-06 5.9992044e-06
000330 00 00 00 00 00 00 00 00 00 00 00 00 15 50 da 36
       0.0 0.0 0.0 6.506229e-06
000340 5c 13 89 36 58 d7 15 37 00 00 00 00 00 00 00 00
       4.085172e-06 8.931231e-06 0.0 0.0
000350 00 00 00 00 db 73 2a 37 f4 59 cb 36 07 99 56 37
       0.0 1.0159764e-05 6.0603434e-06 1.2791023e-05
000360 00 00 00 00 00 00 00 00 00 00 00 00 46 62 ad 37
       0.0 0.0 0.0 2.066897e-05
000370 0f 07 b4 37 90 ba 1f 36 00 00 00 00 00 00 00 00
       2.1460959e-05 2.380144e-06 0.0 0.0
000380 00 00 00 00 a3 bf 1f 36 30 33 a3 35 77 60 8b 36
       0.0 2.3804394e-06 1.2159344e-06 4.153753e-06
000390 00 00 00 00 00 00 00 00 00 00 00 00 19 62 8b 36
       0.0 0.0 0.0 4.153943e-06
0003a0 62 fa 37 36 63 6e 45 36 00 00 00 00 00 00 00 00
       2.7414867e-06 2.941954e-06 0.0 0.0
0003b0 00 00 00 00 26 60 45 36 65 3f 68 35 07 93 12 37
       0.0 2.9411253e-06 8.6518986e-07 8.736511e-06
0003c0 00 00 00 00 00 00 00 00 00 00 00 00 d4 98 12 37
       0.0 0.0 0.0 8.737861e-06
0003d0 3e 09 6e 36 d4 ea 9a 37 00 00 00 00 00 00 00 00
       3.5470143e-06 1.8467581e-05 0.0 0.0
0003e0 00 00 00 00 7b 6d 67 37 31 84 92 36 ae d0 04 38
       0.0 1.3794163e-05 4.366528e-06 3.16656e-05
0003f0 85 ae da 37 18 a4 1e 38 e3 b5 1f 38 c3 f3 2a 38
       2.6068892e-05 3.782296e-05 3.807795e-05 4.075818e-05

exp_avg f4 [64]
000000 14 95 3d 3b 52 80 f4 39 3b 45 f7 bb 57 a8 26 3a
       0.0028927969 0.00046634913 -0.0075460947 0.0006357482
000010 93 d0 cd 39 4d ef 09 3a 13 48 0a 3b 8f cd 8f 39
       0.00039256047 0.0005261794 0.0021100088 0.00027428239
000020 a2 f1 88 39 23 99 a6 38 1c 24 ae 3b cf bd db 3a
       0.00026119972 7.944021e-05 0.005314363 0.0016764941
000030 68 35 05 3a cc fb 25 ba 0b 87 bb 3b 41 93 d1 ba
       0.00050815055 -0.0006331771 0.0057228855 -0.001598932
000040 5d c3 e4 3a cf 4e 29 3b 39 bd 54 ba 2e ac d5 39
       0.0017453242 0.0025834327 -0.00081153546 0.0004075481
000050 42 50 93 3a c2 b0 9f 39 d0 35 0e 3a e7 c5 da b9
       0.0011239129 0.00030458538 0.0005424889 -0.0004172765
000060 1c 38 3a 3a af 07 85 3b 65 b4 8f ba 3b c9 73 3a
       0.0007103698 0.004059754 -0.0010963796 0.00092997
000070 d7 9e cd 3a 9d fb 44 ba 1f c3 08 3b c1 79 0b 39
       0.0015687597 -0.00075143 0.0020868254 0.0001330143
000080 c8 a6 c4 b9 4f a0 42 ba 21 f2 a2 ba 6e c4 4d 3b
       -0.00037508295 -0.00074244005 -0.0012431779 0.0031397599
000090 d6 c4 cf 39 5f 79 af 3a ea 0d fa 39 0d 7f 56 3b
       0.0003962877 0.0013387612 0.00047694083 0.0032729537
0000a0 91 9c 0c 3a 80 45 fd b9 16 17 01 3b ed ed 80 3b
       0.00053639064 -0.00048307702 0.0019697598 0.003934613
0000b0 fa 00 2d ba 17 7c de 39 96 6c 81 3a c9 20 8b 39
       -0.0006599572 0.00042435594 0.000987428 0.00026536573
0000c0 f8 64 e7 39 28 5c 44 bb f1 07 56 38 99 08 09 ba
       0.0004413498 -0.0029962156 5.1028972e-05 -0.00052274164
0000d0 c2 de 63 3b f2 16 1f 3b 38 17 bd b7 8d 98 87 3b
       0.0034770225 0.002427515 -2.2541368e-05 0.0041380585
0000e0 35 45 40 ba 0b 38 21 3b d7 35 d8 b8 e9 2e 4f 3a
       -0.00073345314 0.0024600055 -0.00010309711 0.00079034135
0000f0 58 64 fb b9 31 87 a0 3a 13 75 07 b8 a8 20 7e ba
       -0.00047949213 0.0012247321 -3.2295542e-05 -0.0009694197

exp_avg_sq f4 [64]
000000 ae 3a 3d 39 c5 39 17 38 7c 00 6b 3a 7b 3a 20 38
       0.00018046304 3.6055008e-05 0.0008964611 3.8201437e-05
000010 ee 5c 93 38 16 5a e7 37 6a ac f1 38 7a 2b 04 39
       7.026816e-05 2.7579295e-05 0.0001152389 0.00012604697
000020 e7 3f 73 37 fd 79 42 37 18 1a 9e 39 27 0c 14 39
       1.4498807e-05 1.1591704e-05 0.0003015555 0.00014118907
000030 3c aa 22 38 0b 89 2c 38 a6 09 b7 39 46 63 60 38
       3.8782353e-05 4.1135627e-05 0.0003491167 5.3498217e-05
000040 0b c7 18 38 49 ab d5 38 0f dd c8 37 66 0e 1f 37
       3.6424997e-05 0.00010188536 2.3944796e-05 9.480491e-06
000050 e8 c8 87 38 8a aa 48 38 75 08 9c 38 b1 2b 46 38
       6.474723e-05 4.7842543e-05 7.440235e-05 4.724757e-05
000060 1f f6 7c 37 ea e5 12 39 1f 30 30 38 7c c3 ac 38
       1.5077675e-05 0.00014009295 4.2006486e-05 8.238011e-05
000070 d7 9e 50 38 61 f1 d1 37 5e 95 b0 38 ff e3 ad 38
       4.9738996e-05 2.5027142e-05 8.420156e-05 8.2917504e-05
000080 9e 91 90 38 33 39 30 37 01 3a 92 38 4a 3e 03 39
       6.8935784e-05 1.0503735e-05 6.9726266e-05 0.00012516338
000090 6b f3 8c 38 ff c1 25 38 58 fb 30 39 83 6f 07 39
       6.72106e-05 3.951974e-05 0.00016878301 0.00012916145
0000a0 bb 3d 67 38 bb 21 3a 38 7b 55 a1 37 c2 ea aa 39
       5.5132183e-05 4.437727e-05 1.92325e-05 0.00032599835
0000b0 88 33 8c 38 8f 7f 79 37 0c 4b a6 38 3c 3b 52 37
       6.685319e-05 1.4871256e-05 7.9294754e-05 1.2530767e-05
0000c0 60 af b1 36 64 a0 8b 39 c4 d5 f0 36 a0 c9 a8 37
       5.2954274e-06 0.00026631646 7.177443e-06 2.012105e-05
0000d0 2c 4a 38 39 fe ee fb 37 2f 6d 4e 36 d5 6a a6 39
       0.00017575239 3.0032821e-05 3.0759945e-06 0.00031741583
0000e0 0c 02 60 38 10 2a de 37 b7 6a 8d 38 cc 28 3b 38
       5.3407668e-05 2.648405e-05 6.743281e-05 4.462227e-05
0000f0 f4 69 b6 37 23 51 a9 37 9e 4a 1a 37 4c b2 b6 38
       2.1745429e-05 2.0184152e-05 9.1964885e-06 8.711647e-05
