results/Run00/OpponentML/OpponentML-2999959.onnx (onnx, 54547 bytes, 11 tensors)

60 f4 [120]
0.204699 0.0005773541 0.0005773541 0.0005773541 0.41662535 0.38867304 0.27141675 0.0005773541
0.0005773541 0.0005773541 0.4385282 0.39755395 0.18429682 0.0005773541 0.0005773541 0.0005773541
0.41081694 0.38754785 0.2853854 0.0005773541 0.0005773541 0.0005773541 0.4436215 0.39825743
0.20530653 0.0005773541 0.0005773541 0.0005773541 0.43460628 0.40547323 0.21127366 0.0005773541
0.0005773541 0.0005773541 0.37267372 0.33377713 0.28023082 0.0005773541 0.0005773541 0.0005773541
0.40421754 0.34894815 0.1910821 0.0005773541 0.0005773541 0.0005773541 0.36450997 0.3314239
0.29473597 0.0005773541 0.0005773541 0.0005773541 0.41155517 0.35043657 0.21270122 0.0005773541
0.0005773541 0.0005773541 0.3972256 0.35766444 0.21764037 0.0005773541 0.0005773541 0.0005773541
0.31261203 0.2546838 0.2886277 0.0005773541 0.0005773541 0.0005773541 0.35865584 0.28096166
0.19755615 0.0005773541 0.0005773541 0.0005773541 0.30078676 0.25010195 0.3036448 0.0005773541
0.0005773541 0.0005773541 0.36918026 0.28385434 0.21979359 0.0005773541 0.0005773541 0.0005773541
0.34679753 0.2907416 0.22373159 0.0005773541 0.0005773541 0.0005773541 0.22373287 0.10682344
0.29667607 0.0005773541 0.0005773541 0.0005773541 0.29667646 0.17209941 0.20382516 0.0005773541
0.0005773541 0.0005773541 0.20382747 0.09081979 0.31217417 0.0005773541 0.0005773541 0.0005773541
0.3123529 0.17855456 0.22665593 0.0005773541 0.0005773541 0.0005773541 0.2764083 0.18491513
00000000: 9d9c 513e 9459 173a 9459 173a 9459 173a
00000010: eb4f d53e 2700 c73e 23f7 8a3e 9459 173a
00000020: 9459 173a 9459 173a c586 e03e 318c cb3e
00000030: 4eb8 3c3e 9459 173a 9459 173a 9459 173a
00000040: 9956 d23e ac6c c63e 091e 923e 9459 173a
00000050: 9459 173a 9459 173a 5b22 e33e 66e8 cb3e
00000060: e03b 523e 9459 173a 9459 173a 9459 173a
00000070: b784 de3e 309a cf3e 1f58 583e 9459 173a
00000080: 9459 173a 9459 173a 17cf be3e d6e4 aa3e
00000090: 6a7a 8f3e 9459 173a 9459 173a 9459 173a
000000a0: 9af5 ce3e 55a9 b23e 07ab 433e 9459 173a
000000b0: 9459 173a 9459 173a 0da1 ba3e 65b0 a93e
000000c0: a2e7 963e 9459 173a 9459 173a 9459 173a
000000d0: 5cb7 d23e 6c6c b33e 59ce 593e 9459 173a
000000e0: 9459 173a 9459 173a 2761 cb3e cb1f b73e
000000f0: 1edd 5e3e 9459 173a 9459 173a 9459 173a
00000100: af0e a03e ea65 823e 03c7 933e 9459 173a
00000110: 9459 173a 9459 173a bda1 b73e 35da 8f3e
00000120: 294c 4a3e 9459 173a 9459 173a 9459 173a
00000130: b900 9a3e 5d0d 803e 5577 9b3e 9459 173a
00000140: 9459 173a 9459 173a 3205 bd3e 5b55 913e
00000150: 9211 613e 9459 173a 9459 173a 9459 173a
00000160: 728f b13e 15dc 943e e519 653e 9459 173a
00000170: 9459 173a 9459 173a 3b1a 653e 3fc6 da3d
00000180: ede5 973e 9459 173a 9459 173a 9459 173a
00000190: fae5 973e d43a 303e 8bb7 503e 9459 173a
000001a0: 9459 173a 9459 173a 26b8 503e baff b93d
000001b0: 4bd5 9f3e 9459 173a 9459 173a 9459 173a
000001c0: b8ec 9f3e 02d7 363e 7e18 683e 9459 173a
000001d0: 9459 173a 9459 173a 6485 8d3e 645a 3d3e

63 f4 [11]
129.46274 71.56971 129.88097 0.49069005 0.5042727 0.5059216 0.49638647 141.02672
55.782196 140.95985 0.5915542
00000000: 7676 0143 b123 8f42 87e1 0143 ba3b fb3e
00000010: 0418 013f 1484 013f 5e26 fe3e d706 0d43
00000020: f820 5f42 b9f5 0c43 1970 173f

action_model._continuous_distribution.log_sigma f4 [1, 2]
-0.4555239 -0.49283972
00000000: 6e3a e9be 7d55 fcbe

action_model._continuous_distribution.mu.bias f4 [2]
0.019779807 0.21041158
00000000: 4309 a23c 2276 573e

action_model._continuous_distribution.mu.weight f4 [2, 64]
-0.0835955 0.04107579 -0.07251938 0.03952471 -0.038942795 0.09693052 -0.10511167 -0.08785927
-0.22473855 0.09982975 0.05364304 -0.09225738 0.16291365 0.010386304 -0.008274042 0.12443932
-0.05482127 -0.075187296 -0.058918394 -0.10348564 -0.020111429 0.02272519 -0.081044994 -0.06656648
-0.11788628 -0.068031445 0.045802984 0.08776245 -0.06396548 -0.0065524857 -0.092050135 0.031606026
0.008980069 -0.045386367 0.08814987 -0.11188202 0.008396953 -0.02884285 -0.04708418 0.104011334
-0.09055495 -0.0723722 -0.0017566084 0.08547905 -0.010107839 0.019600166 0.005199923 -0.056600727
0.1176982 -0.036951438 -0.054727353 -0.1409363 0.08188716 0.0499641 0.073914625 -0.053575378
0.023718791 -0.043422528 -0.21056591 -0.017720085 0.028046735 -0.06250181 -0.0021525421 0.11180201
-0.036756698 0.06900888 -0.04449508 0.022522701 -0.12080253 0.066912554 -0.06920108 -0.1413988
-0.10172337 -0.00081793347 0.13940948 -0.12367348 0.103696786 0.045689616 0.017608648 -0.0031763653
0.016623748 -0.053513877 -0.09846199 0.037672628 0.15970029 0.04956052 0.09520293 -0.03128132
0.1080566 -0.1868005 0.04048992 0.02591816 -0.15422542 -0.18917173 0.059059776 0.0558213
-0.14236192 0.061960656 0.024900075 0.06638428 0.013395698 0.11814184 0.03065479 0.09303038
0.07942169 -0.17364204 0.05983761 0.019530226 0.02355156 -0.12090036 0.11224706 0.04469514
0.04323755 -0.17020728 -0.29372588 -0.16303362 0.13641693 -0.17363417 0.0202632 0.07627767
-0.20335807 -0.15573329 0.06829414 0.06134829 0.029674785 -0.08442175 -0.1536319 0.055312607
00000000: 1e34 abbd 163f 283d 0a85 94bd aae4 213d
00000010: 7b82 1fbd 8283 c63d ca44 d7bd 90ef b3bd
00000020: dd21 66be 8a73 cc3d ceb8 5b3d 70f1 bcbd
00000030: d6d2 263e 512b 2a3c d98f 07bc 0bda fe3d
00000040: 458c 60bd ccfb 99bd 6a54 71bd 47f0 d3bd
00000050: b9c0 a4bc 2d2a ba3c ebfa a5bd 0254 88bd
00000060: 5d6e f1bd 1254 8bbd e99b 3b3d cdbc b33d
00000070: 5500 83bd 3cb6 d6bb c884 bcbd 5275 013d
00000080: 2421 133c 0ee7 39bd eb87 b43d 6722 e5bd
00000090: 6093 093c d747 ecbc 57db 40bd e503 d53d
000000a0: e074 b9bd e037 94bd ff3d e6ba a40f af3d
000000b0: 599b 25bc 8790 a03c 1e64 aa3b 2ad6 67bd
000000c0: c10b f13d 645a 17bd ca29 60bd 9b51 10be
000000d0: 75b4 a73d 28a7 4c3d 8d60 973d db71 5bbd
000000e0: e94d c23c d2db 31bd 979e 57be b629 91bc
000000f0: 44c2 e53c f300 80bd aa11 0dbb 74f8 e43d
00000100: 318e 16bd 8754 8d3d 7940 36bd 8781 b83c
00000110: 5167 f7bd 7309 893d 4cb9 8dbd d9ca 10be
00000120: 5854 d0bd 966a 56ba 5cc1 0e3e 8548 fdbd
00000130: fb5e d43d 0925 3b3d 0340 903c 912a 50bb
00000140: 872e 883c 5e31 5bbd 71a6 c9bd 9d4e 1a3d
00000150: 7988 233e f9ff 4a3d c1f9 c23d d720 00bd
00000160: c74c dd3d a148 3fbe c2d8 253d 5252 d43c
00000170: 45ed 1dbe 3cb6 41be aae8 713d e0a4 643d
00000180: 53c7 11be 75ca 7d3d 3efb cb3c 7bf4 873d
00000190: a179 5b3c 59f4 f13d c11f fb3c b686 be3d
000001a0: d7a7 a23d 38cf 31be 4818 753d dafd 9f3c
000001b0: 33ef c03c 9c9a f7bd c9e1 e53d 4012 373d
000001c0: db19 313d d14a 2ebe 3d63 96be 49f2 26be
000001d0: e1b0 0b3e 28cd 31be 03ff a53c 7837 9c3d
000001e0: 193d 50be 8c78 1fbe ccdd 8b3d 5848 7b3d
000001f0: 8918 f33c 4fe5 acbd ae51 1dbe 798f 623d

network_body._body_endoder.seq_layers.0.bias f4 [64]
0.07957764 0.029468063 -0.09428476 -0.05870051 0.013048897 -0.030878222 0.027634881 0.118934646
0.11208038 -0.13460444 0.0843747 0.109623544 0.09078196 -0.12638673 0.09304337 0.02847664
-0.004772611 0.08261685 -0.12710604 -0.12744632 0.01980663 -0.031580422 0.07550462 -0.012303633
-0.06131007 0.031383265 -0.080207735 0.07939204 0.04760102 -0.050034262 0.0045104916 0.016088415
0.054706756 -0.12946656 -0.036005072 0.001830169 0.079035915 0.049992092 -0.016208263 0.03045288
-0.057592895 0.039165482 -0.021169541 -0.027633762 -0.0174287 -0.06773745 -0.050251655 -0.075140245
-0.03036584 0.068968475 -0.047089927 0.047699932 0.05387422 -0.034681946 -0.12952124 0.13364679
-0.056018144 0.0070070135 -0.08603719 0.045021094 -0.014756026 0.035502676 -0.13876879 -0.10539433
00000000: 9af9 a23d 0267 f13c 5e18 c1bd f26f 70bd
00000010: 0acb 553c 53f4 fcbc 8c62 e23c 0294 f33d
00000020: 668a e53d bfd5 09be a5cc ac3d 4f82 e03d
00000030: e4eb b93d 866b 01be 868d be3d d847 e93c
00000040: 9063 9cbb 0633 a93d 1628 02be 4a81 02be
00000050: 8441 a23c 795a 01bd 2ba2 9a3d 2d95 49bc
00000060: 4520 7bbd bd8b 003d f443 a4bd 4b98 a23d
00000070: 4af9 423d baf0 4cbd bfcc 933b dacb 833c
00000080: 3114 603d e292 04be 0e7a 13bd 48e2 ef3a
00000090: 95dd a13d 82c4 4c3d 31c7 84bc 5178 f93c
000000a0: 87e6 6bbd fc6b 203d bf6b adbc 3360 e2bc
000000b0: a2c6 8ebc efb9 8abd aed4 4dbd 21e3 99bd
000000c0: c8c1 f8bc 583f 8d3d 5ee1 40bd 0161 433d
000000d0: 37ab 5c3d a80e 0ebd 37a1 04be b4da 083e
000000e0: 4873 65bd 179b e53b 4434 b0bd 0a68 383d
000000f0: 42c3 71bc 416b 113d 6819 0ebe fcd8 d7bd

network_body._body_endoder.seq_layers.0.weight f4 [64, 131]
0.062384523 -0.07028066 -0.0047403798 0.0798008 -0.07861807 -0.092655525 0.22656389 -0.01929533
0.025871662 -0.14297393 -0.1802658 -0.10433218 -0.018875094 -0.11595549 -0.06188723 0.00059823116
-0.111690916 0.08602751 -0.057594564 -0.116709106 0.08217079 -0.033534355 -0.05970451 -0.090423234
0.125673 -0.044659752 -0.0012237661 0.1112588 -0.036622014 0.12933215 0.0525773 0.13405761
0.089757614 0.036917515 0.024243638 0.058216594 0.10739721 0.023598874 -0.11319756 0.01019672
-0.03160587 -0.048849024 0.032100145 -0.07920655 0.13515808 -0.23463109 -0.050114695 -0.064525284
-0.2438038 -0.14673103 -0.10466784 0.013780496 0.026334569 0.09111711 0.14067931 0.16129625
-0.04954777 0.13311386 0.028482249 -0.19739272 0.0869742 0.08667026 -0.050382532 0.09049557
0.2205345 0.31100002 0.12613231 0.09474621 -0.085370705 -0.13051708 0.030334517 0.099526316
-0.07842239 0.021689126 0.04715948 -0.09691248 0.2908995 0.10851875 -0.07647462 -0.053639743
0.08031181 -0.054983918 0.0695301 0.19135049 0.07320477 -0.020469267 0.074769445 0.09805208
-0.09641769 -0.25232744 -0.025040928 0.14364477 -0.10177236 0.04141688 0.104639925 0.096670985
0.3229885 -0.08148881 -0.0889995 0.053675763 -0.2529216 -0.012168567 -0.23333816 0.03354125
-0.020787382 0.09522129 0.21280064 0.18866464 -0.005804368 0.2147934 -0.08351115 0.05834768
0.23479308 0.204798 0.045541678 -0.10147698 0.13544652 -0.019513922 0.006992297 -0.0203523
0.059327446 -0.01643196 -0.1380023 0.05748821 -0.09020952 0.37666756 0.054367553 0.09360975
0.15815844 0.007973 -0.17213164 -0.12283583 -0.015692437 0.06033701 0.16930875 -0.073282436
-0.121334806 -0.005278501 0.0037673444 -0.008155377 0.11606925 -0.14126188 0.09054443 0.026258124
-0.045416176 -0.030729987 0.0004043823 -0.063355416 0.0039212517 0.117008105 0.010958668 0.15389863
-0.021094622 0.01243035 0.018105103 -0.19256474 -0.005856704 0.031458363 -0.0010901522 0.06059009
0.037533578 -0.17260362 0.046140675 -0.0264092 -0.12604466 0.018566033 -0.043505274 -0.15919885
-0.08700433 -0.017235292 0.046537984 0.038425244 0.013922089 -0.0014980026 0.06608317 -0.021677805
-0.089416176 0.059372354 0.05092625 0.016307075 -0.05668394 0.25706673 0.041772965 0.043556564
0.13010298 -0.22231847 0.077536635 0.006557786 -0.051957384 -0.046927 -0.24673486 -0.042448103
0.046838745 -0.058163222 0.0038001759 -0.018197617 0.2060675 -0.06818225 0.08334468 -0.104263574
-0.061125625 0.11672994 0.18632804 -0.0244553 0.047998257 0.027225874 -0.06043067 -0.06068581
-0.020742567 0.010663641 0.17327969 -0.08239087 -0.13286209 0.055509288 0.10189622 -0.20059946
-0.11365228 0.051226426 0.14184782 -0.07452776 -0.1863149 -0.06874847 -0.04878614 -0.12026166
0.04361549 -0.019793622 0.13456152 -0.10465426 0.0010964412 0.031842917 0.0055175787 0.048965793
0.026910089 -0.06424899 -0.0973789 0.06575632 0.034448396 0.02695003 0.18874234 -0.034321096
0.032253534 0.1195184 -0.06826907 0.13615553 0.095473215 -0.014677717 0.018582232 -0.08811234
-0.043732926 0.106255196 0.047355693 -0.007415547 0.15313168 -0.20582804 0.31627068 -0.14044286
00000000: ea86 7f3d 4fef 8fbd 3055 9bbb 9a6e a33d
00000010: 8302 a1bd 2ec2 bdbd 5d00 683e 3d11 9ebc
00000020: cff0 d33c c267 12be 9997 38be 1cac d5bd
00000030: f19f 9abc 127a edbd 777d 7dbd 9dd2 1c3a
00000040: 35be e4bd 312f b03d 47e8 6bbd 2f05 efbd
00000050: 2949 a83d 525b 09bd b78c 74bd d12f b9bd
00000060: 6cb0 003e 25ed 36bd c766 a0ba a7db e33d
00000070: f700 16bd a66f 043e 4c5b 573d 6646 093e
00000080: d7d2 b73d d236 173d 989a c63c 8674 6e3d
00000090: 12f3 db3d 6d52 c13c 1fd4 e7bd 2510 273c
000000a0: 2875 01bd ea15 48bd 717b 033d 0b37 a2bd
000000b0: e166 0a3e 2243 70be 1145 4dbd d525 84bd
000000c0: b4a7 79be a940 16be 185c d6bd 97c7 613c
000000d0: 98bb d73c 9b9b ba3d 3d0e 103e d82a 253e
000000e0: 9af2 4abd 004f 083e 9b53 e93c 5121 4abe
000000f0: 881f b23d 2d80 b13d ea5d 4ebd be55 b93d
00000100: ccd3 613e 653b 9f3e d428 013e 4d0a c23d
00000110: d6d6 aebd 45a6 05be 1880 f83c 74d4 cb3d
00000120: eb9b a0bd 65ad b13c 4d2a 413d 0d7a c6bd
00000130: c7f0 943e 143f de3d ba9e 9cbd 59b5 5bbd
00000140: 857a a43d d136 61bd cc65 8e3d 62f1 433e
00000150: 62ec 953d 2aaf a7bc b920 993d 87cf c83d
00000160: a376 c5bd 1031 81be a222 cdbc 9d17 133e
00000170: 076e d0bd bfa4 293d 754d d63d 70fb c53d
00000180: c05e a53e 9be3 a6bd 5f45 b6bd 1edb 5b3d
00000190: f17e 81be ab5e 47bc 33f0 6ebe 8d62 093d
000001a0: 4d4a aabc 6103 c33d 69e8 593e 4e31 413e
000001b0: 9132 bebb cdf2 5b3e e507 abbd fafd 6e3d
000001c0: 996d 703e 91b6 513e e989 3a3d 2ad3 cfbd
000001d0: 7eb2 0a3e a9db 9fbc a31f e53b deb9 a6bc
000001e0: 5601 733d 519c 86bc 7a50 0dbe c278 6b3d
000001f0: c5bf b8bd 92da c03e 83b0 5e3d 78b6 bf3d
00000200: 49f4 213e 30a1 023c 4743 30be 5a91 fbbd
00000210: 6d8d 80bc f123 773d 465f 2d3e 1a15 96bd
00000220: 627e f8bd 47f7 acbb 8de5 763b 219e 05bc
00000230: b7b5 ed3d f4a6 10be 5c6f b93d 471b d73c
00000240: 5006 3abd 74bd fbbc 4603 d439 7cc0 81bd
00000250: d87d 803b f2a1 ef3d fc8b 333c 9a97 1d3e
00000260: a1ce acbc aba8 4b3c 2751 943c b12f 45be
00000270: 98e9 bfbb 7cda 003d 70e3 8eba 502d 783d
00000280: cfbc 193d 01bf 30be 01fe 3c3d 1b58 d8bc
00000290: da11 01be cb17 983c 9632 32bd 0605 23be
000002a0: 532f b2bd 0731 8dbc 9d9e 3e3d ca63 1d3d
000002b0: 7919 643c a058 c4ba 9d56 873d a795 b1bc
000002c0: d41f b7bd 6d30 733d 0b98 503d 6a96 853c
000002d0: 6b2d 68bd 409e 833e 211a 2b3d 5e68 323d
000002e0: b739 053e 74a7 63be 87cb 9e3d b2e2 d63b
000002f0: 44d1 54bd 8736 40bd 10a8 7cbe 10de 2dbd
00000300: fcd9 3f3d 8f3c 6ebd 5f0c 793b 2b13 95bc
00000310: 5c03 533e 23a3 8bbd 9eb0 aa3d 2488 d5bd
00000320: dd5e 7abd 1b10 ef3d c7cc 3e3e 7b56 c8bc
00000330: d299 443d cc08 df3c 2686 77bd af91 78bd
00000340: 51ec a9bc 8db6 2e3c 3b70 313e 8bbc a8bd
00000350: 000d 08be b55d 633d f7ae d03d f269 4dbe
00000360: 87c2 e8bd cdd2 513d 8e40 113e 03a2 98bd
00000370: 55c9 3ebe ffcb 8cbd fad3 47bd bf4b f6bd
00000380: 28a6 323d 3c26 a2bc 7fca 093e f954 d6bd
00000390: 76b6 8f3a b86d 023d cecc b43b 5b90 483d
000003a0: 8c72 dc3c f994 83bd 976e c7bd 40ab 863d
000003b0: c319 0d3d 4fc6 dc3c ac45 413e 4794 0cbd
000003c0: 481c 043d 10c6 f43d a7d0 8bbd 5b6c 0b3e
000003d0: 7687 c33d cf7a 70bc c439 983c 3e74 b4bd
000003e0: 4c21 33bd 539c d93d 0bf8 413d 1efe f2bb
000003f0: 8dce 1c3e 96c4 52be 3bee a13e 41d0 0fbe

network_body._body_endoder.seq_layers.2.bias f4 [64]
-0.13812791 0.020126255 -0.122385435 0.10374497 -0.23811865 0.1252867 -0.07052326 -0.1660502
-0.103261836 -0.017428182 0.16207269 -0.17263463 0.051319376 0.029076 0.04692417 -0.016530806
-0.08470169 -0.22157563 -0.060054008 -0.0038896184 0.13286062 0.015896037 0.03291631 -0.12265783
0.05251571 -0.16166537 0.079344206 -0.021478415 -0.17315868 -0.077583164 0.037546355 0.073803276
-0.12912813 0.06832828 0.06984165 -0.0053856815 0.046776347 0.121340185 -0.068740845 0.13638504
0.04251975 -0.1611409 0.091292426 -0.054913107 0.09181193 -0.13365659 0.14102633 0.05082997
0.10215391 -0.07109134 -0.09138576 -0.048498236 0.14244707 -0.075472735 -0.023366027 0.032427136
-0.101227574 -0.15632586 0.004699943 0.13858148 0.082290225 -0.24144036 -0.1396342 0.12872218
00000000: 6771 0dbe d1df a43c 37a5 fabd 3e78 d43d
00000010: 60d5 73be 284b 003e 806e 90bd 1009 2abe
00000020: f17a d3bd 8cc5 8ebc 62f6 253e 22c7 30be
00000030: 4434 523d cb30 ee3c 8f33 403d 9d6b 87bc
00000040: 1478 adbd b9e4 62be 31fb 75bd f8e8 7ebb
00000050: 9d0c 083e 6838 823c 41d3 063d 0734 fbbd
00000060: b71a 573d 9b8b 25be 377f a23d 80f3 afbc
00000070: 8250 31be ece3 9ebd 35ca 193d 2c26 973d
00000080: 2a3a 04be b2ef 8b3d 2409 8f3d 5f7a b0bb
00000090: 8e98 3f3d 3481 f83d 00c8 8cbd 85a8 0b3e
000000a0: 3029 2e3d 1f02 25be 86f7 ba3d 91ec 60bd
000000b0: e507 bc3d 46dd 08be 3569 103e 1633 503d
000000c0: 1236 d13d 5698 91bd 7528 bbbd 16a6 46bd
000000d0: a5dd 113e 7391 9abd 1c6a bfbc 51d2 043d
000000e0: 6750 cfbd e313 20be fb01 9a3b 4ee8 0d3e
000000f0: c787 a83d 243c 77be 45fc 0ebe bfcf 033e

network_body._body_endoder.seq_layers.2.weight f4 [64, 64]
0.05664018 -0.14340056 -0.18705891 -0.103057966 -0.021867562 -0.2952651 0.009639346 0.0419197
-0.15295744 0.26354486 -0.33328897 0.024871606 0.06651254 -0.16452454 -0.047783367 0.12470445
-0.0464527 -0.18544595 0.3356766 0.041853495 0.11321478 -0.04968938 0.2465714 -0.048631597
0.082583494 0.2785048 -0.030925145 -0.041792672 0.03983737 0.18328057 0.0677561 0.025621388
0.0155342175 0.15128939 -0.23686041 0.0811037 -0.30857894 0.058297835 -0.16493683 -0.24270904
-0.025487136 -0.3841808 -0.081227764 0.16994591 0.017750273 -0.045601785 -0.05361147 0.053859543
-0.108300164 -0.18824628 -0.29610863 0.14024223 -0.14655282 -0.13740955 -0.034621373 -0.100512385
-0.2517096 -0.012718465 -0.05395276 -0.22181794 -0.27154097 -0.13415779 0.031310033 0.20421761
-0.15265538 -0.060091693 -0.17901304 0.0761938 -0.08492728 -0.03603459 -0.07233056 -0.27906522
0.019661732 0.13743478 0.03826286 -0.12903588 0.020458678 -0.0029416974 0.05348825 0.12033721
0.04995087 -0.024194688 -0.13390405 0.08341497 0.1407686 0.05212394 -0.035442047 -0.18374391
0.086716175 0.15401818 0.0079425145 0.13103698 -0.4444844 -0.10651559 0.25853464 -0.02356842
0.22147775 -0.02249226 0.09567177 0.013629611 -0.34914503 0.11096711 -0.05201416 0.04227164
-0.38590288 0.09111957 -0.05705862 0.22567351 0.107407235 -0.13602293 -0.13715068 0.118611634
-0.031571224 0.1519425 -0.0972693 0.019217217 0.14633326 -0.049389437 0.050916847 0.18591996
0.0056182924 0.08168726 0.14819784 0.022747995 -0.25519177 -0.25004977 -0.11631292 -0.12619576
0.0069355876 -0.16208442 -0.042981647 -0.110114336 0.17512052 0.046662863 0.10441385 -0.318215
-0.3723832 0.07037298 -0.2637587 -0.36990058 -0.06820112 -0.0550916 0.12229587 0.055868804
-0.1873841 0.13250169 0.051295694 -0.10938794 -0.19581565 0.006334424 -0.17719461 0.04621018
0.23442443 0.09540952 -0.021818636 -0.104079746 0.25459886 0.1236447 -0.03911951 -0.34054273
-0.06008529 0.16189606 -0.115403526 -0.12347562 -0.041417778 -0.067153454 -0.17557497 -0.17633277
-0.16588484 -0.054581843 -0.09305573 -0.024030253 -0.15667194 -0.114717424 0.047186814 -0.20158592
-0.13106336 -0.26614887 -0.088790976 -0.14638928 0.0115955835 0.1747006 0.121345274 0.0030730828
-0.2710993 -0.21421699 -0.068497986 -0.12183437 -0.11470097 -0.10962696 -0.16037191 0.11933076
0.036370207 -0.163338 -0.17317504 0.02957336 0.051394638 0.09945305 0.085354015 -0.03119597
-0.16920751 -0.117775105 0.08496746 -0.056456137 0.3371847 -0.033389844 0.0825292 -0.19042163
0.11663076 0.069198444 0.14776592 0.17558996 -0.08466286 -0.022369688 0.11497126 0.17066829
0.13974778 0.25721833 -0.053908642 0.13652153 -0.17372389 0.06991966 0.11395908 -0.2271081
-0.043035574 -0.13642985 -0.014726118 0.17294672 -0.047085073 -0.020905139 -0.050166264 0.012602042
-0.32403716 0.13929734 0.020955326 0.2398468 -0.1634625 0.17894205 0.13969553 -0.15163223
-0.0606251 1.1116167e-05 0.23890698 0.001283601 -0.046794243 0.14427425 -0.03182195 0.06291389
0.16847232 0.016300464 0.16650583 0.2101947 0.11212549 0.14951257 0.0021235624 -0.08816265
00000000: 89ff 673d 99d7 12be 5f8c 3fbe 0e10 d3bd
00000010: 9a23 b3bc fd2c 97be 59ee 1d3c feb3 2b3d
00000020: e0a0 1cbe 5aef 863e daa4 aabe 8abf cb3c
00000030: ba37 883d 1f79 28be 7eb8 43bd 0c65 ff3d
00000040: 3045 3ebd 8be5 3dbe cedd ab3e 926e 2b3d
00000050: 27dd e73d 1787 4bbd 377d 7c3e ed31 47bd
00000060: 8921 a93d 2e98 8e3e bb56 fdbc cb2e 2bbd
00000070: 832c 233d e7ad 3b3e b6c3 8a3d f2e3 d13c
00000080: 3b83 7e3c 9beb 1a3e 898b 72be b219 a63d
00000090: 0ffe 9dbe b6c9 6e3d 33e5 28be b888 78be
000000a0: 66ca d0bc 59b3 c4be be5a a6bd 4d06 2e3e
000000b0: 0569 913c f0c8 3abd b397 5bbd d39b 5c3d
000000c0: 7acc ddbd a2c3 40be 8d9b 97be a99b 0f3e
000000d0: f111 16be 17b5 0cbe 24cf 0dbd 70d9 cdbd
000000e0: 15e0 80be 1c61 50bc 92fd 5cbd 3e24 63be
000000f0: 6b07 8bbe a960 09be f33e 003d 6c1e 513e
00000100: b151 1cbe b522 76bd 324f 37be 7f0b 9c3d
00000110: 5bee adbd 0299 13bd 0b22 94bd a3e1 8ebe
00000120: a411 a13c b4bb 0c3e 84b9 1c3d fb21 04be
00000130: f598 a73c 7ec9 40bb 7f16 5b3d 5b73 f63d
00000140: 4999 4c3d f033 c6bc 251e 09be 78d5 aa3d
00000150: a525 103e ea7f 553d ae2b 11bd 5d27 3cbe
00000160: 4098 b13d f1b6 1d3e 5221 023c 8f2e 063e
00000170: 7693 e3be d824 dabd a75e 843e 8f12 c1bc
00000180: 10cb 623e b041 b8bc 90ef c33d bb4e 5f3c
00000190: 23c3 b2be b942 e33d cd0c 55bd 0725 2d3d
000001a0: 1095 c5be e69c ba3d 4db6 69bd f516 673e
000001b0: 53f8 db3d 9849 0bbe 3a71 0cbe a8ea f23d
000001c0: d450 01bd d196 1b3e 2035 c7bd 6d6d 9d3c
000001d0: 63d8 153e 944c 4abd 2f8e 503d cd61 3e3e
000001e0: a719 b83b a64b a73d 2dc1 173e 015a ba3c
000001f0: 7fa8 82be 8606 80be 7835 eebd 7639 01be
00000200: ed43 e33b 75f9 25be 860d 30bd a083 e1bd
00000210: cb52 333e 8f21 3f3d eed6 d53d 14ed a2be
00000220: 03a9 bebe b51f 903d 610b 87be 9c63 bdbe
00000230: 07ad 8bbd bba7 61bd 4276 fa3d b0d6 643d
00000240: 9ee1 3fbe 86ae 073e 6f1b 523d c906 e0bd
00000250: e683 48be 0091 cf3b 8172 35be e346 3d3d
00000260: f50c 703e 1166 c33d ffbc b2bc c327 d5bd
00000270: c85a 823e 6f39 fd3d c83b 20bd 9e5b aebe
00000280: fe1b 76bd 15c8 253e af58 ecbd c9e0 fcbd
00000290: b0a5 29bd c087 89bd edc9 33be 9490 34be
000002a0: b7dd 29be 3691 5fbd 0194 bebd 18db c4bc
000002b0: 9c6e 20be f8f0 eabd f646 413d 8a6c 4ebe
000002c0: 7935 06be aa44 88be 0bd8 b5bd 12e7 15be
000002d0: 67fb 3d3c b7e4 323e df83 f83d c665 493b
000002e0: 87cd 8abe b35b 5bbe ac48 8cbd 4c84 f9bd
000002f0: 58e8 eabd 1984 e0bd 8938 24be af63 f43d
00000300: edf8 143d 1442 27be cc54 31be d543 f23c
00000310: 2f83 523d 0aae cb3d 16ce ae3d b18e ffbc
00000320: bc44 2dbe 1334 f1bd 6b03 ae3d 8d3e 67bd
00000330: 79a3 ac3e cac3 08bd 1205 a93d e3fd 42be
00000340: 1cdc ee3d eab7 8d3d f34f 173e dbcd 333e
00000350: b963 adbd a340 b7bc 0d76 eb3d abc3 2e3e
00000360: 0b1a 0f3e 1fb2 833e 4fcf 5cbd 4dcc 0b3e
00000370: ade4 31be 0a32 8f3d 6163 e93d 078f 68be
00000380: 1246 30bd 44b4 0bbe d145 71bc f218 313e
00000390: 47dc 40bd 4141 abbc 247b 4dbd cc78 4e3c
000003a0: 33e8 a5be f6a3 0e3e 81aa ab3c 669a 753e
000003b0: b762 27be 963c 373e 580c 0f3e 7b45 1bbe
000003c0: 0652 78bd 937f 3a37 08a4 743e 813e a83a
000003d0: 52ab 3fbd a1bc 133e bc57 02bd ffd8 803d
000003e0: 0284 2c3e 8d88 853c 8180 2a3e 483d 573e
000003f0: 0da2 e53d d319 193e 772b 0b3b 9f8e b4bd

network_body.observation_encoder.processors.0.normalizer.running_mean f4 [120]
0.043822147 0.0 0.0 0.0 0.776454 0.80417985 0.0800814 0.0
0.0 0.0 0.7402112 0.78146076 0.03520477 0.0 0.0 0.0
0.78508687 0.80918413 0.08945663 0.0 0.0 0.0 0.7306844 0.77778274
0.044100262 0.0 0.0 0.0 0.7471299 0.7767377 0.046830613 0.0
0.0 0.0 0.833367 0.8629583 0.08591022 0.0 0.0 0.0
0.7942965 0.8385186 0.037951265 0.0 0.0 0.0 0.84225196 0.86828476
0.09610277 0.0 0.0 0.0 0.7839219 0.8345468 0.047497313 0.0
0.0 0.0 0.8037034 0.83540213 0.049854662 0.0 0.0 0.0
0.89022595 0.9217581 0.09171903 0.0 0.0 0.0 0.8483804 0.89557207
0.04068274 0.0 0.0 0.0 0.8994073 0.9273893 0.10276572 0.0
0.0 0.0 0.8371923 0.8912922 0.05090477 0.0 0.0 0.0
0.86016685 0.8941028 0.052850526 0.0 0.0 0.0 0.94714415 0.98053885
0.09753015 0.0 0.0 0.0 0.9024682 0.952635 0.043434504 0.0
0.0 0.0 0.9565823 0.98641807 0.10943019 0.0 0.0 0.0
0.89040434 0.9480354 0.054326378 0.0 0.0 0.0 0.916686 0.9527283
00000000: da7e 333d 0000 0000 0000 0000 0000 0000
00000010: b0c5 463f bbde 4d3f b801 a43d 0000 0000
00000020: 0000 0000 0000 0000 7b7e 3d3f d00d 483f
00000030: e032 103d 0000 0000 0000 0000 0000 0000
00000040: 74fb 483f b126 4f3f 0a35 b73d 0000 0000
00000050: 0000 0000 0000 0000 220e 3b3f c51c 473f
00000060: 7aa2 343d 0000 0000 0000 0000 0000 0000
00000070: e843 3f3f 48d8 463f 75d1 3f3d 0000 0000
00000080: 0000 0000 0000 0000 8a57 553f d6ea 5c3f
00000090: b3f1 af3d 0000 0000 0000 0000 0000 0000
000000a0: 0457 4b3f 28a9 563f c972 1b3d 0000 0000
000000b0: 0000 0000 0000 0000 d39d 573f e947 5e3f
000000c0: 87d1 c43d 0000 0000 0000 0000 0000 0000
000000d0: 1baf 483f dca4 553f 8b8c 423d 0000 0000
000000e0: 0000 0000 0000 0000 82bf 4d3f eadc 553f
000000f0: 6734 4c3d 0000 0000 0000 0000 0000 0000
00000100: d9e5 633f 57f8 6b3f 30d7 bb3d 0000 0000
00000110: 0000 0000 0000 0000 752f 593f 3644 653f
00000120: f2a2 263d 0000 0000 0000 0000 0000 0000
00000130: 8f3f 663f 6369 6d3f d576 d23d 0000 0000
00000140: 0000 0000 0000 0000 3c52 563f ba2b 643f
00000150: 8581 503d 0000 0000 0000 0000 0000 0000
00000160: e533 5c3f ece3 643f cb79 583d 0000 0000
00000170: 0000 0000 0000 0000 0a78 723f 9804 7b3f
00000180: e3bd c73d 0000 0000 0000 0000 0000 0000
00000190: 2808 673f e3df 733f 61e8 313d 0000 0000
000001a0: 0000 0000 0000 0000 94e2 743f e585 7c3f
000001b0: ef1c e03d 0000 0000 0000 0000 0000 0000
000001c0: 8af1 633f 73b2 723f 5685 5e3d 0000 0000
000001d0: 0000 0000 0000 0000 efab 6a3f 00e6 733f

network_body.observation_encoder.processors.1.normalizer.running_mean f4 [11]
-2.0234275 92.5181 2.7635458 -0.00015445317 0.013144624 -0.04553818 0.018091053 -2.8433185
79.85062 1.1231813 -0.0026665763
00000000: d67f 01c0 4409 b942 efdd 3040 b5f4 21b9
00000010: 8d5c 573c 3e86 3abd b033 943c eef8 35c0
00000020: 84b3 9f42 68c4 8f3f bac1 2ebb
