results/Run00/OpponentML/OpponentML-2499954.pt (torch, 330687 bytes, 52 tensors)

network_body.observation_encoder.processors.0.normalizer.running_mean f4 [120]
0.045899995 0.0 0.0 0.0 0.7744419 0.8031229 0.07942731 0.0
0.0 0.0 0.7409141 0.7789363 0.036937773 0.0 0.0 0.0
0.7834199 0.8083046 0.083495475 0.0 0.0 0.0 0.73666763 0.77728164
0.04306274 0.0 0.0 0.0 0.74825203 0.77658176 0.04904398 0.0
0.0 0.0 0.8311929 0.8617974 0.085263185 0.0 0.0 0.0
0.7949729 0.83576924 0.039811518 0.0 0.0 0.0 0.84041244 0.86727834
0.08969051 0.0 0.0 0.0 0.7903624 0.83399653 0.046379514 0.0
0.0 0.0 0.80485827 0.8351765 0.052204516 0.0 0.0 0.0
0.8878973 0.92049396 0.091094844 0.0 0.0 0.0 0.8490187 0.89260554
0.04267222 0.0 0.0 0.0 0.8974234 0.9262757 0.09590547 0.0
0.0 0.0 0.84402645 0.89066935 0.04970738 0.0 0.0 0.0
0.86139417 0.8938234 0.05534111 0.0 0.0 0.0 0.9446528 0.97916836
0.09692817 0.0 0.0 0.0 0.9030725 0.9494509 0.045567486 0.0
0.0 0.0 0.95445156 0.9852697 0.102118656 0.0 0.0 0.0
0.89770454 0.94736874 0.05304924 0.0 0.0 0.0 0.9179509 0.95246965
00000000: a201 3c3d 0000 0000 0000 0000 0000 0000
00000010: d341 463f 7699 4d3f c9aa a23d 0000 0000
00000020: 0000 0000 0000 0000 8cac 3d3f 5f68 473f
00000030: 104c 173d 0000 0000 0000 0000 0000 0000
00000040: 358e 483f 0ded 4e3f adff aa3d 0000 0000
00000050: 0000 0000 0000 0000 4096 3c3f eefb 463f
00000060: 8e62 303d 0000 0000 0000 0000 0000 0000
00000070: 728d 3f3f 10ce 463f 57e2 483d 0000 0000
00000080: 0000 0000 0000 0000 0fc9 543f c19e 5c3f
00000090: 779e ae3d 0000 0000 0000 0000 0000 0000
000000a0: 5883 4b3f f9f4 553f 6711 233d 0000 0000
000000b0: 0000 0000 0000 0000 4525 573f f405 5e3f
000000c0: a8af b73d 0000 0000 0000 0000 0000 0000
000000d0: 3155 4a3f cc80 553f 72f8 3d3d 0000 0000
000000e0: 0000 0000 0000 0000 310b 4e3f 21ce 553f
000000f0: 67d4 553d 0000 0000 0000 0000 0000 0000
00000100: 3d4d 633f 7ea5 6b3f ef8f ba3d 0000 0000
00000110: 0000 0000 0000 0000 4a59 593f cc81 643f
00000120: 11c9 2e3d 0000 0000 0000 0000 0000 0000
00000130: 8abd 653f 6720 6d3f 166a c43d 0000 0000
00000140: 0000 0000 0000 0000 1e12 583f e802 643f
00000150: f799 4b3d 0000 0000 0000 0000 0000 0000
00000160: 5484 5c3f 9cd1 643f 5cad 623d 0000 0000
00000170: 0000 0000 0000 0000 c4d4 713f c7aa 7a3f
00000180: 4782 c63d 0000 0000 0000 0000 0000 0000
00000190: c22f 673f 370f 733f f9a4 3a3d 0000 0000
000001a0: 0000 0000 0000 0000 f056 743f a33a 7c3f
000001b0: 9623 d13d 0000 0000 0000 0000 0000 0000
000001c0: f7cf 653f c286 723f 294a 593d 0000 0000
000001d0: 0000 0000 0000 0000 d5fe 6a3f 0dd5 733f

network_body.observation_encoder.processors.0.normalizer.running_variance f4 [120]
109481.71 1.0 1.0 1.0 436693.6 378512.84 182788.75 1.0
1.0 1.0 479940.34 398171.75 88933.37 1.0 1.0 1.0
424262.4 376165.9 191297.84 1.0 1.0 1.0 485011.34 400140.28
103006.76 1.0 1.0 1.0 470880.44 411693.44 116594.39 1.0
1.0 1.0 350782.25 279835.12 194977.67 1.0 1.0 1.0
407462.56 308490.9 95561.63 1.0 1.0 1.0 335323.28 275665.28
204115.2 1.0 1.0 1.0 414192.3 311107.6 110571.48 1.0
1.0 1.0 392713.2 320611.44 123699.266 1.0 1.0 1.0
248802.1 163927.81 206989.2 1.0 1.0 1.0 320438.2 202601.08
102126.234 1.0 1.0 1.0 230105.33 157920.48 216759.88 1.0
1.0 1.0 329080.7 205958.86 118083.75 1.0 1.0 1.0
298478.84 212302.31 130689.234 1.0 1.0 1.0 130691.125 30858.314
218829.28 1.0 1.0 1.0 218829.89 80590.234 108719.414 1.0
1.0 1.0 108722.52 22627.848 229217.3 1.0 1.0 1.0
229559.14 84757.445 125585.266 1.0 1.0 1.0 188341.2 86677.35
00000000: dbd4 d547 0000 803f 0000 803f 0000 803f
00000010: b33a d548 1bd2 b848 3081 3248 0000 803f
00000020: 0000 803f 0000 803f 8b58 ea48 786b c248
00000030: afb2 ad47 0000 803f 0000 803f 0000 803f
00000040: cd28 cf48 bdac b748 76d0 3a48 0000 803f
00000050: 0000 803f 0000 803f 6bd2 ec48 8961 c348
00000060: 612f c947 0000 803f 0000 803f 0000 803f
00000070: 0eec e548 ae05 c948 32b9 e347 0000 803f
00000080: 0000 803f 0000 803f c847 ab48 64a3 8848
00000090: 6b68 3e48 0000 803f 0000 803f 0000 803f
000000a0: d2f4 c648 5da1 9648 d1a4 ba47 0000 803f
000000b0: 0000 803f 0000 803f 69bb a348 299a 8648
000000c0: cd54 4748 0000 803f 0000 803f 0000 803f
000000d0: 0a3e ca48 73e8 9748 bdf5 d747 0000 803f
000000e0: 0000 803f 0000 803f 26c1 bf48 6e8c 9c48
000000f0: a299 f147 0000 803f 0000 803f 0000 803f
00000100: 86f8 7248 f415 2048 4d23 4a48 0000 803f
00000110: 0000 803f 0000 803f c676 9c48 45da 4548
00000120: 1e77 c747 0000 803f 0000 803f 0000 803f
00000130: 55b6 6048 1f38 1a48 f8ad 5348 0000 803f
00000140: 0000 803f 0000 803f 16af a048 b721 4948
00000150: e0a1 e647 0000 803f 0000 803f 0000 803f
00000160: dbbd 9148 9453 4f48 9e40 ff47 0000 803f
00000170: 0000 803f 0000 803f 9041 ff47 a114 f146
00000180: 52b3 5548 0000 803f 0000 803f 0000 803f
00000190: 79b3 5548 1e67 9d47 b557 d447 0000 803f
000001a0: 0000 803f 0000 803f 4359 d447 b2c7 b046
000001b0: 53d8 5f48 0000 803f 0000 803f 0000 803f
000001c0: c92d 6048 b98a a547 a248 f547 0000 803f
000001d0: 0000 803f 0000 803f 4ded 3748 ad4a a947

network_body.observation_encoder.processors.1.normalizer.running_mean f4 [11]
-4.27857 93.91357 2.8873196 -0.0015365 0.0059507582 -0.04063088 0.02131045 -6.2647367
79.77776 1.0659964 -0.025050335
00000000: 0cea 88c0 bfd3 bb42 d8c9 3840 6364 c9ba
00000010: 94fe c23b 916c 26bd 4193 ae3c b978 c8c0
00000020: 378e 9f42 9272 883f 5c36 cdbc

network_body.observation_encoder.processors.1.normalizer.running_variance f4 [11]
4.315807e+10 1.3844283e+10 4.3597332e+10 605849.7 633155.0 636145.75 619445.5 4.92073e+10
7.7857147e+09 4.9302405e+10 871627.0
00000000: bec6 2051 c04b 4e50 a869 2251 9be9 1349
00000010: 3094 1a49 1c4f 1b49 583b 1749 bd4f 3751
00000020: 4a08 e84f 70aa 3751 b0cc 5449

network_body.processors.0.normalizer.running_mean f4 [120]
0.045899995 0.0 0.0 0.0 0.7744419 0.8031229 0.07942731 0.0
0.0 0.0 0.7409141 0.7789363 0.036937773 0.0 0.0 0.0
0.7834199 0.8083046 0.083495475 0.0 0.0 0.0 0.73666763 0.77728164
0.04306274 0.0 0.0 0.0 0.74825203 0.77658176 0.04904398 0.0
0.0 0.0 0.8311929 0.8617974 0.085263185 0.0 0.0 0.0
0.7949729 0.83576924 0.039811518 0.0 0.0 0.0 0.84041244 0.86727834
0.08969051 0.0 0.0 0.0 0.7903624 0.83399653 0.046379514 0.0
0.0 0.0 0.80485827 0.8351765 0.052204516 0.0 0.0 0.0
0.8878973 0.92049396 0.091094844 0.0 0.0 0.0 0.8490187 0.89260554
0.04267222 0.0 0.0 0.0 0.8974234 0.9262757 0.09590547 0.0
0.0 0.0 0.84402645 0.89066935 0.04970738 0.0 0.0 0.0
0.86139417 0.8938234 0.05534111 0.0 0.0 0.0 0.9446528 0.97916836
0.09692817 0.0 0.0 0.0 0.9030725 0.9494509 0.045567486 0.0
0.0 0.0 0.95445156 0.9852697 0.102118656 0.0 0.0 0.0
0.89770454 0.94736874 0.05304924 0.0 0.0 0.0 0.9179509 0.95246965
00000000: a201 3c3d 0000 0000 0000 0000 0000 0000
00000010: d341 463f 7699 4d3f c9aa a23d 0000 0000
00000020: 0000 0000 0000 0000 8cac 3d3f 5f68 473f
00000030: 104c 173d 0000 0000 0000 0000 0000 0000
00000040: 358e 483f 0ded 4e3f adff aa3d 0000 0000
00000050: 0000 0000 0000 0000 4096 3c3f eefb 463f
00000060: 8e62 303d 0000 0000 0000 0000 0000 0000
00000070: 728d 3f3f 10ce 463f 57e2 483d 0000 0000
00000080: 0000 0000 0000 0000 0fc9 543f c19e 5c3f
00000090: 779e ae3d 0000 0000 0000 0000 0000 0000
000000a0: 5883 4b3f f9f4 553f 6711 233d 0000 0000
000000b0: 0000 0000 0000 0000 4525 573f f405 5e3f
000000c0: a8af b73d 0000 0000 0000 0000 0000 0000
000000d0: 3155 4a3f cc80 553f 72f8 3d3d 0000 0000
000000e0: 0000 0000 0000 0000 310b 4e3f 21ce 553f
000000f0: 67d4 553d 0000 0000 0000 0000 0000 0000
00000100: 3d4d 633f 7ea5 6b3f ef8f ba3d 0000 0000
00000110: 0000 0000 0000 0000 4a59 593f cc81 643f
00000120: 11c9 2e3d 0000 0000 0000 0000 0000 0000
00000130: 8abd 653f 6720 6d3f 166a c43d 0000 0000
00000140: 0000 0000 0000 0000 1e12 583f e802 643f
00000150: f799 4b3d 0000 0000 0000 0000 0000 0000
00000160: 5484 5c3f 9cd1 643f 5cad 623d 0000 0000
00000170: 0000 0000 0000 0000 c4d4 713f c7aa 7a3f
00000180: 4782 c63d 0000 0000 0000 0000 0000 0000
00000190: c22f 673f 370f 733f f9a4 3a3d 0000 0000
000001a0: 0000 0000 0000 0000 f056 743f a33a 7c3f
000001b0: 9623 d13d 0000 0000 0000 0000 0000 0000
000001c0: f7cf 653f c286 723f 294a 593d 0000 0000
000001d0: 0000 0000 0000 0000 d5fe 6a3f 0dd5 733f

network_body.processors.0.normalizer.running_variance f4 [120]
109481.71 1.0 1.0 1.0 436693.6 378512.84 182788.75 1.0
1.0 1.0 479940.34 398171.75 88933.37 1.0 1.0 1.0
424262.4 376165.9 191297.84 1.0 1.0 1.0 485011.34 400140.28
103006.76 1.0 1.0 1.0 470880.44 411693.44 116594.39 1.0
1.0 1.0 350782.25 279835.12 194977.67 1.0 1.0 1.0
407462.56 308490.9 95561.63 1.0 1.0 1.0 335323.28 275665.28
204115.2 1.0 1.0 1.0 414192.3 311107.6 110571.48 1.0
1.0 1.0 392713.2 320611.44 123699.266 1.0 1.0 1.0
248802.1 163927.81 206989.2 1.0 1.0 1.0 320438.2 202601.08
102126.234 1.0 1.0 1.0 230105.33 157920.48 216759.88 1.0
1.0 1.0 329080.7 205958.86 118083.75 1.0 1.0 1.0
298478.84 212302.31 130689.234 1.0 1.0 1.0 130691.125 30858.314
218829.28 1.0 1.0 1.0 218829.89 80590.234 108719.414 1.0
1.0 1.0 108722.52 22627.848 229217.3 1.0 1.0 1.0
229559.14 84757.445 125585.266 1.0 1.0 1.0 188341.2 86677.35
00000000: dbd4 d547 0000 803f 0000 803f 0000 803f
00000010: b33a d548 1bd2 b848 3081 3248 0000 803f
00000020: 0000 803f 0000 803f 8b58 ea48 786b c248
00000030: afb2 ad47 0000 803f 0000 803f 0000 803f
00000040: cd28 cf48 bdac b748 76d0 3a48 0000 803f
00000050: 0000 803f 0000 803f 6bd2 ec48 8961 c348
00000060: 612f c947 0000 803f 0000 803f 0000 803f
00000070: 0eec e548 ae05 c948 32b9 e347 0000 803f
00000080: 0000 803f 0000 803f c847 ab48 64a3 8848
00000090: 6b68 3e48 0000 803f 0000 803f 0000 803f
000000a0: d2f4 c648 5da1 9648 d1a4 ba47 0000 803f
000000b0: 0000 803f 0000 803f 69bb a348 299a 8648
000000c0: cd54 4748 0000 803f 0000 803f 0000 803f
000000d0: 0a3e ca48 73e8 9748 bdf5 d747 0000 803f
000000e0: 0000 803f 0000 803f 26c1 bf48 6e8c 9c48
000000f0: a299 f147 0000 803f 0000 803f 0000 803f
00000100: 86f8 7248 f415 2048 4d23 4a48 0000 803f
00000110: 0000 803f 0000 803f c676 9c48 45da 4548
00000120: 1e77 c747 0000 803f 0000 803f 0000 803f
00000130: 55b6 6048 1f38 1a48 f8ad 5348 0000 803f
00000140: 0000 803f 0000 803f 16af a048 b721 4948
00000150: e0a1 e647 0000 803f 0000 803f 0000 803f
00000160: dbbd 9148 9453 4f48 9e40 ff47 0000 803f
00000170: 0000 803f 0000 803f 9041 ff47 a114 f146
00000180: 52b3 5548 0000 803f 0000 803f 0000 803f
00000190: 79b3 5548 1e67 9d47 b557 d447 0000 803f
000001a0: 0000 803f 0000 803f 4359 d447 b2c7 b046
000001b0: 53d8 5f48 0000 803f 0000 803f 0000 803f
000001c0: c92d 6048 b98a a547 a248 f547 0000 803f
000001d0: 0000 803f 0000 803f 4ded 3748 ad4a a947

network_body.processors.1.normalizer.running_mean f4 [11]
-4.27857 93.91357 2.8873196 -0.0015365 0.0059507582 -0.04063088 0.02131045 -6.2647367
79.77776 1.0659964 -0.025050335
00000000: 0cea 88c0 bfd3 bb42 d8c9 3840 6364 c9ba
00000010: 94fe c23b 916c 26bd 4193 ae3c b978 c8c0
00000020: 378e 9f42 9272 883f 5c36 cdbc

network_body.processors.1.normalizer.running_variance f4 [11]
4.315807e+10 1.3844283e+10 4.3597332e+10 605849.7 633155.0 636145.75 619445.5 4.92073e+10
7.7857147e+09 4.9302405e+10 871627.0
00000000: bec6 2051 c04b 4e50 a869 2251 9be9 1349
00000010: 3094 1a49 1c4f 1b49 583b 1749 bd4f 3751
00000020: 4a08 e84f 70aa 3751 b0cc 5449

network_body._body_endoder.seq_layers.0.weight f4 [64, 131]
0.070481226 -0.07028066 -0.0047403798 0.0798008 -0.08015084 -0.090512455 0.20377192 -0.01929533
0.025871662 -0.14297393 -0.16037309 -0.10450831 -0.026289536 -0.11595549 -0.06188723 0.00059823116
-0.10528485 0.08867152 -0.053214572 -0.116709106 0.08217079 -0.033534355 -0.057575453 -0.09220282
0.116512775 -0.044659752 -0.0012237661 0.1112588 -0.028359396 0.13351396 0.07724743 0.13405761
0.089757614 0.036917515 0.024875576 0.07241484 0.093446776 0.023598874 -0.11319756 0.01019672
-0.0078101708 -0.033339594 -0.0062924107 -0.07920655 0.13515808 -0.23463109 -0.00710972 -0.048332468
-0.23289002 -0.14673103 -0.10466784 0.013780496 0.034694973 0.10432121 0.14343478 0.16129625
-0.04954777 0.13311386 0.038422767 -0.1759553 0.101308376 0.08667026 -0.050382532 0.09049557
0.21011284 0.29771477 0.12406586 0.09474621 -0.085370705 -0.13051708 0.035499804 0.09250352
-0.036472734 0.021689126 0.04715948 -0.09691248 0.26230282 0.10888866 -0.06795479 -0.053639743
0.08031181 -0.054983918 0.06567737 0.18479744 0.07899433 -0.020469267 0.074769445 0.09805208
-0.096114054 -0.24758697 -0.0151803605 0.14364477 -0.10177236 0.04141688 0.09477898 0.07671764
0.3242967 -0.08148881 -0.0889995 0.053675763 -0.25423104 -0.013810669 -0.22822578 0.03354125
-0.020787382 0.09522129 0.2076867 0.17102006 -0.002034972 0.2147934 -0.08351115 0.05834768
0.23093785 0.18586431 0.040369507 -0.10147698 0.13544652 -0.019513922 0.01367673 -0.011670127
0.021222379 -0.06408375 -0.107655086 0.06670416 -0.09167942 0.36193022 0.07701925 0.08839062
0.17638856 0.014519104 -0.15814535 -0.119932815 -0.015692437 0.06033701 0.16930875 -0.09163917
-0.13983412 -0.01417631 0.0037673444 -0.008155377 0.11606925 -0.1578712 0.07310583 -0.030349087
-0.045416176 -0.030729987 0.0004043823 -0.07262913 -0.012508651 0.118001185 0.010958668 0.15389863
-0.021094622 -0.004888459 0.0031726107 -0.20638095 -0.005856704 0.031458363 -0.0010901522 0.040430844
0.015712073 -0.16343425 0.046140675 -0.0264092 -0.12604466 0.015171663 -0.046134353 -0.17049874
-0.08700433 -0.017235292 0.046537984 0.039595604 0.0135094095 -0.024752798 0.06608317 -0.021677805
-0.089416176 0.062847644 0.050299317 0.037757758 -0.05668394 0.25706673 0.041772965 0.03087259
0.13034867 -0.23668948 0.077536635 0.006557786 -0.051957384 -0.038518805 -0.2399263 -0.049510278
0.046838745 -0.058163222 0.0038001759 -0.0025226392 0.22617178 -0.068982504 0.08334468 -0.104263574
-0.061125625 0.12693246 0.20575894 -0.038982317 0.047998257 0.027225874 -0.06043067 -0.03754224
-0.0039230087 0.022084413 0.17327969 -0.08239087 -0.13286209 0.054466605 0.11587094 -0.19930395
-0.11365228 0.051226426 0.14184782 -0.0670676 -0.17643924 -0.061978105 -0.04878614 -0.12026166
0.04361549 -0.026563713 0.13740656 -0.10627777 0.0010964412 0.031842917 0.0055175787 0.05058878
0.04085622 -0.08239433 -0.0973789 0.06575632 0.034448396 0.045094147 0.20547594 -0.03084594
0.032253534 0.1195184 -0.06826907 0.13264938 0.099682815 -0.028827349 0.018582232 -0.08811234
-0.043732926 0.11867913 0.061579462 -0.04962523 0.06410176 -0.20533781 0.34145504 -0.14185706
00000000: 7658 903d 4fef 8fbd 3055 9bbb 9a6e a33d
00000010: 2026 a4bd 985e b9bd 96a9 503e 3d11 9ebc
00000020: cff0 d33c c267 12be d838 24be 7408 d6bd
00000030: 275d d7bc 127a edbd 777d 7dbd 9dd2 1c3a
00000040: 959f d7bd 6a99 b53d 86f7 59bd 2f05 efbd
00000050: 2949 a83d 525b 09bd 3dd4 6bbd d5d4 bcbd
00000060: 409e ee3d 25ed 36bd c766 a0ba a7db e33d
00000070: f751 e8bc e2b7 083e e733 9e3d 6646 093e
00000080: d7d2 b73d d236 173d ddc7 cb3c 3b4e 943d
00000090: 0661 bf3d 6d52 c13c 1fd4 e7bd 2510 273c
000000a0: 76ec ffbb 198f 08bd 9130 cebb 0b37 a2bd
000000b0: e166 0a3e 2243 70be a7f8 e8bb 44f8 45bd
000000c0: b97a 6ebe a940 16be 185c d6bd 97c7 613c
000000d0: 511c 0e3d 5ca6 d53d 91e0 123e d82a 253e
000000e0: 9af2 4abd 004f 083e 3161 1d3d a02d 34be
000000f0: c47a cf3d 2d80 b13d ea5d 4ebd be55 b93d
00000100: d227 573e 126e 983e 3e16 fe3d 4d0a c23d
00000110: d6d6 aebd 45a6 05be 3e68 113d 7c72 bd3d
00000120: 6f64 15bd 65ad b13c 4d2a 413d 0d7a c6bd
00000130: 8e4c 863e 0501 df3d e22b 8bbd 59b5 5bbd
00000140: 857a a43d d136 61bd db81 863d 8a3b 3d3e
00000150: c7c7 a13d 2aaf a7bc b920 993d 87cf c83d
00000160: 72d7 c4bd 7087 7dbe 0cb7 78bc 9d17 133e
00000170: 076e d0bd bfa4 293d 7b1b c23d 231e 9d3d
00000180: 380a a63e 9be3 a6bd 5f45 b6bd 1edb 5b3d
00000190: 922a 82be 2546 62bc 05b4 69be 8d62 093d
000001a0: 4d4a aabc 6103 c33d d3ab 543e e21f 2f3e
000001b0: 2a5d 05bb cdf2 5b3e e507 abbd fafd 6e3d
000001c0: f97a 6c3e 3753 3e3e 7f5a 253d 2ad3 cfbd
000001d0: 7eb2 0a3e a9db 9fbc 5d14 603c 0f34 3fbc
000001e0: 8eda ad3c 573e 83bd 457a dcbd 319c 883d
000001f0: 6bc2 bbbd eb4e b93e 45bc 9d3d 2406 b53d
00000200: 349f 343e 89e1 6d3c dbf0 21be 569f f5bd
00000210: 6d8d 80bc f123 773d 465f 2d3e 51ad bbbd
00000220: ad30 0fbe c143 68bc 8de5 763b 219e 05bc
00000230: b7b5 ed3d fda8 21be 82b8 953d a69e f8bc
00000240: 5006 3abd 74bd fbbc 4603 d439 95be 94bd
00000250: 16f1 4cbc 9baa f13d fc8b 333c 9a97 1d3e
00000260: a1ce acbc 5e2f a0bb 93eb 4f3b 8755 53be
00000270: 98e9 bfbb 7cda 003d 70e3 8eba d09a 253d
00000280: 9bb6 803c 4f5b 27be 01fe 3c3d 1b58 d8bc
00000290: da11 01be 9192 783c 60f7 3cbd 3997 2ebe
000002a0: 532f b2bd 0731 8dbc 9d9e 3e3d 002f 223d
000002b0: 9256 5d3c 61c6 cabc 9d56 873d a795 b1bc
000002c0: d41f b7bd 44b6 803d a806 4e3d e1a7 1a3d
000002d0: 6b2d 68bd 409e 833e 211a 2b3d 84e8 fc3c
000002e0: 1f7a 053e ba5e 72be 87cb 9e3d b2e2 d63b
000002f0: 44d1 54bd e5c5 1dbd 3daf 75be 4acb 4abd
00000300: fcd9 3f3d 8f3c 6ebd 5f0c 793b dd52 25bb
00000310: 9399 673e b346 8dbd 9eb0 aa3d 2488 d5bd
00000320: dd5e 7abd 95fa 013e 79b2 523e ecab 1fbd
00000330: d299 443d cc08 df3c 2686 77bd e4c5 19bd
00000340: 958c 80bb 5fea b43c 3b70 313e 8bbc a8bd
00000350: 000d 08be 6018 5f3d be4d ed3d 5616 4cbe
00000360: 87c2 e8bd cdd2 513d 8e40 113e bd5a 89bd
00000370: 7dac 34be c1dc 7dbd fad3 47bd bf4b f6bd
00000380: 28a6 323d 259c d9bc 4eb4 0c3e 29a8 d9bd
00000390: 76b6 8f3a b86d 023d cecc b43b 2e36 4f3d
000003a0: da58 273d 5cbe a8bd 976e c7bd 40ab 863d
000003b0: c319 0d3d a4b4 383d 4968 523e a0b0 fcbc
000003c0: 481c 043d 10c6 f43d a7d0 8bbd 3dd5 073e
000003d0: 8126 cc3d 5527 ecbc c439 983c 3e74 b4bd
000003e0: 4c21 33bd 0b0e f33d bf3a 7c3d d343 4bbd
000003f0: c947 833d 1344 52be 32d3 ae3e fa42 11be

network_body._body_endoder.seq_layers.0.bias f4 [64]
0.082642436 0.04077937 -0.10491632 -0.049186602 0.024802648 -0.033029456 0.021982221 0.12319503
0.09179596 -0.12583824 0.08912849 0.12163701 0.08094899 -0.13900897 0.10783261 0.0025850683
0.024688423 0.085980706 -0.12250559 -0.12955998 -0.0012533765 -0.018437719 0.08108079 -0.0097782435
-0.016788684 0.04317426 -0.08962621 0.07664317 0.049879596 -0.032177698 0.012504729 0.014443027
0.04311156 -0.12049609 -0.055000473 0.0042993706 0.080981 0.045858227 -0.01636861 0.03248091
-0.04850378 0.034458585 -0.030723339 -0.015577788 -0.014427073 -0.08438247 -0.04971339 -0.061449826
-0.008509176 0.055356607 -0.05147159 0.057870775 0.051630314 -0.02506107 -0.12085038 0.13421737
-0.05877573 0.0024555877 -0.07802956 0.04157468 -0.015341372 0.028129002 -0.14956607 -0.10012973
00000000: 7040 a93d 4508 273d 5ede d6bd e477 49bd
00000010: ec2e cb3c e549 07bd 0f14 b43c ad4d fc3d
00000020: 85ff bb3d bddb 00be ff88 b63d d31c f93d
00000030: 96c8 a53d 5e58 0ebe 58d7 dc3d 406a 293b
00000040: 603f ca3c a716 b03d 36e4 fabd 5fab 04be
00000050: 5648 a4ba b30a 97bc af0d a63d ed34 20bc
00000060: 6c88 89bc 7ed7 303d f28d b7bd 18f7 9c3d
00000070: 8c4e 4c3d c3cc 03bd a3e0 4c3c 72a2 6c3c
00000080: bf95 303d a7c6 f6bd 2d48 61bd bce1 8c3b
00000090: 5ed9 a53d d6d5 3b3d 7717 86bc b40a 053d
000000a0: e6ab 46bd 7224 0d3d 83af fbbc fb39 7fbc
000000b0: 885f 6cbc b7d0 acbd 45a0 4bbd d0b2 7bbd
000000c0: 126a 0bbc 9cbd 623d e0d3 52bd e809 6d3d
000000d0: 4f7a 533d e04c cdbc 6780 f7bd 4770 093e
000000e0: d2be 70bd eded 203b f6cd 9fbd 364a 2a3d
000000f0: 615a 7bbc cb6e e63c d927 19be d110 cdbd

network_body._body_endoder.seq_layers.2.weight f4 [64, 64]
0.06518223 -0.12506753 -0.19079833 -0.0954943 -0.020088471 -0.30038437 0.010593592 0.058699954
-0.10809241 0.22543491 -0.32914096 0.042245593 0.081668645 -0.151342 -0.071101 0.14816451
-0.08685833 -0.17624691 0.35369968 0.03877681 0.12200432 -0.046890587 0.23247063 -0.021349572
0.09328877 0.2701369 -0.03765554 -0.021430722 0.013596656 0.18820414 0.06115461 0.036571912
0.02105724 0.15888003 -0.19881135 0.06747083 -0.27274066 0.03507619 -0.15674898 -0.25340027
0.007674069 -0.3524891 -0.10669092 0.18476874 0.010327649 -0.04255954 -0.0383769 0.0678491
-0.13011654 -0.17334487 -0.3126886 0.18849881 -0.13312761 -0.12915668 -0.019549012 -0.101001866
-0.24876326 -0.02992143 -0.07844849 -0.2156803 -0.25719815 -0.12980615 0.04502202 0.22055556
-0.10163415 -0.053385396 -0.17158328 0.08878206 -0.08420312 -0.048584428 -0.08622567 -0.24414723
0.0052818195 0.14534575 0.04196088 -0.108805396 0.009668563 -0.027300844 0.05876993 0.102154896
0.057389088 -0.02433199 -0.14714868 0.04858913 0.14677662 0.056186896 -0.035483036 -0.20038621
0.07912949 0.1680697 -0.01477118 0.1366009 -0.43933773 -0.09512143 0.26853395 -0.03292549
0.2274389 -0.022553338 0.10494954 -0.0005726322 -0.34683168 0.1074747 -0.038688924 0.04193883
-0.38595858 0.09919677 -0.0534701 0.2248809 0.11886712 -0.14919536 -0.10208018 0.14119752
-0.023280555 0.14218834 -0.0851153 0.014500147 0.136859 -0.05634623 0.055655513 0.1909811
0.005345726 0.06571089 0.15891461 0.02976941 -0.24843454 -0.23133364 -0.101603426 -0.12636322
0.013180942 -0.13318409 -0.06918191 -0.09251479 0.13211632 0.008769984 0.09530341 -0.3228522
-0.362944 0.04948373 -0.26954305 -0.34854728 -0.08933459 -0.091239505 0.15103446 0.07223706
-0.1456682 0.12494939 0.03567693 -0.11820404 -0.16714574 -0.02716502 -0.19539635 0.04654686
0.25713 0.121584 -0.06405627 -0.100254804 0.27670932 0.12333118 -0.010122678 -0.33862635
-0.049482368 0.15942062 -0.107818045 -0.1626506 -0.029589558 -0.07699087 -0.15173206 -0.17464969
-0.15066889 -0.021475106 -0.097094856 -0.020002112 -0.12133636 -0.14281504 0.07219256 -0.16639377
-0.11115072 -0.29717916 -0.10095589 -0.12613672 0.0129425395 0.21556002 0.12106832 0.01734442
-0.26375157 -0.20188987 -0.03516489 -0.12536713 -0.09130737 -0.11030504 -0.17806382 0.10224306
0.04167316 -0.14738098 -0.16907758 0.07318207 0.062363215 0.106810175 0.06935961 -0.037684556
-0.15778331 -0.08588342 0.09233644 -0.043403767 0.32829696 -0.037897673 0.09228664 -0.22342683
0.13189298 0.08370578 0.13769051 0.16006303 -0.08538014 -0.0014775757 0.11564992 0.16565302
0.15899481 0.2838976 -0.07475286 0.15797171 -0.16232422 0.06572595 0.13938126 -0.23550542
-0.0677666 -0.14218667 -0.034181345 0.18266028 -0.02663212 -0.037236065 -0.0501926 0.027201314
-0.3256896 0.13418588 0.01866584 0.25931573 -0.17292535 0.161366 0.15340029 -0.15885895
-0.0638088 -0.024747936 0.25474024 0.010031103 -0.032124866 0.15244073 -0.00096647657 0.07795094
0.1564247 0.01564752 0.2039371 0.23036057 0.121711686 0.13834834 0.0034516717 -0.1031917
00000000: 437e 853d b411 00be a360 43be 8492 c3bd
00000010: 9490 a4bc fbcb 99be bf90 2d3c 5d6f 703d
00000020: 8e5f ddbd 69d8 663e 2a85 a8be b709 2d3d
00000030: e441 a73d 66f9 1abe 679d 91bd 70b8 173e
00000040: c8e2 b1bd 127a 34be 2018 b53e 6fd4 1e3d
00000050: 67dd f93d 5810 40bd c80c 6e3e 4ce5 aebc
00000060: 2f0e bf3d 624f 8a3e b23c 1abd 7b8f afbc
00000070: 82c4 5e3c 96b8 403e 427d 7a3d 6ecc 153d
00000080: 3c80 ac3c 72b1 223e 3495 4bbe 262e 8a3d
00000090: aaa4 8bbe 0dac 0f3d ce82 20be aebd 81be
000000a0: c276 fb3b 7479 b4be c580 dabd 0434 3d3e
000000b0: 4d35 293c ea52 2ebd 1931 1dbd 78f4 8a3d
000000c0: 453d 05be 5181 31be b818 a0be d505 413e
000000d0: 9b52 08be a641 04be 4025 a0bc 11da cebd
000000e0: ccbb 7ebe c91d f5bc 9aa9 a0bd 4cdb 5cbe
000000f0: 7aaf 83be e7eb 04be 0269 383d 51d9 613e
00000100: 9125 d0bd a5aa 5abd 87b3 2fbe 5ed3 b53d
00000110: af72 acbd 7700 47bd 1697 b0bd bb01 7abe
00000120: 1d13 ad3b 84d5 143e 2cdf 2b3d 5dd5 debd
00000130: e468 1e3c 05a6 dfbc bdb8 703d 9636 d13d
00000140: d210 6b3d e253 c7bc 25ae 16be 6505 473d
00000150: 9c4c 163e 3b24 663d a956 11bd 0b32 4dbe
00000160: a40e a23d 771a 2c3e d202 72bc 1be1 0b3e
00000170: e0f0 e0be 06cf c2bd 487d 893e e1dc 06bd
00000180: bee5 683e c7c1 b8bc c9ef d63d b21c 16ba
00000190: ec93 b1be b21b dc3d 4778 1ebd 0dc8 2b3d
000001a0: 5d9c c5be ad27 cb3d 7703 5bbd 2e47 663e
000001b0: 9b70 f33d abc6 18be 6a0f d1bd 1596 103e
000001c0: ddb6 bebc d299 113e ee50 aebd 0692 6d3c
000001d0: c424 0c3e 4ecb 66bd 09f7 633d 8d90 433e
000001e0: 332b af3b 6e93 863d 83ba 223e fade f33c
000001f0: a065 7ebe bae2 6cbe 7515 d0bd 5c65 01be
00000200: e1f4 573c 6961 08be 3faf 8dbd 6578 bdbd
00000210: 8049 073e fbaf 0f3c 6f2e c33d e24c a5be
00000220: ccd3 b9be 74af 4a3d 8c01 8abe ca74 b2be
00000230: 0ef5 b6bd c7db babd c7a8 1a3e 06f1 933d
00000240: 0b2a 15be 77e5 ff3d f921 123d f614 f2bd
00000250: 4128 2bbe 2d89 debc fb15 48be eca7 3e3d
00000260: 8ba6 833e 0801 f93d ef2f 83bd 6452 cdbd
00000270: d8ac 8d3e 0f95 fc3d 97d9 25bc 6f60 adbe
00000280: 06ae 4abd 293f 233e b5cf dcbd e18d 26be
00000290: cd65 f2bc 64ad 9dbd a65f 1bbe 5ed7 32be
000002a0: f248 1abe 90ec afbc abd9 c6bd 78db a3bc
000002b0: 337f f8bd 1b3e 12be b1d9 933d 2163 2abe
000002c0: fda2 e3bd de27 98be f6c1 cebd fc29 01be
000002d0: f20c 543c c4bb 5c3e abf2 f73d e315 8e3c
000002e0: 720a 87be 38bc 4ebe 0f09 10bd 3e60 00be
000002f0: 5cff babd 9ce7 e1bd 5d56 36be cf64 d13d
00000300: 7ab1 2a3d 0aeb 16be ac22 2dbe 7be0 953d
00000310: 9270 7f3d 4bbf da3d 690c 8e3d 1f5b 1abd
00000320: f391 21be a6e3 afbd e31a bd3d 26c8 31bd
00000330: 8a16 a83e 973a 1bbd c700 bd3d 01ca 64be
00000340: f40e 073e f06d ab3d befe 0c3e 90e7 233e
00000350: c8db aebd 37ab c1ba ded9 ec3d f2a0 293e
00000360: 89cf 223e 075b 913e 0718 99bd 56c3 213e
00000370: 5238 26be 549b 863d f6b9 0e3e 5528 71be
00000380: 37c9 8abd 6299 11be bd01 0cbd 4c0b 3b3e
00000390: 9b2b dabc d884 18bd c196 4dbd 4ad5 de3c
000003a0: cac0 a6be 0668 093e 1be9 983c 08c5 843e
000003b0: 5813 31be 213d 253e f714 1d3e ecab 22be
000003c0: 30ae 82bd 2fbc cabc 506d 823e 7f59 243c
000003d0: 5d95 03bd 6c19 1c3e 255b 7dba bea4 9f3d
000003e0: cc2d 203e 3a2f 803c e3d4 503e a4e3 6b3e
000003f0: fa43 f93d 30ab 0d3e 7135 623b 2c56 d3bd

network_body._body_endoder.seq_layers.2.bias f4 [64]
-0.11796511 0.018374965 -0.12049366 0.106533445 -0.22815746 0.119837984 -0.052704945 -0.16780789
-0.10585401 -0.049457394 0.14528722 -0.1868796 0.062823206 0.031076021 0.053439602 -0.052242137
-0.09345242 -0.23213676 -0.040132377 -0.002959191 0.11345443 0.010020298 0.047964063 -0.14856777
0.07017029 -0.17115846 0.09535444 -0.018259399 -0.18744017 -0.09293454 0.04132942 0.06968361
-0.12050349 0.085189626 0.08735764 0.0032991278 0.058922596 0.10489082 -0.095628634 0.12757315
0.03264043 -0.18513893 0.08005809 -0.027803505 0.09505758 -0.14360934 0.12525682 0.05603214
0.10389845 -0.05435562 -0.09518448 -0.05842576 0.13193491 -0.09806169 -0.015075327 0.031575885
-0.11825133 -0.18112905 0.010203245 0.12940958 0.081350535 -0.22515212 -0.15390018 0.12375433
00000000: b197 f1bd 1887 963c 61c5 f6bd 352e da3d
00000010: 1ca2 69be 9e6d f53d 24e1 57bd d5d5 2bbe
00000020: fdc9 d8bd d693 4abd 2cc6 143e 5e5d 3fbe
00000030: 74a9 803d 2493 fe3c 7ce3 5a3d dafb 55bd
00000040: fb63 bfbd 42b5 6dbe d961 24bd fdee 41bb
00000050: cc5a e83d 2d2c 243c f775 443d 2622 18be
00000060: 71b5 8f3d 2a44 2fbe 3049 c33d bc94 95bc
00000070: 51f0 3fbe 7754 bebd 0a49 293d 48b6 8e3d
00000080: 89ca f6bd e677 ae3d 90e8 b23d 2e36 583b
00000090: d258 713d 00d1 d63d f2d8 c3bd 89a2 023e
000000a0: f9b1 053d 0f95 3dbe 7ff5 a33d 2dc4 e3bc
000000b0: 8cad c23d 540e 13be 5343 003e f581 653d
000000c0: b6c8 d43d 00a4 5ebd 15f0 c2bd da4f 6fbd
000000d0: f219 073e 91d4 c8bd 81fe 76bc b755 013d
000000e0: c12d f2bd e579 39be 832b 273c f283 043e
000000f0: 1c9b a63d 478e 66be 0298 1dbe e972 fd3d

action_model._continuous_distribution.log_sigma f4 [1, 2]
-0.3720014 -0.37594822
00000000: f876 bebe 497c c0be

action_model._continuous_distribution.mu.weight f4 [2, 64]
-0.08203253 0.07463844 -0.07695608 0.059201375 -0.039635934 0.07565027 -0.11655535 -0.08361072
-0.2308155 0.075418845 0.05681717 -0.087534726 0.1876262 0.050985686 0.0018270931 0.12897834
-0.053094927 -0.041397188 -0.06406065 -0.087212555 -0.0128791295 0.012790837 -0.089103766 -0.04746979
-0.118936606 -0.05938682 0.07431109 0.07918148 -0.060188476 0.012199367 -0.0889798 0.04974432
0.028380733 -0.049656708 0.09882966 -0.116604686 -0.025023576 -0.027593646 -0.006907308 0.08762621
-0.09340937 -0.058066487 0.009768869 0.1186523 0.01926793 0.026959617 0.00064801914 -0.07190696
0.10622005 -0.037206814 -0.04225878 -0.13160747 0.08627681 0.062043056 0.06434788 -0.061225675
0.025011942 -0.04107822 -0.20669872 -0.005229244 0.035330996 -0.061833873 -0.0065858667 0.105403624
-0.053411253 0.04852113 -0.029341154 0.03286824 -0.09894523 0.07949059 -0.07723824 -0.12376194
-0.08245285 0.0124035515 0.12408562 -0.10578099 0.091542795 0.026739825 0.030764278 0.01623208
0.009096237 -0.032281723 -0.097030655 0.041414794 0.16193163 0.044203762 0.07711667 -0.027186446
0.0986051 -0.16587074 0.035900496 0.039051257 -0.13851923 -0.15328488 0.061459657 0.046737283
-0.14453833 0.06444576 0.022002727 0.07224544 0.03128997 0.10797008 -0.0076508876 0.1065144
0.07057644 -0.14786242 0.027599104 0.0050514555 0.01754387 -0.09878501 0.09735633 0.038354404
0.057386506 -0.15810421 -0.26365513 -0.14548786 0.13014327 -0.13708709 0.036921386 0.080638774
-0.16438803 -0.132175 0.04507124 0.05801429 0.026419029 -0.06885386 -0.12605608 0.059600048
00000000: ac00 a8bd 0adc 983d 269b 9dbd 247d 723d
00000010: 4a59 22bd 87ee 9a3d 92b4 eebd 193c abbd
00000020: e65a 6cbe 3275 9a3d 1fb9 683d 6845 b3bd
00000030: 1521 403e 5ed6 503d 127b ef3a e612 043e
00000040: 117a 59bd 1990 29bd 3b32 83bd 7f9c b2bd
00000050: fc02 53bc a990 513c 097c b6bd af6f 42bd
00000060: 0995 f3bd 983f 73bd 6a30 983d e629 a23d
00000070: 3188 76bd dbdf 473c 0b3b b6bd b3c0 4b3d
00000080: b67e e83c d564 4bbd 3467 ca3d 70ce eebd
00000090: 3efe ccbc 120c e2bc b356 e2bb 5f75 b33d
000000a0: 694d bfbd 20d7 6dbd 9b0d 203c faff f23d
000000b0: c7d7 9d3c 6ada dc3c d4df 293a f543 93bd
000000c0: e689 d93d 2c66 18bd 8b17 2dbd 1cc4 06be
000000d0: e5b1 b03d dc20 7e3d d2c8 833d c6c7 7abd
000000e0: d8e5 cc3c a341 28bd d4a8 53be 145a abbb
000000f0: 3cb7 103d 8445 7dbd 41ce d7bb dbdd d73d
00000100: c2c5 5abd 18be 463d dc5c f0bc d9a0 063d
00000110: cca3 cabd f6cb a23d 152f 9ebd e676 fdbd
00000120: 0add a8bd 4438 4b3c 9a20 fe3d b4a3 d8bd
00000130: ca7a bb3d 7a0d db3c 5e05 fc3c 24f9 843c
00000140: 6208 153c d739 04bd 02b8 c6bd 8fa2 293d
00000150: 68d1 253e 010f 353d 58ef 9d3d 1cb6 debc
00000160: 78f1 c93d 05da 29be 660c 133d 36f4 1f3d
00000170: fcd7 0dbe b6f6 1cbe 1fbd 7b3d 986f 3f3d
00000180: db01 14be 23fc 833d 103f b43c 6bf5 933d
00000190: e929 003d 6b1f dd3d 4cb4 fabb 3924 da3d
000001a0: 618a 903d 3f69 17be 8417 e23c ae86 a53b
000001b0: 29b8 8f3c cc4f cabd c162 c73d 8219 1d3d
000001c0: 1d0e 6b3d 12e6 21be cefd 86be c5fa 14be
000001d0: 4744 053e 8f60 0cbe e13a 173d f125 a53d
000001e0: 5655 28be e258 07be 9f9c 383d 64a0 6d3d
000001f0: b86c d83c 4103 8dbd d814 01be 2e1f 743d

action_model._continuous_distribution.mu.bias f4 [2]
0.015578305 0.19652341
00000000: 263c 7f3c 6f3d 493e

exp_avg f4 [64, 131]
0.00038845578 0.0 0.0 0.0 -0.004076431 -0.0042495546 -0.0015072419 0.0
0.0 0.0 -0.0027725075 -0.004132851 0.0013348947 0.0 0.0 0.0
-0.00455838 -0.004227691 0.00035980248 0.0 0.0 0.0 -0.0039101457 -0.004141714
-0.0072753504 0.0 0.0 0.0 -0.0005884898 -0.0030429086 0.00040484726 0.0
0.0 0.0 -0.0023244426 -0.0024426235 -0.0007420741 0.0 0.0 0.0
-0.0014266854 -0.002439177 -0.0028152214 0.0 0.0 0.0 -0.0006355512 -0.0024205388
0.000236305 0.0 0.0 0.0 -0.0020909929 -0.0022689712 -0.0053660735 0.0
0.0 0.0 9.1882794e-05 -0.0019200506 0.00042426746 0.0 0.0 0.0
-0.00065073685 -0.0005790228 0.0012965511 0.0 0.0 0.0 -0.0013518491 -0.00094156404
-0.013380746 0.0 0.0 0.0 0.008549963 -0.00040475666 0.0017162699 0.0
0.0 0.0 -0.0016996282 -0.0004920328 -0.0077095055 0.0 0.0 0.0
0.0010447355 -0.0025848553 0.0004466816 0.0 0.0 0.0 -0.0004467321 -0.00036596463
0.0029692627 0.0 0.0 0.0 -0.002969257 -0.0013120014 0.0012977308 0.0
0.0 0.0 -0.0012975396 -0.00023119424 0.001560349 0.0 0.0 0.0
-0.0015603174 -0.00019612665 -0.0079351915 0.0 0.0 0.0 0.0063734376 0.0026915474
-0.0020598746 0.0012732192 0.001950988 0.0028380058 0.00021566954 -0.00150898 -0.0018630092 -0.0026033786
-0.0036707984 -0.0015142496 0.00022650887 5.681962e-05 0.0 0.0 0.0 -0.0013451595
-0.0014268034 9.027541e-05 0.0 0.0 0.0 -0.0013116789 -0.0014093776 -1.98523e-05
0.0 0.0 0.0 -0.0013260143 -0.001424541 0.00011780312 0.0 0.0
0.0 -0.0013234769 -0.0014460483 0.00045430288 0.0 0.0 0.0 -0.0013417982
-0.0012985822 5.9098835e-05 0.0 0.0 0.0 -0.0013750773 -0.0015168566 0.00014955964
0.0 0.0 0.0 -0.0013476731 -0.0014749614 0.00019900934 0.0 0.0
0.0 -0.0014778107 -0.0015212793 0.0006062206 0.0 0.0 0.0 -0.0016597962
-0.0016013681 0.0006128098 0.0 0.0 0.0 -0.001888415 -0.0018428898 6.239524e-05
0.0 0.0 0.0 -0.00022192029 -0.00024131018 0.00032881493 0.0 0.0
0.0 -0.0004210561 -0.00030915867 0.00031249327 0.0 0.0 0.0 -0.00039322255
-0.00023446098 0.0008082954 0.0 0.0 0.0 -0.0008109101 -0.00041511786 0.00029524128
0.0 0.0 0.0 -0.0021082293 -0.0023345544 0.0001554814 0.0 0.0
0.0 -0.00015548861 -5.8972353e-05 0.0008600728 0.0 0.0 0.0 -0.0008600714
-0.00024714592 0.00017630694 0.0 0.0 0.0 -0.00017627767 -6.454954e-05 0.0009734011
0.0 0.0 0.0 -0.00097285165 -0.00032378355 0.00021004793 0.0 0.0
0.0 -0.0002640373 -0.00031893523 0.00027867305 -0.00066064677 0.002359643 1.04773335e-05 -0.0014193627
00000000: a7a9 cb39 0000 0000 0000 0000 0000 0000
00000010: 9593 85bb d93f 8bbb a58e c5ba 0000 0000
00000020: 0000 0000 0000 0000 f5b2 35bb de6c 87bb
00000030: a2f7 ae3a 0000 0000 0000 0000 0000 0000
00000040: 775e 95bb 7188 8abb dfa3 bc39 0000 0000
00000050: 0000 0000 0000 0000 ae20 80bb 37b7 87bb
00000060: 1066 eebb 0000 0000 0000 0000 0000 0000
00000070: e244 1aba 896b 47bb ae41 d439 0000 0000
00000080: 0000 0000 0000 0000 ad55 18bb 6c14 20bb
00000090: c087 42ba 0000 0000 0000 0000 0000 0000
000000a0: 9eff baba 99da 1fbb 947f 38bb 0000 0000
000000b0: 0000 0000 0000 0000 1e9b 26ba e7a1 1ebb
000000c0: a4c8 7739 0000 0000 0000 0000 0000 0000
000000d0: 0a09 09bb 05b3 14bb e3d5 afbb 0000 0000
000000e0: 0000 0000 0000 0000 33b1 c038 35aa fbba
000000f0: 3770 de39 0000 0000 0000 0000 0000 0000
00000100: 3696 2aba 90c9 17ba 09f1 a93a 0000 0000
00000110: 0000 0000 0000 0000 8730 b1ba 4bd3 76ba
00000120: eb3a 5bbc 0000 0000 0000 0000 0000 0000
00000130: 2515 0c3c 8535 d4b9 76f4 e03a 0000 0000
00000140: 0000 0000 0000 0000 0fc6 deba c3fb 00ba
00000150: 05a0 fcbb 0000 0000 0000 0000 0000 0000
00000160: 82ef 883a ad66 29bb 9730 ea39 0000 0000
00000170: 0000 0000 0000 0000 5e37 eab9 f1de bfb9
00000180: f697 423b 0000 0000 0000 0000 0000 0000
00000190: de97 42bb 76f7 abba 9f18 aa3a 0000 0000
000001a0: 0000 0000 0000 0000 3412 aaba bb6c 72b9
000001b0: a084 cc3a 0000 0000 0000 0000 0000 0000
000001c0: 9083 ccba 59a7 4db9 9b02 02bc 0000 0000
000001d0: 0000 0000 0000 0000 45d8 d03b ac64 303b
000001e0: f6fe 06bb 26e2 a63a 4bb8 ff3a d6fd 393b
000001f0: 5a25 6239 f8c8 c5ba 3730 f4ba 729d 2abb
00000200: c791 70bb c979 c6ba 0383 6d39 9a51 6e38
00000210: 0000 0000 0000 0000 0000 0000 1050 b0ba
00000220: 9403 bbba 3e52 bd38 0000 0000 0000 0000
00000230: 0000 0000 a4ec abba ddba b8ba 7d88 a6b7
00000240: 0000 0000 0000 0000 0000 0000 a8cd adba
00000250: aab7 baba 120d f738 0000 0000 0000 0000
00000260: 0000 0000 8478 adba 5489 bdba 802f ee39
00000270: 0000 0000 0000 0000 0000 0000 47df afba
00000280: 3035 aaba e4e0 7738 0000 0000 0000 0000
00000290: 0000 0000 f03b b4ba 43d1 c6ba 1cd3 1c39
000002a0: 0000 0000 0000 0000 0000 0000 68a4 b0ba
000002b0: 7e53 c1ba 2aad 5039 0000 0000 0000 0000
000002c0: 0000 0000 19b3 c1ba aa65 c7ba c7ea 1e3a
000002d0: 0000 0000 0000 0000 0000 0000 858d d9ba
000002e0: ffe4 d1ba f8a4 203a 0000 0000 0000 0000
000002f0: 0000 0000 b184 f7ba 1f8d f1ba 30da 8238
00000300: 0000 0000 0000 0000 0000 0000 46b3 68b9
00000310: 3508 7db9 cb64 ac39 0000 0000 0000 0000
00000320: 0000 0000 31c1 dcb9 9316 a2b9 23d6 a339
00000330: 0000 0000 0000 0000 0000 0000 7029 ceb9
00000340: a4d9 75b9 c9e3 533a 0000 0000 0000 0000
00000350: 0000 0000 4193 54ba 2da4 d9b9 9dca 9a39
00000360: 0000 0000 0000 0000 0000 0000 382a 0abb
00000370: 53ff 18bb b808 2339 0000 0000 0000 0000
00000380: 0000 0000 a80a 23b9 1559 77b8 8276 613a
00000390: 0000 0000 0000 0000 0000 0000 6a76 61ba
000003a0: 5d93 81b9 09df 3839 0000 0000 0000 0000
000003b0: 0000 0000 2dd7 38b9 c55e 87b8 d82b 7f3a
000003c0: 0000 0000 0000 0000 0000 0000 f806 7fba
000003d0: 7ec1 a9b9 5040 5c39 0000 0000 0000 0000
000003e0: 0000 0000 7d6e 8ab9 c336 a7b9 dd1a 9239
000003f0: 412f 2dba 3ea4 1a3b cec7 2f37 e909 baba

exp_avg_sq f4 [64, 131]
0.0003352805 0.0 0.0 0.0 0.00018635087 0.0001568493 0.00038513183 0.0
0.0 0.0 0.00020604565 0.00014680496 0.0003297526 0.0 0.0 0.0
0.00017743024 0.00015860987 0.00023279553 0.0 0.0 0.0 0.00017340359 0.00014491557
0.0006615855 0.0 0.0 0.0 0.00020788588 0.00014453851 0.00033225332 0.0
0.0 0.0 0.00018202704 0.0001245194 0.0003859473 0.0 0.0 0.0
0.00022035778 0.00011826591 0.000314816 0.0 0.0 0.0 0.00016186101 0.00012233687
0.00022172283 0.0 0.0 0.0 0.00016264989 0.00011355176 0.000625224 0.0
0.0 0.0 0.00023829639 0.00014457322 0.00031110016 0.0 0.0 0.0
0.00014783525 3.0976862e-05 0.0003862636 0.0 0.0 0.0 0.00023051273 4.770577e-05
0.00019392728 0.0 0.0 0.0 8.8341985e-05 2.3504725e-05 0.00022211048 0.0
0.0 0.0 0.00014163031 3.6118658e-05 0.00063867524 0.0 0.0 0.0
0.0002692093 0.00010134306 0.00028041366 0.0 0.0 0.0 0.0002804074 7.0609756e-05
0.0003603645 0.0 0.0 0.0 0.00036036284 0.00011826582 5.2482297e-05 0.0
0.0 0.0 5.2479576e-05 2.8599934e-05 0.00021012478 0.0 0.0 0.0
0.00020977779 7.950065e-05 0.00058218825 0.0 0.0 0.0 0.0003693726 7.906472e-05
0.000104223436 9.206927e-05 0.000111142464 0.0001305157 0.00016137268 9.5564414e-05 0.00012727719 0.00012918815
0.00014854362 0.00012928988 0.00014647121 2.2756694e-06 0.0 0.0 0.0 3.8856546e-05
4.4921948e-05 4.3980144e-06 0.0 0.0 0.0 3.588179e-05 4.255728e-05 3.7226623e-06
0.0 0.0 0.0 4.0191524e-05 4.5245863e-05 1.7883995e-05 0.0 0.0
0.0 3.779081e-05 4.2021144e-05 3.4298835e-06 0.0 0.0 0.0 3.8477905e-05
4.352854e-05 2.38973e-06 0.0 0.0 0.0 2.8472945e-05 3.441404e-05 4.261939e-06
0.0 0.0 0.0 2.6181177e-05 3.206033e-05 5.0961357e-06 0.0 0.0
0.0 3.0028476e-05 3.4700563e-05 1.7777247e-05 0.0 0.0 0.0 3.0434696e-05
3.1787516e-05 3.936498e-06 0.0 0.0 0.0 3.5186014e-05 4.1358904e-05 2.909634e-06
0.0 0.0 0.0 6.463389e-06 5.4212883e-06 4.8343836e-06 0.0 0.0
0.0 8.459272e-06 7.1232507e-06 6.260159e-06 0.0 0.0 0.0 7.3967394e-06
5.0319136e-06 1.6979113e-05 0.0 0.0 0.0 1.5487394e-05 7.317039e-06 8.74629e-06
0.0 0.0 0.0 2.2149023e-05 2.3682298e-05 3.2931173e-06 0.0 0.0
0.0 3.2937187e-06 1.5761622e-06 5.2978917e-06 0.0 0.0 0.0 5.2980135e-06
3.4821448e-06 3.416202e-06 0.0 0.0 0.0 3.4149743e-06 1.0843328e-06 1.5826083e-05
0.0 0.0 0.0 1.5814794e-05 4.249992e-06 1.08430295e-05 0.0 0.0
0.0 8.972025e-06 3.735209e-06 3.544662e-05 4.1468666e-05 4.0618983e-05 4.566997e-05 3.642053e-05
00000000: 96c8 af39 0000 0000 0000 0000 0000 0000
00000010: 2e67 4339 ea77 2439 85eb c939 0000 0000
00000020: 0000 0000 0000 0000 f50d 5839 a8ef 1939
00000030: a5e2 ac39 0000 0000 0000 0000 0000 0000
00000040: 910c 3a39 8350 2639 931a 7439 0000 0000
00000050: 0000 0000 0000 0000 acd3 3539 7af4 1739
00000060: 406e 2d3a 0000 0000 0000 0000 0000 0000
00000070: f1fb 5939 438f 1739 4932 ae39 0000 0000
00000080: 0000 0000 0000 0000 83de 3e39 6c91 0239
00000090: f858 ca39 0000 0000 0000 0000 0000 0000
000000a0: d70f 6739 8705 f838 e30d a539 0000 0000
000000b0: 0000 0000 0000 0000 3cb9 2939 8e47 0039
000000c0: 457e 6839 0000 0000 0000 0000 0000 0000
000000d0: ff8c 2a39 a322 ee38 13e6 233a 0000 0000
000000e0: 0000 0000 0000 0000 33df 7939 9498 1739
000000f0: 281b a339 0000 0000 0000 0000 0000 0000
00000100: 3904 1b39 27ed 0138 6c83 ca39 0000 0000
00000110: 0000 0000 0000 0000 cab5 7139 ae17 4838
00000120: f558 4b39 0000 0000 0000 0000 0000 0000
00000130: 3e44 b938 032c c537 54e6 6839 0000 0000
00000140: 0000 0000 0000 0000 9982 1439 1d7e 1738
00000150: c56c 273a 0000 0000 0000 0000 0000 0000
00000160: a924 8d39 2488 d438 7c04 9339 0000 0000
00000170: 0000 0000 0000 0000 a503 9339 5314 9438
00000180: 4eef bc39 0000 0000 0000 0000 0000 0000
00000190: 15ef bc39 7b05 f838 7020 5c38 0000 0000
000001a0: 0000 0000 0000 0000 841d 5c38 e4e9 ef37
000001b0: f154 5c39 0000 0000 0000 0000 0000 0000
000001c0: ccf7 5b39 96b9 a638 fe9d 183a 0000 0000
000001d0: 0000 0000 0000 0000 5aa8 c139 8ccf a538
000001e0: 8892 da38 5015 c138 2815 e938 0bdb 0839
000001f0: 2636 2939 c169 c838 b675 0539 ae76 0739
00000200: 60c2 1b39 fd91 0739 1196 1939 b4b7 1836
00000210: 0000 0000 0000 0000 0000 0000 e6f9 2238
00000220: 936a 3c38 a892 9336 0000 0000 0000 0000
00000230: 0000 0000 c77f 1638 887f 3238 dad2 7936
00000240: 0000 0000 0000 0000 0000 0000 5293 2838
00000250: 60c6 3d38 9605 9637 0000 0000 0000 0000
00000260: 0000 0000 9381 1e38 dc3f 3038 f32c 6636
00000270: 0000 0000 0000 0000 0000 0000 5663 2138
00000280: 6a92 3638 405f 2036 0000 0000 0000 0000
00000290: 0000 0000 2fd9 ee37 cb57 1038 c701 8f36
000002a0: 0000 0000 0000 0000 0000 0000 a69f db37
000002b0: 8478 0638 79ff aa36 0000 0000 0000 0000
000002c0: 0000 0000 a9e5 fb37 728b 1138 5920 9537
000002d0: 0000 0000 0000 0000 0000 0000 034e ff37
000002e0: 9653 0538 4316 8436 0000 0000 0000 0000
000002f0: 0000 0000 b294 1338 c978 2d38 2243 4336
00000300: 0000 0000 0000 0000 0000 0000 17e0 d836
00000310: 83e8 b536 0a37 a236 0000 0000 0000 0000
00000320: 0000 0000 4cec 0d37 4204 ef36 5b0e d236
00000330: 0000 0000 0000 0000 0000 0000 8231 f836
00000340: cfd7 a836 5e6e 8e37 0000 0000 0000 0000
00000350: 0000 0000 edea 8137 e384 f536 08bd 1237
00000360: 0000 0000 0000 0000 0000 0000 aacc b937
00000370: 59a9 c637 53ff 5c36 0000 0000 0000 0000
00000380: 0000 0000 a809 5d36 858c d335 8bc4 b136
00000390: 0000 0000 0000 0000 0000 0000 97c5 b136
000003a0: cbae 6936 e741 6536 0000 0000 0000 0000
000003b0: 0000 0000 d02c 6536 6489 9135 41c2 8437
000003c0: 0000 0000 0000 0000 0000 0000 03aa 8437
000003d0: 279b 8e36 75ea 3537 0000 0000 0000 0000
000003e0: 0000 0000 8e86 1637 67aa 7a36 85ac 1438
000003f0: a4ee 2d38 4d5e 2a38 c28d 3f38 3fc2 1838

exp_avg f4 [64]
-0.0019361804 -0.0003010151 0.005025805 -0.0017648862 -0.0013489284 0.000990536 -0.0010919756 9.1044974e-05
-0.00027962317 -0.0001582287 -0.005528362 -0.0014058705 -0.0013117406 0.0012947288 -0.0056130476 -0.00033278024
-0.0012705125 -0.0037254852 0.00084964855 0.00017550259 -0.00040949273 -0.002082594 -0.0024569826 -0.0008735597
-0.00071809883 -0.0031240426 0.0018665357 -0.0022972508 -0.0013454591 -0.00015162761 -0.0019810419 0.00039368545
-0.00055266643 0.0009931106 0.00014082868 -0.0040269485 -0.0021503624 -0.00021323786 0.0025048226 -0.0032808902
0.0012513896 -0.00020113909 -0.00034325605 -0.0038962734 -0.0007264033 -0.0003217117 0.0022490544 2.5387071e-06
0.00043817938 0.0033161642 -0.0008698618 -0.00053998723 -0.0022314365 -0.0013591638 -0.00031703824 -0.0038596676
-0.00012542153 -0.0011083155 0.0025427353 -0.0015551422 0.0013593592 -0.0006320376 0.0004232715 0.0018758172
00000000: 6fc7 fdba 90d1 9db9 82af a43b c153 e7ba
00000010: 87ce b0ba dfd4 813a 9f20 8fba 66ef be38
00000020: 639a 92b9 31ea 25b9 4327 b5bb 3045 b8ba
00000030: b6ee abba e4b3 a93a a8ed b7bb 0279 aeb9
00000040: 5387 a6ba 4527 74bb f3ba 5e3a 1e07 3839
00000050: 2fb1 d6b9 217c 08bb 5405 21bb 99ff 64ba
00000060: cc3e 3cba bdbc 4cbb 8ca6 f43a 798d 16bb
00000070: 1e5a b0ba 3afe 1eb9 5ed4 01bb 9167 ce39
00000080: d1e0 10ba 432b 823a 69ab 1339 7ef4 83bb
00000090: 18ed 0cbb 9a98 5fb9 f327 243b 3404 57bb
000000a0: ab05 a43a dde8 52b9 0cf7 b3b9 9f58 7fbb
000000b0: 1a6c 3eba 6aab a8b9 df64 133b a85e 2a36
000000c0: 71bb e539 0154 593b 7007 64ba ee8d 0dba
000000d0: 4b3d 12bb f825 b2ba 2738 a6b9 7af2 7cbb
000000e0: 9683 03b9 e644 91ba 05a4 263b ead5 cbba
000000f0: 872c b23a 53af 25ba 8aea dd39 fbdd f53a

exp_avg_sq f4 [64]
0.00013020742 4.316801e-05 0.0005773678 6.678794e-05 4.928505e-05 1.4219103e-05 4.6948357e-05 9.258583e-05
1.3849009e-05 5.3684716e-06 0.0002938598 9.8783086e-05 3.6569385e-05 2.808701e-05 0.00036593777 2.1852386e-05
4.5430985e-05 0.00010986583 2.4239178e-05 3.0571773e-06 2.567171e-05 5.6696e-05 9.186309e-05 3.198642e-05
1.8501318e-05 0.00017647934 3.542948e-05 8.990438e-05 2.7580223e-05 2.472903e-05 8.50744e-05 2.8475433e-05
3.2645952e-05 8.104673e-06 2.9133618e-05 0.0001682849 7.6138844e-05 2.6014615e-05 0.00012688997 0.000104496874
6.259065e-05 3.891035e-05 2.113067e-05 0.000369999 6.9170484e-05 9.596065e-06 4.880243e-05 1.2160647e-05
6.734857e-06 0.00017944051 9.124912e-06 1.3241435e-05 0.00014157307 3.7987073e-05 3.4088478e-06 0.00023053146
3.8499104e-05 1.7080269e-05 6.1889834e-05 3.778613e-05 2.1796204e-05 1.1709423e-05 5.026462e-06 0.00010303239
00000000: 4a88 0839 4c0f 3538 7f5a 173a 8110 8c38
00000010: 6bb7 4e38 958e 6e37 6aea 4438 a42a c238
00000020: 0a59 6837 d222 b436 3211 9a39 c429 cf38
00000030: 1462 1938 659c eb37 56db bf39 a44f b737
00000040: 268d 3e38 c567 e638 3d55 cb37 e829 4d36
00000050: 9459 d737 decc 6d38 9fa6 c038 2829 0638
00000060: 4733 9b37 500d 3939 1d9a 1438 0c8b bc38
00000070: 145c e737 3071 cf37 f969 b238 87de ee37
00000080: 53ed 0838 4ef9 0737 f863 f437 a275 3039
00000090: bbac 9f38 f639 da37 c40d 0539 5525 db38
000000a0: 1943 8338 ac33 2338 c541 b137 6dfc c139
000000b0: 9f0f 9138 c9fe 2037 36b1 4c38 9505 4c37
000000c0: fbfb e136 3228 3c39 3317 1937 8827 5e37
000000d0: 3b73 1439 4f54 1f38 8fc3 6436 d1ba 7139
000000e0: 197a 2138 9947 8f37 daca 8138 8c7c 1e38
000000f0: fed6 b637 9773 4437 fba8 a836 1813 d838
