results/Run00/OpponentML/OpponentML-3499965.pt (torch, 330687 bytes, 52 tensors)

network_body.observation_encoder.processors.0.normalizer.running_mean f4 [120]
0.04303717 0.0 0.0 0.0 0.7772021 0.8047358 0.08117346 0.0
0.0 0.0 0.73908305 0.7816027 0.03299068 0.0 0.0 0.0
0.78725773 0.80980104 0.09229353 0.0 0.0 0.0 0.72781163 0.7770331
0.041981086 0.0 0.0 0.0 0.7492172 0.7776768 0.04597832 0.0
0.0 0.0 0.8341817 0.8635795 0.08706631 0.0 0.0 0.0
0.79310477 0.83866644 0.035553344 0.0 0.0 0.0 0.84460706 0.8689227
0.09915729 0.0 0.0 0.0 0.78087413 0.8337455 0.04521533 0.0
0.0 0.0 0.8059541 0.83637017 0.04893056 0.0 0.0 0.0
0.89113116 0.9223955 0.092944525 0.0 0.0 0.0 0.8471438 0.895755
0.03810579 0.0 0.0 0.0 0.90196353 0.928079 0.10603434 0.0
0.0 0.0 0.8339261 0.8904684 0.048462808 0.0 0.0 0.0
0.86258763 0.8951881 0.051855065 0.0 0.0 0.0 0.9481254 0.98123616
0.098828055 0.0 0.0 0.0 0.90117633 0.95281965 0.04067287 0.0
0.0 0.0 0.95934504 0.9871865 0.11291596 0.0 0.0 0.0
0.88693744 0.94715667 0.051723264 0.0 0.0 0.0 0.9192732 0.9538735
00000000: be47 303d 0000 0000 0000 0000 0000 0000
00000010: b8f6 463f 2a03 4e3f 453e a63d 0000 0000
00000020: 0000 0000 0000 0000 8c34 3d3f 1d17 483f
00000030: 3c21 073d 0000 0000 0000 0000 0000 0000
00000040: b989 493f 1f4f 4f3f 6404 bd3d 0000 0000
00000050: 0000 0000 0000 0000 dd51 3a3f a4eb 463f
00000060: 5cf4 2b3d 0000 0000 0000 0000 0000 0000
00000070: b3cc 3f3f d415 473f c353 3c3d 0000 0000
00000080: 0000 0000 0000 0000 ef8c 553f 8c13 5d3f
00000090: d24f b23d 0000 0000 0000 0000 0000 0000
000000a0: ea08 4b3f d8b2 563f 62a0 113d 0000 0000
000000b0: 0000 0000 0000 0000 2b38 583f b871 5e3f
000000c0: fa12 cb3d 0000 0000 0000 0000 0000 0000
000000d0: 5ee7 473f 5870 553f b633 393d 0000 0000
000000e0: 0000 0000 0000 0000 0253 4e3f 5b1c 563f
000000f0: 696b 483d 0000 0000 0000 0000 0000 0000
00000100: 2c21 643f 1d22 6c3f b359 be3d 0000 0000
00000110: 0000 0000 0000 0000 6bde 583f 3350 653f
00000120: d114 1c3d 0000 0000 0000 0000 0000 0000
00000130: 15e7 663f 9696 6d3f 8828 d93d 0000 0000
00000140: 0000 0000 0000 0000 2e7c 553f bdf5 633f
00000150: f080 463d 0000 0000 0000 0000 0000 0000
00000160: 8bd2 5c3f 0c2b 653f fa65 543d 0000 0000
00000170: 0000 0000 0000 0000 59b8 723f 4b32 7b3f
00000180: 5d66 ca3d 0000 0000 0000 0000 0000 0000
00000190: 7eb3 663f fdeb 733f 9898 263d 0000 0000
000001a0: 0000 0000 0000 0000 a397 753f 41b8 7c3f
000001b0: 7c40 e73d 0000 0000 0000 0000 0000 0000
000001c0: 550e 633f dc78 723f c6db 533d 0000 0000
000001d0: 0000 0000 0000 0000 7d55 6b3f 0e31 743f

network_body.observation_encoder.processors.0.normalizer.running_variance f4 [120]
144171.28 1.0 1.0 1.0 605975.9 528038.44 261027.55 1.0
1.0 1.0 674989.2 552567.1 111656.49 1.0 1.0 1.0
586410.94 525091.6 293154.84 1.0 1.0 1.0 693327.6 554585.56
140755.89 1.0 1.0 1.0 657399.4 575193.2 153546.23 1.0
1.0 1.0 484106.66 388880.6 278214.1 1.0 1.0 1.0
574315.75 425453.3 120019.16 1.0 1.0 1.0 459323.88 383500.94
312629.84 1.0 1.0 1.0 598884.75 429504.3 151092.58 1.0
1.0 1.0 547431.25 447079.12 162876.25 1.0 1.0 1.0
339529.38 225656.23 295097.1 1.0 1.0 1.0 453249.56 275393.03
128285.695 1.0 1.0 1.0 309503.38 217547.64 331755.66 1.0
1.0 1.0 484714.84 282025.8 161396.22 1.0 1.0 1.0
414743.16 294699.1 172055.83 1.0 1.0 1.0 172057.11 38135.926
311708.88 1.0 1.0 1.0 311710.0 102567.734 136553.58 1.0
1.0 1.0 136556.56 27060.756 350571.88 1.0 1.0 1.0
350911.38 111874.42 171655.7 1.0 1.0 1.0 259775.36 117896.91
00000000: d2ca 0c48 0000 803f 0000 803f 0000 803f
00000010: 7ef1 1349 67ea 0049 e3e8 7e48 0000 803f
00000020: 0000 803f 0000 803f d3ca 2449 72e7 0649
00000030: 3f14 da47 0000 803f 0000 803f 0000 803f
00000040: af2a 0f49 3a32 0049 5b24 8f48 0000 803f
00000050: 0000 803f 0000 803f fa44 2949 9965 0749
00000060: f974 0948 0000 803f 0000 803f 0000 803f
00000070: 767f 2049 936d 0c49 8ff2 1548 0000 803f
00000080: 0000 803f 0000 803f 5561 ec48 13e2 bd48
00000090: c3d8 8748 0000 803f 0000 803f 0000 803f
000000a0: bc36 0c49 aabd cf48 9469 ea47 0000 803f
000000b0: 0000 803f 0000 803f 7c47 e048 9e41 bb48
000000c0: bba6 9848 0000 803f 0000 803f 0000 803f
000000d0: 4c36 1249 0ab8 d148 258d 1348 0000 803f
000000e0: 0000 803f 0000 803f 74a6 0549 e44c da48
000000f0: 100f 1f48 0000 803f 0000 803f 0000 803f
00000100: 2cc9 a548 0f5e 5c48 2317 9048 0000 803f
00000110: 0000 803f 0000 803f 3250 dd48 2178 8648
00000120: d98e fa47 0000 803f 0000 803f 0000 803f
00000130: ec1f 9748 e972 5448 75fd a148 0000 803f
00000140: 0000 803f 0000 803f 5bad ec48 3ab5 8948
00000150: 0e9d 1d48 0000 803f 0000 803f 0000 803f
00000160: e582 ca48 63e5 8f48 f505 2848 0000 803f
00000170: 0000 803f 0000 803f 4706 2848 edf7 1447
00000180: 9c33 9848 0000 803f 0000 803f 0000 803f
00000190: c033 9848 de53 c847 655a 0548 0000 803f
000001a0: 0000 803f 0000 803f 245b 0548 8369 d346
000001b0: 7c2d ab48 0000 803f 0000 803f 0000 803f
000001c0: ec57 ab48 3681 da47 eda1 2748 0000 803f
000001d0: 0000 803f 0000 803f d7af 7d48 7444 e647

network_body.observation_encoder.processors.1.normalizer.running_mean f4 [11]
-3.0484881 91.5119 3.031895 0.0017159212 0.013977202 -0.046491776 0.010382937 -4.5548067
79.75345 0.015781812 0.020450018
00000000: 6e1a 43c0 1806 b742 910a 4240 c3e8 e03a
00000010: a200 653c 296e 3ebd 321d 2a3c fac0 91c0
00000020: c481 9f42 dc48 813c cc86 a73c

network_body.observation_encoder.processors.1.normalizer.running_variance f4 [11]
5.7501938e+10 1.6795744e+10 5.6951857e+10 838143.9 900523.8 896066.25 856590.7 6.97326e+10
1.0875314e+10 6.916926e+10 1.2205039e+06
00000000: 1f36 5651 ae46 7a50 8629 5451 fe9f 4c49
00000010: bdda 5b49 24c4 5a49 eb20 5149 18e3 8151
00000020: 080e 2250 79d6 8051 bffc 9449

network_body.processors.0.normalizer.running_mean f4 [120]
0.04303717 0.0 0.0 0.0 0.7772021 0.8047358 0.08117346 0.0
0.0 0.0 0.73908305 0.7816027 0.03299068 0.0 0.0 0.0
0.78725773 0.80980104 0.09229353 0.0 0.0 0.0 0.72781163 0.7770331
0.041981086 0.0 0.0 0.0 0.7492172 0.7776768 0.04597832 0.0
0.0 0.0 0.8341817 0.8635795 0.08706631 0.0 0.0 0.0
0.79310477 0.83866644 0.035553344 0.0 0.0 0.0 0.84460706 0.8689227
0.09915729 0.0 0.0 0.0 0.78087413 0.8337455 0.04521533 0.0
0.0 0.0 0.8059541 0.83637017 0.04893056 0.0 0.0 0.0
0.89113116 0.9223955 0.092944525 0.0 0.0 0.0 0.8471438 0.895755
0.03810579 0.0 0.0 0.0 0.90196353 0.928079 0.10603434 0.0
0.0 0.0 0.8339261 0.8904684 0.048462808 0.0 0.0 0.0
0.86258763 0.8951881 0.051855065 0.0 0.0 0.0 0.9481254 0.98123616
0.098828055 0.0 0.0 0.0 0.90117633 0.95281965 0.04067287 0.0
0.0 0.0 0.95934504 0.9871865 0.11291596 0.0 0.0 0.0
0.88693744 0.94715667 0.051723264 0.0 0.0 0.0 0.9192732 0.9538735
00000000: be47 303d 0000 0000 0000 0000 0000 0000
00000010: b8f6 463f 2a03 4e3f 453e a63d 0000 0000
00000020: 0000 0000 0000 0000 8c34 3d3f 1d17 483f
00000030: 3c21 073d 0000 0000 0000 0000 0000 0000
00000040: b989 493f 1f4f 4f3f 6404 bd3d 0000 0000
00000050: 0000 0000 0000 0000 dd51 3a3f a4eb 463f
00000060: 5cf4 2b3d 0000 0000 0000 0000 0000 0000
00000070: b3cc 3f3f d415 473f c353 3c3d 0000 0000
00000080: 0000 0000 0000 0000 ef8c 553f 8c13 5d3f
00000090: d24f b23d 0000 0000 0000 0000 0000 0000
000000a0: ea08 4b3f d8b2 563f 62a0 113d 0000 0000
000000b0: 0000 0000 0000 0000 2b38 583f b871 5e3f
000000c0: fa12 cb3d 0000 0000 0000 0000 0000 0000
000000d0: 5ee7 473f 5870 553f b633 393d 0000 0000
000000e0: 0000 0000 0000 0000 0253 4e3f 5b1c 563f
000000f0: 696b 483d 0000 0000 0000 0000 0000 0000
00000100: 2c21 643f 1d22 6c3f b359 be3d 0000 0000
00000110: 0000 0000 0000 0000 6bde 583f 3350 653f
00000120: d114 1c3d 0000 0000 0000 0000 0000 0000
00000130: 15e7 663f 9696 6d3f 8828 d93d 0000 0000
00000140: 0000 0000 0000 0000 2e7c 553f bdf5 633f
00000150: f080 463d 0000 0000 0000 0000 0000 0000
00000160: 8bd2 5c3f 0c2b 653f fa65 543d 0000 0000
00000170: 0000 0000 0000 0000 59b8 723f 4b32 7b3f
00000180: 5d66 ca3d 0000 0000 0000 0000 0000 0000
00000190: 7eb3 663f fdeb 733f 9898 263d 0000 0000
000001a0: 0000 0000 0000 0000 a397 753f 41b8 7c3f
000001b0: 7c40 e73d 0000 0000 0000 0000 0000 0000
000001c0: 550e 633f dc78 723f c6db 533d 0000 0000
000001d0: 0000 0000 0000 0000 7d55 6b3f 0e31 743f

network_body.processors.0.normalizer.running_variance f4 [120]
144171.28 1.0 1.0 1.0 605975.9 528038.44 261027.55 1.0
1.0 1.0 674989.2 552567.1 111656.49 1.0 1.0 1.0
586410.94 525091.6 293154.84 1.0 1.0 1.0 693327.6 554585.56
140755.89 1.0 1.0 1.0 657399.4 575193.2 153546.23 1.0
1.0 1.0 484106.66 388880.6 278214.1 1.0 1.0 1.0
574315.75 425453.3 120019.16 1.0 1.0 1.0 459323.88 383500.94
312629.84 1.0 1.0 1.0 598884.75 429504.3 151092.58 1.0
1.0 1.0 547431.25 447079.12 162876.25 1.0 1.0 1.0
339529.38 225656.23 295097.1 1.0 1.0 1.0 453249.56 275393.03
128285.695 1.0 1.0 1.0 309503.38 217547.64 331755.66 1.0
1.0 1.0 484714.84 282025.8 161396.22 1.0 1.0 1.0
414743.16 294699.1 172055.83 1.0 1.0 1.0 172057.11 38135.926
311708.88 1.0 1.0 1.0 311710.0 102567.734 136553.58 1.0
1.0 1.0 136556.56 27060.756 350571.88 1.0 1.0 1.0
350911.38 111874.42 171655.7 1.0 1.0 1.0 259775.36 117896.91
00000000: d2ca 0c48 0000 803f 0000 803f 0000 803f
00000010: 7ef1 1349 67ea 0049 e3e8 7e48 0000 803f
00000020: 0000 803f 0000 803f d3ca 2449 72e7 0649
00000030: 3f14 da47 0000 803f 0000 803f 0000 803f
00000040: af2a 0f49 3a32 0049 5b24 8f48 0000 803f
00000050: 0000 803f 0000 803f fa44 2949 9965 0749
00000060: f974 0948 0000 803f 0000 803f 0000 803f
00000070: 767f 2049 936d 0c49 8ff2 1548 0000 803f
00000080: 0000 803f 0000 803f 5561 ec48 13e2 bd48
00000090: c3d8 8748 0000 803f 0000 803f 0000 803f
000000a0: bc36 0c49 aabd cf48 9469 ea47 0000 803f
000000b0: 0000 803f 0000 803f 7c47 e048 9e41 bb48
000000c0: bba6 9848 0000 803f 0000 803f 0000 803f
000000d0: 4c36 1249 0ab8 d148 258d 1348 0000 803f
000000e0: 0000 803f 0000 803f 74a6 0549 e44c da48
000000f0: 100f 1f48 0000 803f 0000 803f 0000 803f
00000100: 2cc9 a548 0f5e 5c48 2317 9048 0000 803f
00000110: 0000 803f 0000 803f 3250 dd48 2178 8648
00000120: d98e fa47 0000 803f 0000 803f 0000 803f
00000130: ec1f 9748 e972 5448 75fd a148 0000 803f
00000140: 0000 803f 0000 803f 5bad ec48 3ab5 8948
00000150: 0e9d 1d48 0000 803f 0000 803f 0000 803f
00000160: e582 ca48 63e5 8f48 f505 2848 0000 803f
00000170: 0000 803f 0000 803f 4706 2848 edf7 1447
00000180: 9c33 9848 0000 803f 0000 803f 0000 803f
00000190: c033 9848 de53 c847 655a 0548 0000 803f
000001a0: 0000 803f 0000 803f 245b 0548 8369 d346
000001b0: 7c2d ab48 0000 803f 0000 803f 0000 803f
000001c0: ec57 ab48 3681 da47 eda1 2748 0000 803f
000001d0: 0000 803f 0000 803f d7af 7d48 7444 e647

network_body.processors.1.normalizer.running_mean f4 [11]
-3.0484881 91.5119 3.031895 0.0017159212 0.013977202 -0.046491776 0.010382937 -4.5548067
79.75345 0.015781812 0.020450018
00000000: 6e1a 43c0 1806 b742 910a 4240 c3e8 e03a
00000010: a200 653c 296e 3ebd 321d 2a3c fac0 91c0
00000020: c481 9f42 dc48 813c cc86 a73c

network_body.processors.1.normalizer.running_variance f4 [11]
5.7501938e+10 1.6795744e+10 5.6951857e+10 838143.9 900523.8 896066.25 856590.7 6.97326e+10
1.0875314e+10 6.916926e+10 1.2205039e+06
00000000: 1f36 5651 ae46 7a50 8629 5451 fe9f 4c49
00000010: bdda 5b49 24c4 5a49 eb20 5149 18e3 8151
00000020: 080e 2250 79d6 8051 bffc 9449

network_body._body_endoder.seq_layers.0.weight f4 [64, 131]
0.0734288 -0.07028066 -0.0047403798 0.0798008 -0.083668746 -0.09116796 0.22594655 -0.01929533
0.025871662 -0.14297393 -0.17812349 -0.10251038 -0.009075029 -0.11595549 -0.06188723 0.00059823116
-0.11596253 0.0867455 -0.06629322 -0.116709106 0.08217079 -0.033534355 -0.05112283 -0.084365
0.13285856 -0.044659752 -0.0012237661 0.1112588 -0.03678666 0.13136873 0.058743197 0.13405761
0.089757614 0.036917515 0.0127422055 0.05399056 0.10362875 0.023598874 -0.11319756 0.01019672
-0.03473503 -0.051210605 0.01600059 -0.07920655 0.13515808 -0.23463109 -0.051175583 -0.06956435
-0.24618232 -0.14673103 -0.10466784 0.013780496 0.0205972 0.090110466 0.14125843 0.16129625
-0.04954777 0.13311386 0.020832466 -0.20469241 0.08154841 0.08667026 -0.050382532 0.09049557
0.22212513 0.31059352 0.12794347 0.09474621 -0.085370705 -0.13051708 0.0268389 0.10391969
-0.07804634 0.021689126 0.04715948 -0.09691248 0.2871174 0.10354904 -0.079498895 -0.053639743
0.08031181 -0.054983918 0.07104308 0.205314 0.07652416 -0.020469267 0.074769445 0.09805208
-0.1206244 -0.2752794 -0.017042631 0.14364477 -0.10177236 0.04141688 0.096641265 0.11525047
0.32951224 -0.08148881 -0.0889995 0.053675763 -0.25944322 0.009323137 -0.2501148 0.03354125
-0.020787382 0.09522129 0.22957681 0.19769579 -0.0072807344 0.2147934 -0.08351115 0.05834768
0.23603898 0.22027932 0.047343496 -0.10147698 0.13544652 -0.019513922 0.0051918244 -0.016936598
0.06889865 -0.02852241 -0.16093965 0.065134145 -0.10035087 0.37319878 0.057237506 0.11143227
0.14262627 0.014467695 -0.18134545 -0.1149203 -0.015692437 0.06033701 0.16930875 -0.06463897
-0.11216948 0.0009245493 0.0037673444 -0.008155377 0.11606925 -0.13276145 0.09867855 0.022651197
-0.045416176 -0.030729987 0.0004043823 -0.05321371 0.012565377 0.11676939 0.010958668 0.15389863
-0.021094622 0.021680467 0.028772453 -0.1771569 -0.005856704 0.031458363 -0.0010901522 0.0691913
0.047891986 -0.16687843 0.046140675 -0.0264092 -0.12604466 0.024079291 -0.037579726 -0.14265296
-0.08700433 -0.017235292 0.046537984 0.040275455 0.01924746 0.012451245 0.06608317 -0.021677805
-0.089416176 0.062279604 0.057366513 0.027715202 -0.05668394 0.25706673 0.041772965 0.04306629
0.13460983 -0.22526096 0.077536635 0.006557786 -0.051957384 -0.046489406 -0.24708253 -0.020300744
0.046838745 -0.058163222 0.0038001759 -0.032958653 0.19956635 -0.05594321 0.08334468 -0.104263574
-0.061125625 0.10655921 0.17923725 -0.008713924 0.047998257 0.027225874 -0.06043067 -0.07384782
-0.025592534 0.02916654 0.17327969 -0.08239087 -0.13286209 0.037507962 0.09109495 -0.19128191
-0.11365228 0.051226426 0.14184782 -0.104020335 -0.2171721 -0.052838806 -0.04878614 -0.12026166
0.04361549 -0.03570314 0.12390567 -0.09831562 0.0010964412 0.031842917 0.0055175787 0.042626925
0.027164448 -0.053360764 -0.0973789 0.06575632 0.034448396 0.01606104 0.18725486 -0.029006768
0.032253534 0.1195184 -0.06826907 0.13033271 0.08685939 -0.024282489 0.018582232 -0.08811234
-0.043732926 0.114191 0.050066978 -0.0012701055 0.129107 -0.24658498 0.32496697 -0.14790411
00000000: d761 963d 4fef 8fbd 3055 9bbb 9a6e a33d
00000010: 855a abbd 44b6 babd 885e 673e 3d11 9ebc
00000020: cff0 d33c c267 12be 0166 36be f6f0 d1bd
00000030: 6eaf 14bc 127a edbd 777d 7dbd 9dd2 1c3a
00000040: c37d edbd a0a7 b13d bdc4 87bd 2f05 efbd
00000050: 2949 a83d 525b 09bd 2c66 51bd 8fc7 acbd
00000060: 130c 083e 25ed 36bd c766 a0ba a7db e33d
00000070: 9cad 16bd 8685 063e b59c 703d 6646 093e
00000080: d7d2 b73d d236 173d afc4 503c 3525 5d3d
00000090: 4f3b d43d 6d52 c13c 1fd4 e7bd 2510 273c
000000a0: 5246 0ebd 36c2 51bd ab13 833c 0b37 a2bd
000000b0: e166 0a3e 2243 70be 7d9d 51bd c177 8ebd
000000c0: 3817 7cbe a940 16be 185c d6bd 97c7 613c
000000d0: 76bb a83c d68b b83d 0da6 103e d82a 253e
000000e0: 9af2 4abd 004f 083e d9a8 aa3c e39a 51be
000000f0: da02 a73d 2d80 b13d ea5d 4ebd be55 b93d
00000100: c574 633e 1d06 9f3e 9d03 033e 4d0a c23d
00000110: d6d6 aebd 45a6 05be 41dd db3c d9d3 d43d
00000120: c2d6 9fbd 65ad b13c 4d2a 413d 0d7a c6bd
00000130: 0d01 933e 8511 d43d 51d0 a2bd 59b5 5bbd
00000140: 857a a43d d136 61bd 097f 913d d53d 523e
00000150: b3b8 9c3d 2aaf a7bc b920 993d 87cf c83d
00000160: ed09 f7bd 6cf1 8cbe fd9c 8bbc 9d17 133e
00000170: 076e d0bd bfa4 293d dbeb c53d 7008 ec3d
00000180: d4b5 a83e 9be3 a6bd 5f45 b6bd 1edb 5b3d
00000190: bed5 84be 12c0 183c 0c0f 80be 8d62 093d
000001a0: 4d4a aabc 6103 c33d 2f16 6b3e c470 4a3e
000001b0: 3a93 eebb cdf2 5b3e e507 abbd fafd 6e3d
000001c0: 34b4 713e e790 613e 41eb 413d 2ad3 cfbd
000001d0: 7eb2 0a3e a9db 9fbc 2e20 aa3b 9fbe 8abc
000001e0: bc1a 8d3d d4a7 e9bc 5dcd 24be 0d65 853d
000001f0: c284 cdbd e913 bf3e e071 6a3d 9a36 e43d
00000200: 9f0c 123e e909 6d3c 9fb2 39be 565b ebbd
00000210: 6d8d 80bc f123 773d 465f 2d3e 7061 84bd
00000220: 1db9 e5bd 745d 723a 8de5 763b 219e 05bc
00000230: b7b5 ed3d 9ef2 07be fb17 ca3d 018f b93c
00000240: 5006 3abd 74bd fbbc 4603 d439 9ff6 59bd
00000250: 03df 4d3c ca24 ef3d fc8b 333c 9a97 1d3e
00000260: a1ce acbc 3c9b b13c 35b4 eb3c 9e68 35be
00000270: 98e9 bfbb 7cda 003d 70e3 8eba 2bb4 8d3d
00000280: 632a 443d 2ee2 2abe 01fe 3c3d 1b58 d8bc
00000290: da11 01be ef41 c53c 33ed 19bd 9e13 12be
000002a0: 532f b2bd 0731 8dbc 9d9e 3e3d e0f7 243d
000002b0: d9ac 9d3c 4f00 4c3c 9d56 873d a795 b1bc
000002c0: d41f b7bd e618 7f3d 26f9 6a3d fe0a e33c
000002d0: 6b2d 68bd 409e 833e 211a 2b3d 4766 303d
000002e0: 29d7 093e cfaa 66be 87cb 9e3d b2e2 d63b
000002f0: 44d1 54bd ad6b 3ebd 3403 7dbe bf4d a6bc
00000300: fcd9 3f3d 8f3c 6ebd 5f0c 793b a7ff 06bd
00000310: 1f5b 4c3e b524 65bd 9eb0 aa3d 2488 d5bd
00000320: dd5e 7abd b73b da3d f889 373e d9c4 0ebc
00000330: d299 443d cc08 df3c 2686 77bd 873d 97bd
00000340: 6fa7 d1bc abee ee3c 3b70 313e 8bbc a8bd
00000350: 000d 08be f3a1 193d fd8f ba3d 68df 43be
00000360: 87c2 e8bd cdd2 513d 8e40 113e 9d08 d5bd
00000370: 5d62 5ebe 816d 58bd fad3 47bd bf4b f6bd
00000380: 28a6 323d 753d 12bd 42c2 fd3d b359 c9bd
00000390: 76b6 8f3a b86d 023d cecc b43b 9299 2e3d
000003a0: fa87 de3c d190 5abd 976e c7bd 40ab 863d
000003b0: c319 0d3d 7192 833c bdbf 3f3e 9a9f edbc
000003c0: 481c 043d 10c6 f43d a7d0 8bbd f075 053e
000003d0: 56e3 b13d 12ec c6bc c439 983c 3e74 b4bd
000003e0: 4c21 33bd f9dc e93d 0813 4d3d ab79 a6ba
000003f0: a034 043e c680 7cbe 1262 a63e 2d74 17be

network_body._body_endoder.seq_layers.0.bias f4 [64]
0.07821664 0.02198636 -0.09267704 -0.049255803 0.017661344 -0.03230511 0.0343596 0.11142914
0.0903929 -0.14850788 0.0922658 0.110230014 0.089849316 -0.1304503 0.09858338 0.036828764
0.0032636933 0.10598113 -0.13552116 -0.11607881 0.025592804 -0.015609733 0.09261946 -0.01332594
-0.07427765 0.0345285 -0.1006222 0.09228543 0.04770859 -0.06073596 0.009166288 0.005010687
0.06403088 -0.13715085 -0.0280576 0.010906276 0.08961024 0.060810503 -0.018952427 0.043176353
-0.06492935 0.024015179 0.003580968 -0.025755586 0.0014714608 -0.07322456 -0.039929092 -0.065835476
-0.030106034 0.06656723 -0.049097817 0.060892694 0.060278215 -0.025529908 -0.13470405 0.13434115
-0.05761003 0.0188226 -0.08381376 0.04837102 -0.02422477 0.041145295 -0.16285785 -0.11684611
00000000: 0c30 a03d bd1c b43c 76cd bdbd 74c0 49bd
00000010: 86ae 903c 5d52 04bd a7bc 0c3d f634 e43d
00000020: ea1f b93d 7312 18be daf5 bc3d 46c0 e13d
00000030: eb02 b83d c394 05be 15e6 c93d c2d9 163d
00000040: b0e3 553b a20c d93d 0fc6 0abe baba edbd
00000050: 00a8 d13c f7bf 7fbc 45af bd3d 0b55 5abc
00000060: e11e 98bd c26d 0d3d 0313 cebd 2500 bd3d
00000070: 156a 433d 45c6 78bd 332e 163c b030 a43b
00000080: 9f22 833d 4671 0cbe 0dd9 e5bc 3db0 323c
00000090: 9385 b73d 6f14 793d 1f42 9bbc b0d9 303d
000000a0: aef9 84bd 7bbb c43c acae 6a3b 61fd d2bc
000000b0: 08de c03a c2f6 95bd b08c 23bd c0d4 86bd
000000c0: eea0 f6bc 6654 883d cb1a 49bd 9e6a 793d
000000d0: 4ae6 763d 1924 d1bc dcef 09be ba90 093e
000000e0: 7ff8 6bbd da31 9a3c 8ca6 abbd b120 463d
000000f0: 0673 c6bc f887 283d 35c4 26be 034d efbd

network_body._body_endoder.seq_layers.2.weight f4 [64, 64]
0.047170464 -0.14880231 -0.19845964 -0.09861795 -0.0355498 -0.31156635 -0.011668974 0.026807291
-0.14308652 0.24610753 -0.34027898 0.01630175 0.06396922 -0.18951346 -0.057546116 0.12503281
-0.06720708 -0.21361078 0.32959858 0.03731185 0.10245461 -0.058902197 0.23172744 -0.057889886
0.05366384 0.26708826 -0.04456797 -0.047582008 0.023440313 0.1802149 0.08214175 0.021015164
0.023635099 0.13631803 -0.24712427 0.08363811 -0.3036962 0.078673646 -0.16261648 -0.2470943
-0.030366095 -0.3592674 -0.089089654 0.17347996 0.005357508 -0.065067835 -0.057617016 0.054951355
-0.11145961 -0.17464797 -0.2890893 0.15585068 -0.16227561 -0.12253003 -0.035210833 -0.10106024
-0.23561537 -0.026779294 -0.05438855 -0.21490607 -0.27503377 -0.15807022 0.006006404 0.18160728
-0.15576056 -0.059495717 -0.19370224 0.07579508 -0.09988287 -0.04568808 -0.04520219 -0.28837603
0.0028593764 0.11374121 0.04607794 -0.11961337 0.036660146 -0.007788724 0.06420567 0.11606436
0.07249562 -0.020320024 -0.146306 0.1116882 0.15722342 0.05571051 -0.016461587 -0.1993548
0.055209294 0.15687104 -0.010410297 0.13066904 -0.4289187 -0.10790196 0.26876235 -0.014322777
0.22236997 -0.027411174 0.09830823 0.032757442 -0.35453147 0.1379154 -0.06347474 0.05204668
-0.37742007 0.07904308 -0.046923943 0.24234834 0.12032045 -0.12094631 -0.1676678 0.15279016
-0.043252513 0.13140622 -0.09740241 0.014243915 0.14560977 -0.040151037 0.03494963 0.18675444
0.002374457 0.10630267 0.12875871 0.026489593 -0.26505026 -0.2418667 -0.100945406 -0.118359014
0.008257644 -0.14693809 -0.014491801 -0.07494273 0.1753815 0.06311576 0.13500158 -0.30295
-0.38723746 0.10149387 -0.24735591 -0.35626665 -0.048397128 -0.035740793 0.13567562 0.04003858
-0.20034526 0.15796305 0.03002016 -0.07047553 -0.19329676 0.012398001 -0.16518904 0.03263686
0.22324347 0.095630296 -0.026889438 -0.08247079 0.25553083 0.12237832 -0.04222397 -0.31536445
-0.06232066 0.15752453 -0.121123426 -0.11996623 -0.045406874 -0.02830439 -0.17992018 -0.15855294
-0.17244117 -0.06564099 -0.08181967 -0.028707223 -0.139233 -0.07249479 0.038971495 -0.19894513
-0.13311951 -0.26829433 -0.044982173 -0.17970698 0.024696663 0.16964646 0.118134886 0.025899827
-0.2746381 -0.2184508 -0.11069949 -0.10225392 -0.12527984 -0.10166213 -0.138376 0.12214652
0.034586992 -0.16933227 -0.18762195 0.022416003 0.061503567 0.10607579 0.12082173 -0.020637387
-0.18216978 -0.14253019 0.10186213 -0.05142125 0.3551533 -0.014050386 0.10081459 -0.19554193
0.11300158 0.070186354 0.1385063 0.20016506 -0.059902523 -0.01181437 0.15101478 0.17139022
0.10523707 0.24882352 -0.05217627 0.1440118 -0.1419517 0.06710987 0.11999609 -0.21304375
-0.054408927 -0.14417438 -0.004999173 0.20305048 -0.038989704 0.006975874 -0.07483095 0.023658544
-0.33626485 0.1257441 0.0153970495 0.2535239 -0.17472069 0.20867911 0.11813041 -0.16251707
-0.079561345 -0.008982187 0.21907113 -0.0025919087 -0.023002055 0.15357788 -0.02624719 0.069209054
0.16074477 0.047505267 0.14910246 0.21186261 0.10314058 0.15970664 0.02675731 -0.062806636
00000000: d135 413d a25f 18be 0139 4bbe 35f8 c9bd
00000010: ab9c 11bd a085 9fbe 392f 3fbc f79a db3c
00000020: 4685 12be 9d03 7c3e 0c39 aebe 3f8b 853c
00000030: 4b02 833d d10f 42be 7ab5 6bbd 9a08 003e
00000040: dea3 89bd c9bc 5abe 25c1 a83e 4fd4 183d
00000050: b9d3 d13d 6e43 71bd f549 6d3e f21d 6dbd
00000060: 9dce 5b3d cbbf 883e e78c 36bd 5ae5 42bd
00000070: e605 c03c 418a 383e ef39 a83d fe27 ac3c
00000080: 659e c13c f496 0b3e 250e 7dbe 754a ab3d
00000090: 117e 9bbe a61f a13d ef84 26be 4a06 7dbe
000000a0: 51c2 f8bc e6f1 b7be a374 b6bd bba4 313e
000000b0: 098e af3b 4942 85bd d2ff 6bbd ac14 613d
000000c0: f044 e4bd ebd6 32be 8303 94be 5297 1f3e
000000d0: 942b 26be 06f1 fabd 3c39 10bd acf8 cebd
000000e0: 2845 71be 4060 dbbc 87c6 5ebd 5610 5cbe
000000f0: 3ad1 8cbe 29dd 21be 5ed1 c43b 42f7 393e
00000100: b27f 1fbe c8b1 73bd e159 46be 733a 9b3d
00000110: 648f ccbd 6d23 3bbd ee25 39bd 06a6 93be
00000120: 6064 3b3b 27f1 e83d 39bc 3c3d dbf7 f4bd
00000130: f328 163d 8d38 ffbb 437e 833d 27b3 ed3d
00000140: 9578 943d 2e76 a6bc 3dd1 15be c8bc e43d
00000150: 2dff 203e b430 643d 73da 86bc aa23 4cbe
00000160: 2423 623d cda2 203e f38f 2abc 1bce 053e
00000170: 3b9b dbbe b4fb dcbd 389b 893e 15aa 6abc
00000180: f4b4 633e 668d e0bc d355 c93d ab2c 063d
00000190: 2685 b5be b239 0d3e 0bff 81bd e62e 553d
000001a0: 343d c1be 57e1 a13d 5233 40bd 2a2a 783e
000001b0: 916a f63d b3b2 f7bd 1cb1 2bbe 0675 1c3e
000001c0: 8c29 31bd 5a8f 063e ea7a c7bd 4f5f 693c
000001d0: ba1a 153e 6a75 24bd 5827 0f3d 8e3c 3f3e
000001e0: c79c 1b3b 37b5 d93d 53d9 033e b400 d93c
000001f0: abb4 87be e7ab 77be 77bc cebd 3666 f2bd
00000200: 124b 073c f076 16be 056f 6dbc 937b 99bd
00000210: 3597 333e d642 813d db3d 0a3e 431c 9bbe
00000220: fd43 c6be 05dc cf3d de4a 7dbe 9568 b6be
00000230: 113c 46bd f064 12bd 8dee 0a3e 7eff 233d
00000240: 4f27 4dbe 11c1 213e d7ec f53c 7a55 90bd
00000250: 96ef 45be fc20 4b3c 5127 29be 3aae 053d
00000260: f099 643e d1d9 c33d 3d47 dcbc 72e6 a8bd
00000270: f0d4 823e 7ca1 fa3d 0bf3 2cbd 7377 a1be
00000280: f343 7fbd 1c4e 213e 8f0f f8bd dbb0 f5bd
00000290: 8ffc 39bd 9cde e7bc ff3c 38be b45b 22be
000002a0: 6b94 30be c96e 86bd 1291 a7bd 692b ebbc
000002b0: 1893 0ebe 2678 94bd 93a0 1f3d 46b8 4bbe
000002c0: 7b50 08be e05d 89be 3a3f 38bd 1b05 38be
000002d0: a850 ca3c cdb7 2d3e b4f0 f13d e02b d43c
000002e0: 5d9d 8cbe 91b1 5fbe 6ab6 e2bd 816a d1bd
000002f0: 5c49 00be 3c34 d0bd 70b2 0dbe f427 fa3d
00000300: 17ab 0d3d 7065 2dbe f81f 40be c4a1 b73c
00000310: 2aeb 7b3d 443e d93d 6271 f73d bd0f a9bc
00000320: b78a 3abe 6ff3 11be 189d d03d 179f 52bd
00000330: a7d6 b53e 9733 66bc e177 ce3d 253c 48be
00000340: 5f6d e73d ddbd 8f3d 98d4 0d3e 12f8 4c3e
00000350: 595c 75bd 0f91 41bc 9ea3 1a3e eb80 2f3e
00000360: 8886 d73d 98cb 7e3e c9b6 55bd d477 133e
00000370: c95b 11be e670 893d 83c0 f53d 2428 5abe
00000380: e5db 5ebd 73a2 13be 1ad0 a3bb 77ec 4f3e
00000390: abb3 1fbd df95 e43b f840 99bd 90cf c13c
000003a0: e82a acbe 10c3 003e e843 7c3c e2cd 813e
000003b0: fbe9 32be faaf 553e 5bee f13d e06a 26be
000003c0: 0ff1 a2bd 062a 13bc 2f54 603e 03dd 29bb
000003d0: ce6e bcbc 8543 1d3e 5904 d7bc 7abd 8d3d
000003e0: 479a 243e e294 423d 51ae 183e 83f2 583e
000003f0: 5e3b d33d 238a 233e 2532 db3c c4a0 80bd

network_body._body_endoder.seq_layers.2.bias f4 [64]
-0.14433715 0.024401201 -0.116054125 0.11333698 -0.2254458 0.12953296 -0.074690096 -0.15563688
-0.10087522 -0.020055657 0.1717009 -0.17630135 0.06396326 0.043544736 0.048818257 -0.007452007
-0.08081035 -0.2249037 -0.05069745 0.0024270467 0.14224039 0.03175603 0.038079 -0.104197346
0.048483707 -0.16956772 0.09739343 0.0060438067 -0.17813128 -0.081900015 0.041330907 0.08854094
-0.12390263 0.057051513 0.08379023 0.0043074004 0.062685154 0.11904557 -0.075326376 0.14883439
0.03671235 -0.17432667 0.09199836 -0.047263354 0.101167925 -0.12013247 0.14868127 0.03532664
0.12300194 -0.058746498 -0.08043483 -0.044609547 0.1498198 -0.05977585 -0.010320057 0.040283553
-0.09574036 -0.15766203 -0.0010096069 0.13677439 0.08754346 -0.24951465 -0.14041004 0.14270839
00000000: 1ecd 13be 07e5 c73c c9ad edbd 381d e83d
00000010: 44db 66be 4aa4 043e 1ff7 98bd 465f 1fbe
00000020: ab97 cebd c34b a4bc 5cd2 2f3e 5788 34be
00000030: 2bff 823d f75b 323d a7f5 473d f72f f4bb
00000040: e67f a5bd 284d 66be 21a8 4fbd 160f 1f3b
00000050: 77a7 113e 9c12 023d baf8 1b3d 6b65 d5bd
00000060: da96 463d 29a3 2dbe 3576 c73d 200b c63b
00000070: 0c68 36be 32bb a7bd 994a 293d f454 b53d
00000080: a9c0 fdbd d9ae 693d 369a ab3d 1825 8d3b
00000090: 1361 803d 2ace f33d b744 9abd 0b68 183e
000000a0: b05f 163d b182 32be a369 bc3d 3897 41bd
000000b0: 2131 cf3d 0308 f6bd e73f 183e abb2 103d
000000c0: 71e8 fb3d 2ba0 70bd 04bb a4bd 80b8 36bd
000000d0: 5d6a 193e 86d7 74bd 7515 29bc 5e00 253d
000000e0: 8613 c4bd 2872 21be c954 84ba 960e 0c3e
000000f0: fc49 b33d c580 7fbe a6c7 0fbe 2622 123e

action_model._continuous_distribution.log_sigma f4 [1, 2]
-0.5332217 -0.6256099
00000000: 3881 08bf f827 20bf

action_model._continuous_distribution.mu.weight f4 [2, 64]
-0.08812842 0.054835074 -0.083563805 0.058765117 -0.03787933 0.09560636 -0.11557856 -0.10850129
-0.23670256 0.08875554 0.06337611 -0.10686396 0.16951874 0.007558702 0.012494341 0.12414215
-0.06367486 -0.072513655 -0.07601379 -0.12601748 -0.0037214207 0.03994426 -0.0714843 -0.09213893
-0.120489866 -0.07822411 0.06527258 0.089443035 -0.07409151 -0.014737036 -0.10261707 0.045716025
0.014853833 -0.03273788 0.09548623 -0.11858406 0.028354144 -0.00593509 -0.03973198 0.111228764
-0.10107273 -0.08793214 0.0046261633 0.08059398 0.008195835 0.00071925775 0.023988115 -0.033425864
0.13282944 -0.053459395 -0.06503138 -0.15643404 0.096862726 0.043729465 0.07953172 -0.058192395
-0.0020044348 -0.045603815 -0.2091131 0.0071578007 0.03269493 -0.07888033 -0.022459596 0.119693
-0.025155434 0.06913092 -0.045372564 0.028095482 -0.12791201 0.059058167 -0.06664537 -0.15662043
-0.12280707 -0.00011059528 0.14309177 -0.12711276 0.11377885 0.06448874 0.0152546475 -0.0039513013
0.020071264 -0.0463231 -0.107923456 0.029479844 0.17378396 0.07801056 0.11594048 -0.030478433
0.11591849 -0.18766256 0.056087565 0.028818825 -0.15843657 -0.18793975 0.06267807 0.072914615
-0.14413989 0.07344468 0.04516273 0.06357866 0.013068711 0.127071 0.039678823 0.09211014
0.06961672 -0.17683388 0.06714386 0.03348743 0.021495547 -0.13855085 0.1293122 0.039356463
0.042383704 -0.17256476 -0.31855428 -0.18559939 0.13574846 -0.18353646 0.014510541 0.07250529
-0.21413 -0.16280048 0.08088295 0.06379846 0.033222634 -0.08652733 -0.15982251 0.061833482
00000000: ac7c b4bd be9a 603d 8023 abbd b1b3 703d
00000010: 5b27 1bbd 44cd c33d 74b4 ecbd ed35 debd
00000020: 2862 72be 77c5 b53d 55cb 813d 7edb dabd
00000030: 5296 2d3e fdae f73b 10b5 4c3c 3d3e fe3d
00000040: f767 82bd 0a82 94bd 1ead 9bbd ba0a 01be
00000050: 14e3 73bb 989c 233d 5c66 92bd 56b3 bcbd
00000060: 64c3 f6bd f633 a0bd a1ad 853d e92d b73d
00000070: 4abd 97bd 9c73 71bc e628 d2bd ba40 3b3d
00000080: 7e5d 733c 2818 06bd 498e c33d 33dc f2bd
00000090: f346 e83c 257b c2bb 00be 22bd e8cb e33d
000000a0: 38ff cebd c415 b4bd 1297 973b 750e a53d
000000b0: d347 063c 928c 3c3a b982 c43c 8fe9 08bd
000000c0: 7104 083e 3df8 5abd 2c2f 85bd 3f30 20be
000000d0: f75f c63d ab1d 333d 87e1 a23d 265b 6ebd
000000e0: d65c 03bb 11cb 3abd bf21 56be fc8b ea3b
000000f0: 1eeb 053d 038c a1bd 30fd b7bc 9b21 f53d
00000100: c512 cebc 8394 8d3d 95d8 39bd 7f28 e63c
00000110: 5efb 02be fae6 713d 5e7d 88bd 1b61 20be
00000120: 4682 fbbd 64ef e7b8 a686 123e d929 02be
00000130: e304 e93d ac12 843d a1ee 793c eb79 81bb
00000140: 7e6c a43c 4abd 3dbd f906 ddbd b77f f13c
00000150: 6cf4 313e 00c4 9f3d 3472 ed3d e8ad f9bc
00000160: ac66 ed3d 9d2a 40be 13bc 653d 7515 ec3c
00000170: 323d 22be 4773 40be 5c5d 803d 4254 953d
00000180: 6899 13be 2a6a 963d 8efc 383d 8735 823d
00000190: 261e 563c e61e 023e 4386 223d 3ea4 bc3d
000001a0: 3693 8e3d f113 35be b882 893d 1e2a 093d
000001b0: 6e17 b03c 46e0 0dbe 6b6a 043e 3e34 213d
000001c0: 899a 2d3d d1b4 30be 8c19 a3be c40d 3ebe
000001d0: a501 0b3e fbf0 3bbe 9fbd 6d3c a77d 943d
000001e0: e544 5bbe 2bb5 26be f6a5 a53d c4a8 823d
000001f0: 7514 083d 3e35 b1bd 83a8 23be 1b45 7d3d

action_model._continuous_distribution.mu.bias f4 [2]
0.030973632 0.21295325
00000000: 6abc fd3c 6b10 5a3e

exp_avg f4 [64, 131]
-0.0032044244 0.0 0.0 0.0 0.004718 0.0036170522 0.0028115623 0.0
0.0 0.0 0.0012412112 0.0042224433 -0.0027654786 0.0 0.0 0.0
0.0044909767 0.0035188734 -0.0005293863 0.0 0.0 0.0 0.003294786 0.0044615306
0.0018252638 0.0 0.0 0.0 0.0018398521 0.0023769517 -0.00065772416 0.0
0.0 0.0 0.0008916559 0.0006108472 0.0038085228 0.0 0.0 0.0
-0.002171911 0.0014324446 -0.0027771534 0.0 0.0 0.0 0.0019998692 0.00069823704
-0.0008264114 0.0 0.0 0.0 0.0010665873 0.0019151988 -0.0006312709 0.0
0.0 0.0 0.0012090486 0.0010888485 0.0043625142 0.0 0.0 0.0
-0.0026954832 -0.00010556496 0.0015373657 0.0 0.0 0.0 -0.0009582975 0.0020342376
-0.0005813385 0.0 0.0 0.0 0.0007157256 0.0005384295 -0.0016831844 0.0
0.0 0.0 0.0016661483 0.0025365136 0.0028767076 0.0 0.0 0.0
-0.0034502216 -0.0031454857 -0.0022862628 0.0 0.0 0.0 0.002286517 0.0010139428
0.0009987963 0.0 0.0 0.0 -0.0009988401 0.0024820364 -0.00055524445 0.0
0.0 0.0 0.00055496104 0.00039741764 -0.001374981 0.0 0.0 0.0
0.0013757009 0.0034731356 0.0024099476 0.0 0.0 0.0 -0.0016799398 -0.0015466252
0.00076025515 -0.0029204267 -0.001464508 0.0005909617 0.0003316063 0.0027669976 0.003584966 -0.0015155465
0.0006612746 -0.0042284303 0.0061895726 -0.000258234 0.0 0.0 0.0 0.0015311389
0.0015454974 0.00032136377 0.0 0.0 0.0 0.0011316299 0.0014697592 -0.0001396575
0.0 0.0 0.0 0.0014892007 0.001532307 -0.0018209079 0.0 0.0
0.0 0.0024977897 0.0017198061 -0.00031323396 0.0 0.0 0.0 0.00087429787
0.0008617756 -0.0005333333 0.0 0.0 0.0 -0.00023519073 -0.00052907993 0.00026731406
0.0 0.0 0.0 -0.0006777942 -0.0006027477 -9.081801e-05 0.0 0.0
0.0 -0.000504632 -0.00057704834 -0.001678473 0.0 0.0 0.0 0.0007311606
-0.0003350991 -0.00014827469 0.0 0.0 0.0 -0.0004169889 -0.00052023906 0.0010076546
0.0 0.0 0.0 -0.00092420354 -0.00032077506 4.3997115e-05 0.0 0.0
0.0 -0.00023142068 -0.00027597335 -0.00014630177 0.0 0.0 0.0 -0.0001428667
-0.00023389063 -0.0017212427 0.0 0.0 0.0 0.0012346236 4.342832e-05 -0.00025966374
0.0 0.0 0.0 -0.00075962243 -0.0009793148 -0.00014875391 0.0 0.0
0.0 0.0001488223 0.0001209252 -0.0003370567 0.0 0.0 0.0 0.0003370439
0.00010931337 -0.00010502897 0.0 0.0 0.0 0.00010495532 0.0001044188 -0.00085231377
0.0 0.0 0.0 0.00085226353 0.00047196914 -0.00021055106 0.0 0.0
0.0 8.157559e-05 -4.5759193e-06 -0.0008435807 1.2083587e-05 -0.0013840166 -0.00026443374 0.0016091506
00000000: 5201 52bb 0000 0000 0000 0000 0000 0000
00000010: 7499 9a3b 110c 6d3b 3042 383b 0000 0000
00000020: 0000 0000 0000 0000 23b0 a23a 6c5c 8a3b
00000030: 083d 35bb 0000 0000 0000 0000 0000 0000
00000040: 0b29 933b e69c 663b 83c6 0aba 0000 0000
00000050: 0000 0000 0000 0000 56ed 573b 0832 923b
00000060: b13d ef3a 0000 0000 0000 0000 0000 0000
00000070: 3127 f13a a2c6 1b3b 1f6b 2cba 0000 0000
00000080: 0000 0000 0000 0000 04be 693a 4321 203a
00000090: 6998 793b 0000 0000 0000 0000 0000 0000
000000a0: 9f56 0ebb ddc0 bb3a e700 36bb 0000 0000
000000b0: 0000 0000 0000 0000 3d10 033b e509 373a
000000c0: 88a3 58ba 0000 0000 0000 0000 0000 0000
000000d0: bbcc 8b3a 6807 fb3a df7b 25ba 0000 0000
000000e0: 0000 0000 0000 0000 f078 9e3a b1b7 8e3a
000000f0: 6cf3 8e3b 0000 0000 0000 0000 0000 0000
00000100: b4a6 30bb c262 ddb8 6f81 c93a 0000 0000
00000110: 0000 0000 0000 0000 4236 7bba d850 053b
00000120: f764 18ba 0000 0000 0000 0000 0000 0000
00000130: 889f 3b3a 6425 0d3a 4c9e dcba 0000 0000
00000140: 0000 0000 0000 0000 a962 da3a a33b 263b
00000150: 2587 3c3b 0000 0000 0000 0000 0000 0000
00000160: 1d1d 62bb 7e24 4ebb 20d5 15bb 0000 0000
00000170: 0000 0000 0000 0000 64d9 153b 46e6 843a
00000180: 0bea 823a 0000 0000 0000 0000 0000 0000
00000190: 83eb 82ba a9a9 223b d38d 11ba 0000 0000
000001a0: 0000 0000 0000 0000 ce7a 113a 7e5c d039
000001b0: b538 b4ba 0000 0000 0000 0000 0000 0000
000001c0: dd50 b43a 8c9d 633b 36f0 1d3b 0000 0000
000001d0: 0000 0000 0000 0000 6d31 dcba 21b8 caba
000001e0: dc4b 473a a164 3fbb bcf4 bfba c5ea 1a3a
000001f0: 72db ad39 8456 353b c0f1 6a3b 4da5 c6ba
00000200: 6359 2d3a a58e 8abb e6d1 ca3b 9563 87b9
00000210: 0000 0000 0000 0000 0000 0000 7fb0 c83a
00000220: 4a92 ca3a b77c a839 0000 0000 0000 0000
00000230: 0000 0000 3353 943a efa4 c03a 0671 12b9
00000240: 0000 0000 0000 0000 0000 0000 4931 c33a
00000250: b1d7 c83a 88ab eeba 0000 0000 0000 0000
00000260: 0000 0000 f5b1 233b 1e6b e13a 8d39 a4b9
00000270: 0000 0000 0000 0000 0000 0000 2331 653a
00000280: c8e8 613a 64cf 0bba 0000 0000 0000 0000
00000290: 0000 0000 889d 76b9 f4b1 0aba 4926 8c39
000002a0: 0000 0000 0000 0000 0000 0000 00ae 31ba
000002b0: b701 1eba 8c75 beb8 0000 0000 0000 0000
000002c0: 0000 0000 4849 04ba 0f45 17ba 3500 dcba
000002d0: 0000 0000 0000 0000 0000 0000 5bab 3f3a
000002e0: 3db0 afb9 2f7a 1bb9 0000 0000 0000 0000
000002f0: 0000 0000 4e9f dab9 a760 08ba 4713 843a
00000300: 0000 0000 0000 0000 0000 0000 4046 72ba
00000310: b32d a8b9 8b89 3838 0000 0000 0000 0000
00000320: 0000 0000 84a9 72b9 84b0 90b9 9568 19b9
00000330: 0000 0000 0000 0000 0000 0000 7dce 15b9
00000340: 8a40 75b9 529b e1ba 0000 0000 0000 0000
00000350: 0000 0000 18d3 a13a ce26 3638 7a23 88b9
00000360: 0000 0000 0000 0000 0000 0000 6621 47ba
00000370: 5a5c 80ba d3fa 1bb9 0000 0000 0000 0000
00000380: 0000 0000 2f0d 1c39 3999 fd38 fcb6 b0b9
00000390: 0000 0000 0000 0000 0000 0000 44b5 b039
000003a0: 2b3f e538 0043 dcb8 0000 0000 0000 0000
000003b0: 0000 0000 751b dc38 6bfb da38 cf6d 5fba
000003c0: 0000 0000 0000 0000 0000 0000 706a 5f3a
000003d0: a072 f739 5fc7 5cb9 0000 0000 0000 0000
000003e0: 0000 0000 9013 ab38 d98a 99b6 be23 5dba
000003f0: 9cba 4a37 e467 b5ba b2a3 8ab9 22ea d23a

exp_avg_sq f4 [64, 131]
0.0003157395 0.0 0.0 0.0 0.0003366593 0.0003446832 0.00042011924 0.0
0.0 0.0 0.00037038937 0.0003298066 7.539935e-05 0.0 0.0 0.0
0.00032015052 0.00035124482 0.0002043224 0.0 0.0 0.0 0.0003140701 0.0003329437
0.0003559176 0.0 0.0 0.0 0.0003056611 0.00031094326 0.0002970255 0.0
0.0 0.0 0.00033485098 0.00034048996 0.000423487 0.0 0.0 0.0
0.00037864622 0.0003221972 7.1784285e-05 0.0 0.0 0.0 0.00029909113 0.00034541523
0.00019098607 0.0 0.0 0.0 0.00028587572 0.00031937938 0.000369981 0.0
0.0 0.0 0.00034892044 0.00035334815 0.0002727826 0.0 0.0 0.0
0.00014132551 3.1676977e-05 0.00038333985 0.0 0.0 0.0 0.00024091001 6.481051e-05
6.454579e-05 0.0 0.0 0.0 4.7720598e-05 2.2759421e-05 0.0001924503 0.0
0.0 0.0 0.00013909835 6.436759e-05 0.00037521427 0.0 0.0 0.0
0.0003192056 0.000267727 0.00023180182 0.0 0.0 0.0 0.00023180133 6.996709e-05
0.0003756435 0.0 0.0 0.0 0.00037564427 0.00013724697 1.2406358e-05 0.0
0.0 0.0 1.239804e-05 6.2419467e-06 0.00019295407 0.0 0.0 0.0
0.00019277421 0.00011677381 0.00028318653 0.0 0.0 0.0 0.00018879425 6.665565e-05
0.00025554857 0.00014149575 0.00022671415 0.00023137435 0.00028194615 0.00021238801 0.00017856299 0.00020158682
0.00022480021 0.0002904469 0.00030856716 5.620876e-06 0.0 0.0 0.0 8.515507e-05
9.883729e-05 8.931797e-06 0.0 0.0 0.0 7.704869e-05 9.3446135e-05 7.462799e-06
0.0 0.0 0.0 8.881526e-05 9.9643694e-05 1.7623084e-05 0.0 0.0
0.0 7.7161065e-05 9.294758e-05 4.902982e-06 0.0 0.0 0.0 8.0076126e-05
9.167665e-05 6.360463e-06 0.0 0.0 0.0 6.886311e-05 8.435213e-05 9.590942e-06
0.0 0.0 0.0 6.105863e-05 7.784287e-05 7.981157e-06 0.0 0.0
0.0 7.2355026e-05 8.546329e-05 1.7711367e-05 0.0 0.0 0.0 6.228677e-05
7.755203e-05 5.3439026e-06 0.0 0.0 0.0 8.0787286e-05 9.723322e-05 7.1086497e-06
0.0 0.0 0.0 1.2262096e-05 9.389395e-06 1.0237789e-05 0.0 0.0
0.0 1.6857566e-05 1.2813439e-05 1.2283101e-05 0.0 0.0 0.0 1.3413648e-05
8.529302e-06 1.74231e-05 0.0 0.0 0.0 2.112254e-05 1.3918882e-05 6.640675e-06
0.0 0.0 0.0 5.097982e-05 6.303522e-05 6.316114e-06 0.0 0.0
0.0 6.3193506e-06 2.9558669e-06 1.119483e-05 0.0 0.0 0.0 1.11934805e-05
6.67434e-06 6.037506e-06 0.0 0.0 0.0 6.0345833e-06 1.933705e-06 1.7023629e-05
0.0 0.0 0.0 1.7031996e-05 8.841628e-06 6.8223403e-06 0.0 0.0
0.0 9.228222e-06 6.589393e-06 0.0001158201 6.209761e-05 8.246961e-05 9.312614e-05 9.722096e-05
00000000: d789 a539 0000 0000 0000 0000 0000 0000
00000010: a581 b039 99b6 b439 7343 dc39 0000 0000
00000020: 0000 0000 0000 0000 d230 c239 e4e9 ac39
00000030: b81f 9e38 0000 0000 0000 0000 0000 0000
00000040: e0d9 a739 4827 b839 603f 5639 0000 0000
00000050: 0000 0000 0000 0000 c6a9 a439 f28e ae39
00000060: 749a ba39 0000 0000 0000 0000 0000 0000
00000070: 2341 a039 1906 a339 16ba 9b39 0000 0000
00000080: 0000 0000 0000 0000 f08e af39 ca83 b239
00000090: 7707 de39 0000 0000 0000 0000 0000 0000
000000a0: 0985 c639 93ec a839 e58a 9638 0000 0000
000000b0: 0000 0000 0000 0000 55cf 9c39 d918 b539
000000c0: 6f43 4839 0000 0000 0000 0000 0000 0000
000000d0: 97e1 9539 6072 a739 02fa c139 0000 0000
000000e0: 0000 0000 0000 0000 4fef b639 9641 b939
000000f0: 4304 8f39 0000 0000 0000 0000 0000 0000
00000100: c730 1439 e5dc 0438 01fb c839 0000 0000
00000110: 0000 0000 0000 0000 ca9c 7c39 e1ea 8738
00000120: c25c 8738 0000 0000 0000 0000 0000 0000
00000130: 9a27 4838 7ceb be37 7ccc 4939 0000 0000
00000140: 0000 0000 0000 0000 eeda 1139 16fd 8638
00000150: 68b8 c439 0000 0000 0000 0000 0000 0000
00000160: 0d5b a739 b65d 8c39 d40f 7339 0000 0000
00000170: 0000 0000 0000 0000 b20f 7339 4cbb 9238
00000180: 04f2 c439 0000 0000 0000 0000 0000 0000
00000190: 1ff2 c439 f4e9 0f39 e724 5037 0000 0000
000001a0: 0000 0000 0000 0000 2d01 5037 ea71 d136
000001b0: b753 4a39 0000 0000 0000 0000 0000 0000
000001c0: 6f23 4a39 76e4 f438 a778 9439 0000 0000
000001d0: 0000 0000 0000 0000 12f7 4539 7bc9 8b38
000001e0: 26fb 8539 7a5e 1439 1eba 6d39 149d 7239
000001f0: 2cd2 9339 79b4 5e39 a33c 3b39 0d61 5339
00000200: 59b8 6b39 1f47 9839 2fc7 a139 f59a bc36
00000210: 0000 0000 0000 0000 0000 0000 4895 b238
00000220: de46 cf38 c7d9 1537 0000 0000 0000 0000
00000230: 0000 0000 3395 a138 83f8 c338 f568 fa36
00000240: 0000 0000 0000 0000 0000 0000 5442 ba38
00000250: cdf7 d038 49d5 9337 0000 0000 0000 0000
00000260: 0000 0000 88d1 a138 daec c238 4b84 a436
00000270: 0000 0000 0000 0000 0000 0000 8bee a738
00000280: 8742 c038 f66b d536 0000 0000 0000 0000
00000290: 0000 0000 9a6a 9038 34e6 b038 c8e8 2037
000002a0: 0000 0000 0000 0000 0000 0000 9a0c 8038
000002b0: 933f a338 cfe6 0537 0000 0000 0000 0000
000002c0: 0000 0000 4fbd 9738 c13a b338 df92 9437
000002d0: 0000 0000 0000 0000 0000 0000 f49f 8238
000002e0: 6ea3 a238 c64f b336 0000 0000 0000 0000
000002f0: 0000 0000 586c a938 b0e9 cb38 d686 ee36
00000300: 0000 0000 0000 0000 0000 0000 4db9 4d37
00000310: 2587 1d37 f8c2 2b37 0000 0000 0000 0000
00000320: 0000 0000 5969 8d37 4df9 5637 8413 4e37
00000330: 0000 0000 0000 0000 0000 0000 2e0b 6137
00000340: 1319 0f37 d327 9237 0000 0000 0000 0000
00000350: 0000 0000 4f30 b137 2585 6937 f7d2 de36
00000360: 0000 0000 0000 0000 0000 0000 2ad3 5538
00000370: c731 8438 02ef d336 0000 0000 0000 0000
00000380: 0000 0000 cf0a d436 685d 4636 6ed1 3b37
00000390: 0000 0000 0000 0000 0000 0000 a2cb 3b37
000003a0: 25f4 df36 c895 ca36 0000 0000 0000 0000
000003b0: 0000 0000 ad7c ca36 cdc4 0136 f7cd 8e37
000003c0: 0000 0000 0000 0000 0000 0000 efdf 8e37
000003d0: 8156 1437 75eb e436 0000 0000 0000 0000
000003e0: 0000 0000 e9d2 1a37 741a dd36 71e4 f238
000003f0: 673a 8238 89f3 ac38 b74c c338 1be3 cb38

exp_avg f4 [64]
0.0029887485 0.0007818199 -0.009324647 -0.0006508661 8.222442e-05 -0.0006620172 0.0037919886 0.0002797243
-0.00010516156 0.0006264657 0.0037987644 0.00043514807 0.0025276304 0.000199467 0.0055325604 -0.00096627255
0.0014717047 0.00014422336 -0.00081616116 0.0012520379 0.0005806226 -0.0014286761 0.0008940672 -0.00031919623
0.0004353941 0.0020328432 -0.0018342879 0.00024843574 0.0017647124 -0.0013388756 0.002191279 0.0013080939
0.00038664104 0.000108584296 -0.004367765 0.0020837192 0.00027560495 0.00056974567 -0.0030246386 0.001862162
-0.0008912342 0.0004139664 0.0012840634 0.0015605655 -0.00013821785 0.0018949101 -0.0002877917 0.00015130456
0.00074706995 -0.0051996885 0.0012797271 1.5618392e-05 0.0031100656 0.000558837 0.00040697173 0.002966249
0.0007793772 4.1150076e-07 -0.0010356596 0.0018596846 0.00034896578 0.0013207283 0.00043465578 -0.0015589797
00000000: e1de 433b 0cf3 4c3a 67c6 18bc e29e 2aba
00000010: e66f ac38 398b 2dba 0383 783b f6a7 9239
00000020: 2f8a dcb8 6739 243a b1f4 783b 9624 e439
00000030: 9aa6 253b 0428 5139 7b4a b53b 744d 7dba
00000040: 37e6 c03a aa3a 1739 a6f3 55ba 6c1b a43a
00000050: ec34 183a 6a42 bbba d65f 6a3a cb59 a7b9
00000060: 9b45 e439 7339 053b 7d6c f0ba 7b40 8239
00000070: ec4d e73a 367d afba 909b 0f3b 5974 ab3a
00000080: 15b6 ca39 c0b7 e338 781f 8fbb 028f 083b
00000090: 127f 9039 fc5a 153a 0439 46bb ca13 f43a
000000a0: b7a1 69ba a109 d939 054e a83a e48b cc3a
000000b0: 92ee 10b9 a25e f83a c0e2 96b9 82a7 1e39
000000c0: 04d7 433a 2662 aabb 84bc a73a 3e04 8337
000000d0: 3ed2 4b3b eb7e 123a d25e d539 6665 423b
000000e0: 1e4f 4c3a 3cec dc34 f8be 87ba a9c0 f33a
000000f0: 65f5 b639 4a1c ad3a 83e2 e339 ae56 ccba

exp_avg_sq f4 [64]
0.00024048024 8.561213e-05 0.0027417622 5.9967784e-05 7.930394e-05 2.7973978e-05 0.00042348553 9.213315e-05
9.238618e-06 3.1436943e-05 0.00086169166 0.00035707024 0.00014789512 3.660356e-05 0.001058865 2.2953334e-05
0.00011700488 0.0002010265 2.2339615e-05 6.150335e-05 0.00024766213 9.491668e-05 0.00028690542 4.8339276e-05
1.2153807e-05 0.00027832497 7.584985e-05 0.00014234059 0.00016395055 2.5824029e-05 0.00029650913 0.00014489317
5.667658e-05 1.2066545e-05 0.00012143932 0.0003399895 0.00014304604 0.00022033809 0.00028796121 0.00039951556
7.089581e-05 5.069088e-05 3.1540912e-05 0.00089382334 9.261669e-05 4.0056442e-05 0.0001301754 2.7108104e-05
7.795547e-06 0.000868133 1.9935911e-05 3.599256e-05 0.0004967464 6.428995e-05 5.383952e-06 0.0009155969
4.1676565e-05 0.00015260829 0.00017373046 0.00011848059 2.061273e-05 3.6174642e-05 1.5749329e-05 6.59093e-05
00000000: 6c29 7c39 aa8a b338 23af 333b eb85 7b38
00000010: fb4f a638 a9a9 ea37 4407 de39 9c37 c138
00000020: 90ff 1a37 29db 0338 26e3 613a 2835 bb39
00000030: 4b14 1b39 c686 1938 9dc9 8a3a e98b c037
00000040: 8460 f538 a4ca 5239 f565 bb37 5cfb 8038
00000050: a6d8 8139 010e c738 cb6b 9639 e7bf 4a38
00000060: 34e8 4b37 25ec 9139 9411 9f38 4341 1539
00000070: 24ea 2b39 aea0 d837 c874 9b39 77ee 1739
00000080: 04b8 6d38 6b71 4a37 3dad fe38 9e40 b239
00000090: a1fe 1539 8e0a 6739 80f9 9639 1276 d139
000000a0: e6ad 9438 eb9c 5438 cc4a 0438 784f 6a3a
000000b0: 353b c238 4702 2838 b17f 0839 3666 e337
000000c0: 9fc9 0237 6b93 633a 0b3c a737 b8f6 1638
000000d0: 1638 023a 67d3 8638 cca7 b436 ab04 703a
000000e0: dfcd 2e38 7a05 2039 6a2b 3639 c878 f838
000000f0: 80e9 ac37 3aba 1738 6d1d 8437 c938 8a38
