Assets/OpponentML.onnx (onnx, 54547 bytes, 11 tensors)

60 f4 [120]
000000 f4 0d 0e 3e 47 61 1f 3b 47 61 1f 3b 47 61 1f 3b
       0.1387251 0.0024319456 0.0024319456 0.0024319456
000010 58 5f b8 3e 50 63 b1 3e fb 60 29 3e 47 61 1f 3b
       0.36010242 0.34646082 0.16540901 0.0024319456
000020 47 61 1f 3b 47 61 1f 3b 86 7a bc 3e 14 06 b3 3e
       0.0024319456 0.0024319456 0.36812228 0.34965575
000030 5a 19 fd 3d 47 61 1f 3b 47 61 1f 3b 47 61 1f 3b
       0.12358351 0.0024319456 0.0024319456 0.0024319456
000040 a6 51 b6 3e 66 62 b0 3e ce f8 2f 3e 47 61 1f 3b
       0.35609168 0.34450072 0.17184755 0.0024319456
000050 47 61 1f 3b 47 61 1f 3b a9 8e bd 3e e3 a4 b2 3e
       0.0024319456 0.0024319456 0.37022904 0.34891424
000060 69 11 d2 3d 47 61 1f 3b 47 61 1f 3b 47 61 1f 3b
       0.10257227 0.0024319456 0.0024319456 0.0024319456
000070 ca b8 c1 3e d1 dd bc 3e 34 1a 12 3e 47 61 1f 3b
       0.37836295 0.36887982 0.14267808 0.0024319456
000080 47 61 1f 3b 47 61 1f 3b a2 0f a0 3e 66 bb 96 3e
       0.0024319456 0.0024319456 0.31261927 0.2943985
000090 d7 ab 2d 3e 47 61 1f 3b 47 61 1f 3b 47 61 1f 3b
       0.16960083 0.0024319456 0.0024319456 0.0024319456
0000a0 ac 8f a5 3e 93 28 99 3e a6 2c 02 3e 47 61 1f 3b
       0.32336175 0.29913768 0.12712345 0.0024319456
0000b0 47 61 1f 3b 47 61 1f 3b 38 3c 9d 3e 1f 46 95 3e
       0.0024319456 0.0024319456 0.30710006 0.2915506
0000c0 cc e4 33 3e 47 61 1f 3b 47 61 1f 3b 47 61 1f 3b
       0.17567748 0.0024319456 0.0024319456 0.0024319456
0000d0 dd e6 a6 3e 51 a5 98 3e 73 9b d8 3d 47 61 1f 3b
       0.3259801 0.29813626 0.105765246 0.0024319456
0000e0 47 61 1f 3b 47 61 1f 3b 9a cd ab 3e a2 92 a5 3e
       0.0024319456 0.0024319456 0.335553 0.32338434
0000f0 fa fd 15 3e 47 61 1f 3b 47 61 1f 3b 47 61 1f 3b
       0.14647666 0.0024319456 0.0024319456 0.0024319456
000100 72 05 7f 3e ed ad 63 3e 13 c8 31 3e 47 61 1f 3b
       0.24904421 0.22234316 0.17361479 0.0024319456
000110 47 61 1f 3b 47 61 1f 3b f6 5b 87 3e d6 79 6b 3e
       0.0024319456 0.0024319456 0.26437348 0.22995695
000120 6d b7 05 3e 47 61 1f 3b 47 61 1f 3b 47 61 1f 3b
       0.13058253 0.0024319456 0.0024319456 0.0024319456
000130 8e ab 76 3e 6a 06 5f 3e 5b b4 37 3e 47 61 1f 3b
       0.2408888 0.2177979 0.17939894 0.0024319456
000140 47 61 1f 3b 47 61 1f 3b ff 22 89 3e c8 f3 69 3e
       0.0024319456 0.0024319456 0.26784512 0.22846901
000150 39 f2 de 3d 47 61 1f 3b 47 61 1f 3b 47 61 1f 3b
       0.10886044 0.0024319456 0.0024319456 0.0024319456
000160 0f 2c 8f 3e e6 ac 86 3e 4b c6 19 3e 47 61 1f 3b
       0.27963302 0.26303786 0.15017049 0.0024319456
000170 47 61 1f 3b 47 61 1f 3b 37 cb 19 3e 58 39 bb 3d
       0.0024319456 0.0024319456 0.15018927 0.09141797
000180 75 cd 35 3e 47 61 1f 3b 47 61 1f 3b 47 61 1f 3b
       0.17754157 0.0024319456 0.0024319456 0.0024319456
000190 7b d1 35 3e 6f d2 e4 3d 5a 34 09 3e 47 61 1f 3b
       0.17755692 0.111729495 0.13398877 0.0024319456
0001a0 47 61 1f 3b 47 61 1f 3b e9 39 09 3e e4 9e 9e 3d
       0.0024319456 0.0024319456 0.13400997 0.0774515
0001b0 25 75 3b 3e 47 61 1f 3b 47 61 1f 3b 47 61 1f 3b
       0.18306406 0.0024319456 0.0024319456 0.0024319456
0001c0 17 79 3b 3e fb 94 dd 3d ee 19 e5 3d 47 61 1f 3b
       0.18307911 0.108194314 0.11186586 0.0024319456
0001d0 47 61 1f 3b 47 61 1f 3b d0 ad 4c 3e 4c 0b 31 3e
       0.0024319456 0.0024319456 0.19988179 0.17289466

63 f4 [11]
000000 51 1b 2d 43 85 1c 1b 43 37 c4 41 43 19 d2 cd 3e
       173.1067 155.1114 193.76646 0.40199354
000010 5b 52 e2 3e 67 3c c7 3e fc 36 ca 3e 76 bf 74 44
       0.44203457 0.3891327 0.39495075 978.9916
000020 22 84 ea 44 c6 5b 96 44 e4 c3 1a 3f
       1876.1292 1202.8679 0.60455155

action_model._continuous_distribution.log_sigma f4 [1, 2]
000000 48 1c 87 bd a4 84 83 3c
       -0.06597191 0.016054459

action_model._continuous_distribution.mu.bias f4 [2]
000000 c8 01 62 3c 4e 00 a3 3c
       0.01379437 0.019897606

action_model._continuous_distribution.mu.weight f4 [2, 64]
000000 bb dc 02 bd af e6 a7 3d 71 7a 59 3d 6c 72 15 bd
       -0.031948786 0.08198296 0.053095285 -0.036486074
000010 b5 c3 16 bd c1 90 18 bd 65 a2 d5 39 9a e8 71 bd
       -0.036807735 -0.037247423 0.0004074752 -0.059059717
000020 51 1d b8 3c a3 a6 a0 bd 3b 53 71 3d 00 23 a3 3c
       0.022474917 -0.078442834 0.058917265 0.01991415
000030 00 e5 27 bd 25 df 59 bd 84 b3 91 3c cf f7 2b 3d
       -0.040989876 -0.053191323 0.017785795 0.041984376
000040 72 32 5b bb f0 e6 1d bd b7 e0 79 bd 01 97 4f 3d
       -0.0033446816 -0.038550317 -0.06100532 0.050681118
000050 21 22 f9 3c 28 c5 67 bd c2 e4 4d bc 0a 62 e1 3c
       0.030411782 -0.056584507 -0.012566747 0.027512569
000060 41 5a 72 3d 8b 3f 0a 3d ee dc 91 bc d1 8b 56 3d
       0.059168104 0.033752006 -0.017805543 0.052379433
000070 0d 71 9a bd 30 fb 86 3d 43 9d f4 3d ca 6e 64 3c
       -0.07541094 0.06590879 0.11944058 0.01394243
000080 be d5 32 bc 2a 2c b3 3d ee 06 d5 bc 10 cc 48 3d
       -0.010915218 0.08748658 -0.02600428 0.049022734
000090 03 b7 60 3b 65 c4 dc bb a7 b3 5b bd 1a cb 18 bd
       0.003428877 -0.0067372792 -0.053638127 -0.037303068
0000a0 6f d4 c6 3c 3a b0 49 3b 4b 42 45 be 65 08 3d 3d
       0.024271218 0.0030775205 -0.1926357 0.046150584
0000b0 b1 f2 b6 bd 1b 9d 8f bc f2 6b 08 bc bb a5 91 3a
       -0.089330085 -0.017530968 -0.008326517 0.0011112014
0000c0 ce 90 04 3d 61 99 82 3d c5 de 17 3d d1 37 ec bb
       0.03236466 0.06376911 0.037077684 -0.0072088023
0000d0 13 97 bb 3c 7f 26 ff bb 1c b9 89 3c 8d 51 b5 3c
       0.022899186 -0.0077865715 0.0168119 0.022133613
0000e0 ba f1 61 3d d7 3c e7 bb 48 81 8e 3d 07 8a 2c bd
       0.05516217 -0.007056813 0.06958252 -0.04212382
0000f0 72 87 13 bd 5d 6e 8d bd 03 92 ce 3d f1 0b 8a bc
       -0.036017843 -0.06905816 0.10086443 -0.016851397
000100 a9 84 65 bd 0a fe b1 3c 7b 2e a3 3d f0 cd 98 3d
       -0.056034718 0.02172758 0.0796785 0.074611545
000110 7c 12 83 3c b9 4d e4 3c 4a 24 9f bd 05 59 89 3d
       0.016000025 0.027869092 -0.077705935 0.06706432
000120 42 5e 42 3d a9 0f 5e bd 6d d1 e6 bd 8b fb 8f bc
       0.047453173 -0.054214153 -0.112704135 -0.017576
000130 e0 b4 fc bd 08 82 ef bc 3d 8c 2c bd b7 ae 57 bd
       -0.12339187 -0.029236808 -0.04212593 -0.052656855
000140 81 72 b7 bd 5d 5e e8 3b 61 f5 a7 bc fb 0b 5e bd
       -0.08957387 0.007091327 -0.020502748 -0.054210644
000150 f1 d3 98 bd 0f 5c 85 3c 16 a1 a0 bd cb b5 b1 bc
       -0.074622996 0.016279249 -0.07843225 -0.021693131
000160 e7 f0 91 bc 7f 52 1c 3d 93 37 af 3d 2a 83 f0 3c
       -0.017815067 0.038164612 0.08555522 0.029359419
000170 e5 1e b9 bb 42 36 f6 3c be 7b ce bc 5b a3 47 bd
       -0.005649435 0.030055169 -0.02520549 -0.048739772
000180 0b 53 fb bc ff 82 4b 3d 59 fa d4 bd 67 2b f7 bc
       -0.030679246 0.049685474 -0.103993125 -0.030172063
000190 e0 ea 56 3d 10 06 5c bc 4e 17 a6 bc c7 c1 5b bc
       0.052470088 -0.01342918 -0.020274784 -0.013412899
0001a0 9e 8f 5c bd 9d fd 82 bd 35 d3 3e bd e0 1f cc bd
       -0.0538479 -0.06396029 -0.04658814 -0.09967017
0001b0 ec 72 c3 3a 1e 09 70 bd b9 f5 26 bd 0e e8 c6 bc
       0.0014911569 -0.058602445 -0.040761683 -0.024280574
0001c0 40 34 32 3d 04 56 ef 3c ab d5 a3 3d a0 30 9f bc
       0.04350686 0.02921582 0.07999738 -0.019432366
0001d0 71 c8 86 bd 86 52 37 3c da 38 e4 bc d9 f6 22 bd
       -0.065812 0.011189109 -0.02785914 -0.039786194
0001e0 ef 85 99 bc 99 21 86 bd b4 5b 90 bc da f7 cd 3b
       -0.018740622 -0.06549377 -0.017621852 0.0062856497
0001f0 bd 5c 33 bd 7a 31 ae 3a e4 eb 38 bd 71 7d 01 bd
       -0.043789614 0.0013289892 -0.045146838 -0.03161377

network_body._body_endoder.seq_layers.0.bias f4 [64]
000000 b9 b0 30 3d 8c 1f d4 bc 9d b7 9f 3c 48 51 97 3b
       0.043137286 -0.025893949 0.019496733 0.004617844
000010 d0 a2 73 3c a8 ca ea 3c 34 d2 14 bb bd bb 07 3d
       0.0148703605 0.028661087 -0.0022708299 0.033138026
000020 f4 3c 29 3c 25 1a ef bb 79 f4 32 3c 65 18 d8 bc
       0.010329474 -0.007296818 0.010922545 -0.02637882
000030 79 41 02 3d de 0b 19 bd f7 1b e3 bb 98 e7 0c 3c
       0.03180072 -0.037364833 -0.006930824 0.008600138
000040 12 dd 75 3b 41 ea 51 3d 25 bd c4 3c a4 4b 74 3d
       0.0037515801 0.051248793 0.024015972 0.05964245
000050 35 42 fd 3c df 47 ef bb c1 d3 13 bd 7e 92 9d 3c
       0.030915359 -0.007302269 -0.036090616 0.019234892
000060 54 11 6d bb 35 93 10 bd 0f 90 37 3c 89 9b cc 3c
       -0.0036173658 -0.035296638 0.01120378 0.024976509
000070 93 f6 51 bc b1 3f c9 3b 84 d6 1c 3b c7 4a 8d 3c
       -0.0128151355 0.006141626 0.0023931572 0.01724757
000080 57 6f 58 3c d9 be 04 3c 53 e6 b6 3c f6 80 7f 3b
       0.013210139 0.008102142 0.022326624 0.0038986779
000090 d4 df 6a bc 4c e4 85 bb a2 69 51 bc 10 8c ae 3c
       -0.014335591 -0.004086053 -0.0127815325 0.021307021
0000a0 1e 3e 64 ba ab 39 0e bc 50 2e 05 bd eb 3d 9b 3c
       -0.0008706766 -0.008680741 -0.03251487 0.018950423
0000b0 af b5 55 3c 72 64 ec bc 90 a8 94 3c 5b e5 44 3c
       0.013043805 -0.02885649 0.018146783 0.012017573
0000c0 52 d4 76 3d 80 98 a3 3c 15 a7 ff 3b 26 cc 85 3d
       0.06026108 0.019970179 0.0078019 0.06533079
0000d0 3e a1 a7 bc 8d 80 27 3c cc ea 20 3d 7e 26 15 3d
       -0.020462628 0.01022352 0.03928642 0.036413662
0000e0 02 c2 74 3c 75 ab 5c bd af 93 1f 3d 29 bd fd 38
       0.014938833 -0.05387445 0.0389592 0.00012099214
0000f0 97 25 4d 3c 6c 6b 10 3d 80 f7 cf 3c 90 7f 1c 3c
       0.012521169 0.035258695 0.025386572 0.009551898

network_body._body_endoder.seq_layers.0.weight f4 [64, 131]
000000 1a 73 b4 bd 8f 18 82 3d 22 fd a3 3d f9 a5 c0 bd
       -0.088110164 0.063523404 0.080072656 -0.09406657
000010 33 0d c9 3d 15 56 0f bc cb c5 08 be 79 51 36 3d
       0.09816971 -0.008748551 -0.13356702 0.044511292
000020 12 b4 2f 3e 64 98 ce bc dc 88 b2 bd ac fc 07 3e
       0.17158535 -0.02521915 -0.0871751 0.1327998
000030 08 aa d6 3d cc 18 a2 3c 65 6d 6e bd 2d fc 49 bb
       0.1048165 0.019787215 -0.058209796 -0.0030820474
000040 b4 a5 13 3d c9 f7 e8 3d fc af e1 3c 38 3c 5c bd
       0.0360467 0.11375386 0.027549736 -0.053768367
000050 9d 69 20 3e ce fb 45 3d c3 96 aa 3c d3 b1 44 bd
       0.15665288 0.048335843 0.020823842 -0.04802115
000060 d8 0e 9b bc d6 82 ff 3d 11 1b 92 bc 70 ee 51 3e
       -0.018927976 0.12476127 -0.017835172 0.20501113
000070 fa cb b0 3d cc 83 f3 bd 76 07 0f 3d 99 02 e2 3c
       0.086326554 -0.11890373 0.034919225 0.02758913
000080 b5 88 1d 3e a8 2d 09 be b6 29 8d 3d dc 96 7b 3d
       0.15384181 -0.13396323 0.06892721 0.061423168
000090 b7 14 7f bd 21 bc 25 3d 5b 9a 99 3d 46 8b b0 bd
       -0.062275615 0.040462617 0.07500144 -0.08620314
0000a0 c5 49 ce bd 47 2c 18 3e 11 15 91 bd ee 56 28 bd
       -0.10072664 0.1486064 -0.07084096 -0.041098528
0000b0 d3 3f 6e 3d 92 97 10 be 91 01 02 3e 94 c5 28 bd
       0.058166336 -0.1412032 0.1269591 -0.04120405
0000c0 d9 39 bf 3c 68 80 53 3d 6f 24 12 be 8c 2e 5b be
       0.023343014 0.05163613 -0.14271711 -0.21404475
0000d0 47 1a 93 3d 54 cb c1 bc 64 a9 f5 bd 28 8a 09 be
       0.071827464 -0.023656525 -0.11995199 -0.13431609
0000e0 f6 00 37 bc 58 72 a8 3d aa 1d af bd 3b f1 df 3d
       -0.011169663 0.08224934 -0.0855058 0.10934683
0000f0 31 78 41 bd c4 5d 13 bd d2 b8 7a 3a 5d db a9 3b
       -0.047233764 -0.035978094 0.00095642835 0.005183621
000100 5d 46 01 bd 55 07 4d bc c3 5f 91 3d a2 25 36 ba
       -0.031561244 -0.012513955 0.07098343 -0.0006948357
000110 e1 ed 1e be 69 01 6c 3d 13 32 bb bc c3 5e 8d 3d
       -0.15520431 0.057618532 -0.022851026 0.0690284
000120 af 5b 71 3c e3 89 bf 3d 53 d5 cc 3c 23 39 9a bd
       0.014731332 0.09352472 0.025004065 -0.07530429
000130 41 87 87 3d 83 3f 45 3b 70 fb 06 3e c1 6b ea bd
       0.066175945 0.003009767 0.13181853 -0.11446334
000140 68 13 36 be 77 33 18 3d 96 48 83 bd 97 5e 30 be
       -0.1778084 0.037158456 -0.06410329 -0.17223583
000150 5d db 3e bd 8c ee 85 bd a1 5c ac 3d 9a c8 3e 3c
       -0.04659592 -0.0653964 0.08416105 0.011644507
000160 4c c5 87 bd 44 67 3e bb 0c 97 03 3d 5d 15 25 3b
       -0.06629428 -0.002905325 0.03212647 0.0025189735
000170 a6 9b 4d bc 5e b9 fc 3d d7 d0 a7 3d 28 4c 0c bd
       -0.0125493165 0.123400435 0.0819413 -0.034252316
000180 24 45 46 3d 19 3d 08 3d 71 9a bc 3d f0 1a 5b bd
       0.04840578 0.033261392 0.09209145 -0.053492486
000190 d8 92 30 3e d7 69 1c 3e 42 8e a8 3c d2 2d 28 3d
       0.17243516 0.1527475 0.020575646 0.041059323
0001a0 c1 b5 85 3d 40 d4 49 3e de 07 88 bd 19 88 a1 3d
       0.065288074 0.19709873 -0.066421255 0.07887287
0001b0 12 b1 eb bd f0 b9 2e 3c 51 b4 92 3c 03 ae 9f 3d
       -0.11508383 0.010664448 0.017908247 0.07796862
0001c0 f6 a8 fc 3d e9 87 7f 3c 75 d4 d7 3d 85 31 84 bd
       0.12336914 0.015596368 0.1053857 -0.064547576
0001d0 a4 96 4a 3e 5a 48 4b be 6e e2 3b bc d4 3f 00 be
       0.19784027 -0.19851819 -0.011467559 -0.12524348
0001e0 1a 84 b3 3d 7d d9 2a 3e 33 be 19 be f2 b7 b0 bd
       0.08765431 0.16684528 -0.15013961 -0.08628835
0001f0 3f 23 b4 bd 05 9d 1f 3e bc 0b 84 bd 01 f2 bb bb
       -0.08795785 0.15587242 -0.06447551 -0.005735636
000200 d6 97 c5 bc 06 74 9c 3d b9 07 30 be fd 41 32 3e
       -0.024120253 0.07639317 -0.17190446 0.17407985
000210 a0 ec 52 bc 4e 5b 2e 3c bd 19 9f bd df 51 ad bb
       -0.012873799 0.010641886 -0.07768581 -0.005289301
000220 2d 5e 13 3e 25 d8 b7 bd 6d 8c f9 bc 40 32 5c bd
       0.14391394 -0.08976773 -0.030462468 -0.05375886
000230 71 29 84 3c 38 42 48 3d 18 c2 9c 3b dd d9 88 3d
       0.016133042 0.048891276 0.00478388 0.06682179
000240 08 20 74 3d 45 07 2f 3e bb 8d 83 3d 63 33 95 3d
       0.05960086 0.17092617 0.06423517 0.07285192
000250 6a cf a1 3d 03 03 cf bd 59 4f b0 3b 45 e4 5c 3d
       0.07900889 -0.10107996 0.0053805527 0.053928632
000260 7c 21 55 bd 46 a4 b7 bc 6f 1b 9b 3d 55 4f 03 be
       -0.052033886 -0.022417199 0.07573592 -0.12823232
000270 25 0d 63 bc 2a d7 1b 3c 59 e6 ec 3d ba 2f 34 3d
       -0.013858114 0.009511748 0.11567373 0.043990828
000280 eb 75 3c bd b9 9d 43 bd 74 26 44 bc 42 7b 20 3d
       -0.046010893 -0.047757838 -0.011972059 0.039180048
000290 1d e8 20 be 56 82 3d 3c 25 63 c7 3d 1d 31 0d 3d
       -0.15713544 0.011566719 0.09735707 0.034470666
0002a0 8c b7 b7 3c 87 1a 90 3d e7 dd 55 3e 1f 40 e6 3c
       0.02242639 0.0703631 0.2088543 0.028106747
0002b0 e8 93 1e bd ad 57 3a 3e 23 2f 25 3e 41 ba 7c 3e
       -0.038715273 0.18197508 0.16131262 0.24680425
0002c0 ef 1c d3 bc 7c 7a 60 3d 11 24 ce bd 3d 39 24 3c
       -0.025770633 0.05480431 -0.10065473 0.010023412
0002d0 0d 80 16 3d 81 9d 02 3e 90 19 0d 3e b6 ce 6f 3d
       0.036743212 0.12755395 0.13779283 0.058546744
0002e0 25 df 08 be 1e 3d 90 3d d4 57 84 bd e4 aa e4 bd
       -0.13366373 0.07042907 -0.064620644 -0.11165407
0002f0 99 6b 73 bc 34 25 4e 3d 03 a6 e6 39 dc 7c 35 3d
       -0.014857196 0.05032845 0.00043992707 0.04430853
000300 3f 19 31 3e 60 cb 04 bd 03 88 d3 3d 90 40 46 3e
       0.17294787 -0.032420516 0.103286766 0.19360566
000310 3a 97 f0 bc 84 40 8a 3c 0f 0c 1f be 26 fa 51 bd
       -0.029368985 0.016876467 -0.15531944 -0.05126395
000320 5f ef d8 ba 10 37 d8 bd 34 60 16 3e 3e 0e 20 bd
       -0.001655083 -0.10557377 0.14685136 -0.039076082
000330 19 d9 54 bd a3 8f 55 bd a2 c8 68 3d fd 5e 24 3d
       -0.051964853 -0.052138936 0.056831963 0.04012965
000340 71 08 02 be 65 1e 79 3d da f9 f0 bd cd 1e 78 bd
       -0.12698533 0.060820002 -0.117664054 -0.06057625
000350 7d 58 21 bd ba 51 44 3c ef 02 f8 3b 0d fc 07 3d
       -0.03939103 0.011982376 0.007568709 0.03319936
000360 99 81 a7 bd f5 0c 35 3d d0 bf d3 bd c2 60 19 be
       -0.08179016 0.04420181 -0.1033932 -0.14978316
000370 38 db c6 bd 43 1c 3e bd 42 da 1e 3d 42 f7 ac bc
       -0.097097814 -0.04641367 0.038782366 -0.021113995
000380 4b 81 fe 3d 76 a3 81 bd da 88 f0 3d de cd 02 bd
       0.124270044 -0.06330006 0.11744852 -0.03193461
000390 7b 76 13 3d b3 98 ff 3b 28 62 ec 3d dd 39 0d be
       0.036001664 0.0078001856 0.11542159 -0.13791604
0003a0 92 b1 5a 3d c1 56 6b 3c cd e5 23 be 5b 17 9c bc
       0.053392 0.014363945 -0.16005631 -0.019054106
0003b0 b2 fc cb bd 52 76 0b 3e 51 01 90 bd 4e ed 4d 3c
       -0.09960307 0.13619354 -0.07031501 0.012568785
0003c0 3d 57 0f 3e a3 20 91 3d 6d bd a8 bc 73 bb 11 3d
       0.13998123 0.07086303 -0.020598138 0.035579156
0003d0 a9 7f f8 3d 4a 0d 90 bd 78 8a 7d bd 81 9b 81 3c
       0.12133724 -0.07033785 -0.061899632 0.01582122
0003e0 e4 9a 20 3d 0e c2 06 bb 86 ce 8e 3d 82 98 5d 3d
       0.039210215 -0.0020562443 0.06972985 0.05410052
0003f0 0c 2f 1a bd ff 08 c6 3c 58 16 ac bd 91 b5 c2 3d
       -0.037642524 0.024174212 -0.08402699 0.09507287

network_body._body_endoder.seq_layers.2.bias f4 [64]
000000 0a bd 07 3c 69 27 f8 3c c8 a7 1a 3d 33 4d e0 3c
       0.0082848165 0.03029223 0.037757665 0.027380561
000010 11 38 49 3c d1 2b 49 3c 99 32 8b bb e6 5a 4d 3d
       0.012281434 0.012278513 -0.004247975 0.050135516
000020 4c e2 ff 3c 71 1c aa bc fd eb e7 3c e8 d1 41 3c
       0.031235836 -0.020765515 0.02831077 0.011829831
000030 56 bc 78 3c 75 a7 96 bc 05 22 5c bd 75 d5 c0 ba
       0.015181622 -0.018390397 -0.05374338 -0.0014712053
000040 47 e9 b9 3a ca 2a 19 bd 30 47 40 3b 5c 13 ce 3b
       0.0014183902 -0.037394322 0.0029339306 0.006288929
000050 10 e9 44 bc a7 ec d1 3b 5c 9f 21 bc de f4 44 bc
       -0.012018457 0.006406385 -0.009864654 -0.0120212715
000060 25 50 20 3d 3d c3 da 3c 8c 35 37 3d 1e f2 15 3d
       0.03913893 0.026704425 0.0447288 0.036607854
000070 f5 ce 42 bb 10 fb 0d 3d 8d c2 05 3d 05 80 f7 bb
       -0.0029725407 0.03466326 0.03265624 -0.007553103
000080 76 c5 9d bc a8 d6 c4 3c d3 52 90 bc 76 df bd 3b
       -0.019259196 0.024028137 -0.017617619 0.005794461
000090 5a 5d 6c 3c e3 1e 87 bc bc 1e 03 bd 2b fd 39 bc
       0.014426554 -0.01649422 -0.032011732 -0.011351864
0000a0 8e 27 eb 3c 8e 63 04 3b 08 5c 27 3c 18 fa c3 3b
       0.028705385 0.002020094 0.010214813 0.005980741
0000b0 c2 a6 ee 3b 3a 9b 49 bc 03 f0 ae bc fd 48 9f bc
       0.0072830627 -0.012305075 -0.02135468 -0.019443983
0000c0 0a b3 9e 3c a3 fd 06 3d 40 69 17 3d b2 67 60 3b
       0.019372482 0.03295673 0.03696561 0.0034241495
0000d0 69 91 4a bc b5 67 41 bc ce 2f bf bc 55 46 aa b9
       -0.01236377 -0.011804511 -0.023338225 -0.00032477328
0000e0 02 07 73 bc 4a fb c5 bb 3b 5c e9 3c 84 66 5d 39
       -0.014833214 -0.006041919 0.028486362 0.00021114392
0000f0 94 22 c3 bc b9 ec 06 3c 2e b8 ec 3c b6 95 53 bc
       -0.0238202 0.00823515 0.028896417 -0.012914112

network_body._body_endoder.seq_layers.2.weight f4 [64, 64]
000000 fb d4 77 bc c2 cf 70 bc 9c 02 7a 3e 19 96 4b 3e
       -0.015126462 -0.014697971 0.24415058 0.19881476
000010 73 2c 10 3e 15 4c 12 be 78 81 2e 3d 82 27 2e 3d
       0.14079456 -0.14286835 0.04260394 0.042518146
000020 08 59 f3 bd 16 f9 f6 3d bb 60 99 3d f5 cd 53 bd
       -0.11882216 0.12059228 0.07489153 -0.051710088
000030 98 2b 76 bd 15 e8 79 3e bb 22 52 3e 16 4a 2e 3c
       -0.060100168 0.24404939 0.20521061 0.010637781
000040 fd b7 e4 bd 7d 9a 9e be 15 5e 71 3c b1 93 50 3e
       -0.111679055 -0.3097724 0.014731904 0.2036884
000050 ac 6c 75 be 61 d1 1e 3b 9f 45 23 3e af ff 2b 3e
       -0.23967236 0.0024233686 0.15944527 0.16796754
000060 c1 c9 32 bc 57 f3 2d be 3a e2 e2 bd 78 16 50 3e
       -0.01091236 -0.16987358 -0.110783055 0.20321071
000070 6a 9c f0 3d ce 39 a1 bd 40 c8 a3 bd ff 76 aa bd
       0.117485836 -0.078723535 -0.07997179 -0.08323478
000080 5d fc 11 be bd d6 2b bd a0 31 77 3e e8 e0 be 3d
       -0.14256425 -0.041952837 0.24140024 0.09320241
000090 0b a6 ca bd e2 ac aa bd 33 34 65 3d 5c f0 c3 bd
       -0.098949514 -0.08333756 0.055957984 -0.09567329
0000a0 83 39 78 3d 40 2e b8 3e 05 8f 15 3e 3e e6 c1 bd
       0.060601722 0.35972786 0.14605339 -0.09467743
0000b0 d2 9d 8a bd 36 1a 59 3e 4f 78 ff bd 15 0c ce bd
       -0.06768383 0.21201405 -0.12474119 -0.10060898
0000c0 61 8e f1 bd 28 34 14 be ad e1 06 be 54 79 45 3c
       -0.11794735 -0.14473021 -0.13172026 0.012052853
0000d0 22 f2 a1 3c 57 90 39 3d df c9 73 be 68 05 93 bd
       0.019768778 0.04530367 -0.23807476 -0.071787655
0000e0 46 7c a7 3d 82 9d a4 be 90 47 f2 3d e2 aa 55 3d
       0.08178 -0.3215142 0.11830056 0.05216492
0000f0 85 a5 89 be 8c e5 9a be 17 37 8b 3b 4c ff 90 3e
       -0.26884094 -0.30253255 0.0042485106 0.28319776
000100 21 1d 2a 3d 0d 9c d3 bc 81 3c bd bd d9 a8 7e 3e
       0.041531686 -0.025831247 -0.09240056 0.24869098
000110 93 67 ed bd 49 13 1e bc d9 5e 04 3e 86 15 19 be
       -0.11592021 -0.009648153 0.12926807 -0.14949617
000120 d5 4b 8d 3e a8 b8 b2 3d bb af f4 bd e7 cc 81 be
       0.27596918 0.08726627 -0.119475804 -0.2535164
000130 e0 e6 18 be 58 a0 19 be 5a 50 94 3b da 76 b6 3d
       -0.14931822 -0.15002573 0.00452618 0.08909388
000140 c3 a8 00 3e e8 19 75 3d 2e 18 21 3d 0a 64 55 bd
       0.12564377 0.05983916 0.0393297 -0.052097358
000150 05 ba cb 3d 28 f4 51 be c5 a8 0b 3d 63 58 9b 3d
       0.0994759 -0.20503294 0.034096498 0.07585218
000160 0e bc f7 bd f6 68 c9 3d 2b b0 58 3e 02 1b 50 bc
       -0.120964155 0.09834473 0.21160953 -0.012701752
000170 1e 7e 47 3e 96 d7 15 bd d9 db 96 3e db 41 8d 3e
       0.19481704 -0.036582552 0.29464605 0.27589306
000180 94 2d a5 bc 51 33 31 be bc b8 a0 bd 04 a3 6b be
       -0.020163335 -0.17304732 -0.07847735 -0.23011404
000190 92 13 2d 3e 95 43 e2 bc 19 d9 3a bc 79 8c 0d 3e
       0.16901997 -0.027620116 -0.011404299 0.13823117
0001a0 67 56 7d bd af 88 a7 be 29 c3 b5 3d 5f 8f 30 3e
       -0.061849978 -0.3272147 0.088751145 0.17242192
0001b0 ce 16 d2 3d f8 62 1f 3e 25 cd 83 3d c7 30 2a 3e
       0.10258256 0.15565097 0.064356126 0.1662017
0001c0 ae ab 01 be e3 0a 82 bc 0b 89 80 bd 25 e2 2b be
       -0.12663147 -0.015874332 -0.06276139 -0.16785486
0001d0 aa c7 be bd 94 e9 a0 bc 68 99 6c 3d 60 13 94 bd
       -0.09315427 -0.019642629 0.057763487 -0.07230258
0001e0 c3 16 be 3d 37 96 f3 bd 93 2b ee be 6f c5 9d bc
       0.09281685 -0.118938856 -0.4651762 -0.019259183
0001f0 45 dd b2 3d df 57 b4 3d 9c cc 66 bd c6 ae 7f bd
       0.0873361 0.088058226 -0.056347474 -0.062422536
000200 c9 38 5c 3d 3f b3 ed bc a3 bb e9 bd 49 4e ff 3b
       0.053765092 -0.029016135 -0.11412742 0.0077913147
000210 04 5b b2 bd ac bc 11 be 9b 7f 55 be 2b 45 fa 3d
       -0.08708766 -0.14232129 -0.20849459 0.12220224
000220 4e 5b d9 bc 9c 0a a8 be d2 05 5d 3e 79 d0 05 be
       -0.026532795 -0.32820594 0.21584252 -0.13067807
000230 f8 7f 9d 3d e0 18 6d 3d fa 8a 49 bd 72 ae 91 3d
       0.07690424 0.05788505 -0.049204804 0.07113351
000240 6a c9 b0 bd b5 d7 23 3e 06 da 8a 3e 4b c0 01 3e
       -0.08632167 0.16000254 0.27119464 0.1267101
000250 2d 86 3d bd be ee 29 3e 9e ef 09 3d eb 65 56 3e
       -0.046270538 0.16594979 0.033675782 0.20937316
000260 f0 c0 c3 3d 0c bb 35 3d 11 b3 cf 3c 8c b3 2b bd
       0.09558284 0.044367835 0.02535394 -0.041919276
000270 34 9c 4c 3d 46 52 2a be c7 4e 4c 3d c7 04 1e 3e
       0.049953654 -0.16632947 0.049879815 0.1543151
000280 72 d7 06 be a1 a6 de ba 32 d2 0d bc 53 25 1d be
       -0.13168123 -0.0016986915 -0.0086560715 -0.1534627
000290 36 17 5e 3e e7 57 9c bd 98 ae 8d 3d 8f 1f 44 3e
       0.21688542 -0.076339535 0.06918067 0.19152664
0002a0 ba 61 b0 bc 0f c5 22 bd 8c 3c 98 bd 77 0d 63 3e
       -0.021530975 -0.03973871 -0.074334234 0.22173105
0002b0 2a 5f 26 be b9 48 23 bd 0b 26 56 3d 55 e5 62 3d
       -0.1624724 -0.039864276 0.052282374 0.05539449
0002c0 43 84 98 bd 6b 49 2f 3e c1 29 44 be 78 8d c7 bd
       -0.07447102 0.1711785 -0.19156553 -0.0974378
0002d0 5c be 97 3e 62 6d 38 bc cd b2 9d 3d 47 6b 1b 3e
       0.2963742 -0.011256548 0.07700119 0.15177642
0002e0 f9 68 f8 3d ec 04 12 3e 44 49 1f 3d 25 49 09 3e
       0.12129397 0.1425969 0.03888823 0.13406809
0002f0 18 8d 59 3d 2e 90 94 3e 02 5c 0c 3e 5b b9 0e 3d
       0.053113073 0.2901625 0.13706973 0.034844737
000300 00 aa 06 3e 6e 5b 31 3e a8 6c 09 3d 08 44 0c 3d
       0.13150787 0.17320034 0.03355089 0.034244567
000310 00 7c ec bb 76 e7 63 3d d2 ea e5 3c b4 be 5c 3e
       -0.0072169304 0.05564066 0.028066073 0.21557122
000320 96 f2 8e bd 58 b1 eb bd 89 d7 d3 3b 5d 93 fc 3b
       -0.06979863 -0.11508435 0.006464903 0.0077079968
000330 bc c2 05 3e d3 95 3f 3e 6b e1 50 bd 7c 3e e6 b8
       0.13062567 0.18709497 -0.050996225 -0.00010978893
000340 ba df 10 3d 41 63 8d bc ea ea 05 3c 43 45 f9 3d
       0.035369612 -0.017259242 0.008173684 0.12171414
000350 b1 c8 88 3e 44 ff 2f 3d de 66 19 3e b0 aa 30 3c
       0.26715615 0.04296805 0.14980647 0.010782883
000360 6c d4 6f bd 5f da 49 3e 8b ef 4b bd 1e cb 17 3e
       -0.05855219 0.19712208 -0.049788993 0.14823577
000370 66 87 23 be 23 1c 03 be c0 5f 0c 3d 91 b6 3e bd
       -0.15969619 -0.12803702 0.034271 -0.046560828
000380 65 73 b6 3d e7 88 88 3d 1f 54 af be ff 66 a6 3d
       0.089087285 0.06666737 -0.34243867 0.08125114
000390 eb 1f 47 bd e7 fb 2c bd ff 2c 36 3a a6 ed 23 3e
       -0.048614424 -0.04223242 0.0006949454 0.16008624
0003a0 63 e4 9b bd 23 c4 83 be 54 77 25 be 88 bc 28 3e
       -0.07611921 -0.25735578 -0.16158801 0.16478169
0003b0 ba ea 8f 3c bd ff 54 3d 67 66 4c 3e b0 aa e6 bd
       0.017567981 0.052001704 0.19960938 -0.11263025
0003c0 cc c9 7f be 58 19 b7 3d 30 09 5c 3e cc 2f a7 bd
       -0.24979323 0.08940381 0.2148788 -0.081634134
0003d0 c8 c9 ab 3c f2 d8 4d 3e 7d 96 00 3d 35 07 e1 3d
       0.02097024 0.2010229 0.031393517 0.10987703
0003e0 ac 17 b4 3d 3c e0 63 be 40 fd 48 3d 99 1a 5c bd
       0.087935776 -0.22253507 0.049069643 -0.053736303
0003f0 e7 41 9b 3d 3a af 42 3e 95 27 01 3e 38 9f 38 bc
       0.07580929 0.19012156 0.12612756 -0.011268429

network_body.observation_encoder.processors.0.normalizer.running_mean f4 [120]
000000 4e c2 a0 3c 00 00 00 00 00 00 00 00 00 00 00 00
       0.019623902 0.0 0.0 0.0
000010 cd cd 58 3f 5a 2a 5b 3f 75 93 e6 3c 00 00 00 00
       0.8468903 0.856115 0.028146485 0.0
000020 00 00 00 00 00 00 00 00 2e 9f 56 3f 56 ef 59 3f
       0.0 0.0 0.8383664 0.8513082
000030 00 13 7e 3c 00 00 00 00 00 00 00 00 00 00 00 00
       0.01550746 0.0 0.0 0.0
000040 96 db 59 3f fb d5 5b 3f ac 78 f9 3c 00 00 00 00
       0.85100687 0.85873383 0.030453049 0.0
000050 00 00 00 00 00 00 00 00 11 08 56 3f ca 0b 5a 3f
       0.0 0.0 0.8360606 0.8517424
000060 87 21 2e 3c 00 00 00 00 00 00 00 00 00 00 00 00
       0.010628111 0.0 0.0 0.0
000070 1d ae 53 3f c3 51 55 3f 52 41 aa 3c 00 00 00 00
       0.8268755 0.83327883 0.0207831 0.0
000080 00 00 00 00 00 00 00 00 b4 e5 63 3f 9e 66 66 3f
       0.0 0.0 0.89022374 0.9000033
000090 02 c9 f2 3c 00 00 00 00 00 00 00 00 00 00 00 00
       0.029636864 0.0 0.0 0.0
0000a0 75 a1 61 3f ed 19 65 3f 00 8c 86 3c 00 00 00 00
       0.8813699 0.89492685 0.01642418 0.0
0000b0 00 00 00 00 00 00 00 00 50 03 65 3f 73 1b 67 3f
       0.0 0.0 0.8945818 0.9027626
0000c0 b5 8c 02 3d 00 00 00 00 00 00 00 00 00 00 00 00
       0.03187247 0.0 0.0 0.0
0000d0 fc 0e 61 3f 78 3b 65 3f 3e 46 39 3c 00 00 00 00
       0.8791349 0.8954387 0.011308251 0.0
0000e0 00 00 00 00 00 00 00 00 76 e5 5e 3f 37 9f 60 3f
       0.0 0.0 0.8706888 0.8774294
0000f0 86 a7 b3 3c 00 00 00 00 00 00 00 00 00 00 00 00
       0.021930467 0.0 0.0 0.0
000100 7b fe 6e 3f bf a3 71 3f fb cc fe 3c 00 00 00 00
       0.93357056 0.9439048 0.031103602 0.0
000110 00 00 00 00 00 00 00 00 48 a5 6c 3f 6a 46 70 3f
       0.0 0.0 0.924397 0.93857443
000120 e1 1a 8e 3c 00 00 00 00 00 00 00 00 00 00 00 00
       0.017346801 0.0 0.0 0.0
000130 d2 2a 70 3f 8f 61 72 3f 01 57 08 3d 00 00 00 00
       0.9381534 0.9468011 0.0332861 0.0
000140 00 00 00 00 00 00 00 00 3a 16 6c 3f ac 6b 70 3f
       0.0 0.0 0.92221415 0.93914294
000150 1e 6b 44 3c 00 00 00 00 00 00 00 00 00 00 00 00
       0.011988429 0.0 0.0 0.0
000160 af 1c 6a 3f 48 ec 6b 3f bf 0d bd 3c 00 00 00 00
       0.9145002 0.9215741 0.023077844 0.0
000170 00 00 00 00 00 00 00 00 32 17 7a 3f c7 e0 7c 3f
       0.0 0.0 0.97691643 0.98780483
000180 b6 6e 05 3d 00 00 00 00 00 00 00 00 00 00 00 00
       0.032576285 0.0 0.0 0.0
000190 b8 a8 77 3f 9e 71 7b 3f af c2 95 3c 00 00 00 00
       0.9674182 0.9822024 0.018281309 0.0
0001a0 00 00 00 00 00 00 00 00 8e 51 7b 3f f7 a6 7d 3f
       0.0 0.0 0.9817132 0.99082893
0001b0 87 2d 0e 3d 00 00 00 00 00 00 00 00 00 00 00 00
       0.034711387 0.0 0.0 0.0
0001c0 cb 1c 77 3f f8 9a 7b 3f b7 8f 4f 3c 00 00 00 00
       0.9652831 0.9828334 0.012668542 0.0
0001d0 00 00 00 00 00 00 00 00 29 54 75 3f 4e 3a 77 3f
       0.0 0.0 0.95831543 0.9657334

network_body.observation_encoder.processors.1.normalizer.running_mean f4 [11]
000000 e7 fb 16 40 da 78 3a 43 2e 44 a4 c2 b3 41 b6 3e
       2.359125 186.47208 -82.13316 0.35597
000010 91 f0 cf be da ff 2c be 1d 42 fe bd 34 31 39 43
       -0.40613225 -0.16894475 -0.12414954 185.1922
000020 2e b1 55 45 e4 bd 0f c5 b0 ed e4 3e
       3419.0737 -2299.8682 0.4471259
