Assets/ML BRAINS/BrainWithCrash.onnx (onnx, 22556 bytes, 9 tensors)

50 f4 [11]
0	0x430cc802	140.78128
1	0x42a89fcf	84.312126
2	0x4311f064	145.93903
3	0x3ede9b2d	0.43477765
4	0x3f0644d6	0.52448785
5	0x3f0156dc	0.5052316
6	0x3f0538ff	0.52040094
7	0x43079ee3	135.62065
8	0x42777ec9	61.873814
9	0x430e19ac	142.10028
10	0x3f1ede30	0.6205778

action_model._continuous_distribution.log_sigma f4 [1, 2]
0	0x3e9509dc	0.29109085
1	0x3dcf5a5c	0.101246566

action_model._continuous_distribution.mu.bias f4 [2]
0	0x3d6fd911	0.05855662
1	0x3eb7520f	0.35804793

action_model._continuous_distribution.mu.weight f4 [2, 64]
0	0x3ecfa7d9	0.40557745
1	0x3db77bf5	0.0895919
2	0xbee2d743	-0.44304857
3	0x3ecd7720	0.40129948
4	0x3eb04c05	0.34432998
5	0x3e57c3d6	0.21070799
6	0x3e0e7228	0.13910735
7	0xbe6f97ac	-0.23397702
8	0xbd139aac	-0.03603618
9	0xbecabd98	-0.39597774
10	0xbd407910	-0.046990454
11	0x3e3df7d1	0.18551566
12	0xbecd168c	-0.40056264
13	0xbe29383a	-0.16525355
14	0xbe2d66ef	-0.16933797
15	0xbce53011	-0.027977021
16	0xbe4fa96e	-0.20279476
17	0x3db427a5	0.08796624
18	0x3e05a4b1	0.13051106
19	0x3dbd0997	0.09230345
20	0x3d9a5eb9	0.07537598
21	0x3e7d1d8e	0.24718305
22	0xbed7fddc	-0.42185867
23	0x3e7c680d	0.24649067
24	0x3c1ca9b1	0.009561942
25	0xbed786f3	-0.42095146
26	0x3e9a4743	0.30132493
27	0xbeb70597	-0.35746452
28	0x3e0954a9	0.13411202
29	0x3e2dd6bd	0.16976447
30	0x3e4e6d6a	0.20158926
31	0x3f109093	0.564706
32	0xbebf29d9	-0.37336615
33	0x3e1dd60f	0.15413688
34	0x3e16fd4e	0.14745066
35	0x3e6329bd	0.2218389
36	0xbd4639d0	-0.048394978
37	0x3cb2daaa	0.021832783
38	0xbd7707f2	-0.06031031
39	0x3ec10a97	0.37703392
40	0xbe7769b0	-0.2416141
41	0x3d59f2cf	0.053210076
42	0x3d1c6ead	0.038191486
43	0x3e2c3aef	0.16819356
44	0x3e8abc05	0.27096573
45	0xbea1c3bb	-0.31594643
46	0x3ec359f8	0.38154578
47	0xbee00e35	-0.4376084
48	0x3e448d74	0.19194585
49	0x3ddbf910	0.10740864
50	0x3ea17b51	0.31539395
51	0x3ed25065	0.4107696
52	0xbea870f6	-0.32898682
53	0x3d068233	0.03283901
54	0xbecc95a9	-0.39957932
55	0x3d63a20b	0.055574458
56	0x3e5dbb92	0.21653584
57	0x3de6179e	0.11234973
58	0x3e462b39	0.19352426
59	0xbd3a59bb	-0.04549573
60	0x3e0d7e89	0.138178
61	0xbe851268	-0.25990605
62	0xbcf23682	-0.029567007
63	0x3e86d343	0.26333055
64	0xbeec6bd6	-0.46176022
65	0x3e021223	0.12702231
66	0x3e682460	0.22670126
67	0xbdbd14f5	-0.09232513
68	0xbe831160	-0.25599194
69	0x3e4225ba	0.18959704
70	0x3e728079	0.23681821
71	0xbf0647e8	-0.5245347
72	0x3dc3a170	0.09552276
73	0xbdb0e991	-0.08638299
74	0x3e683d90	0.22679734
75	0xbd7c0607	-0.061529186
76	0xbc69d590	-0.014272109
77	0xbed99850	-0.42499018
78	0x3db2c9b0	0.08729875
79	0xbe9d8500	-0.30765533
80	0x3e242980	0.16031456
81	0x3e2935e8	0.1652447
82	0x3e4100e1	0.18847992
83	0x3e8ee787	0.27911016
84	0x3e4f16cc	0.2022354
85	0x3d871007	0.06594854
86	0xbebf9248	-0.3741629
87	0xbe86be30	-0.26316977
88	0x3d760692	0.06006486
89	0x3ca7440c	0.02041819
90	0xbe9df21a	-0.3084877
91	0xbe4733df	-0.19453381
92	0xbef31228	-0.4747479
93	0x3dadee4b	0.084927164
94	0x3d616454	0.05502732
95	0xbea80261	-0.32814315
96	0x3dd87424	0.10569027
97	0x3e148fe0	0.14508009
98	0x3d8b0db2	0.067897215
99	0x3e3cf59c	0.18453068
100	0x3e844e5c	0.25841033
101	0xbea24ee8	-0.31700826
102	0x3dab70d2	0.08371128
103	0x3a8069fe	0.0009797213
104	0x3e169f2e	0.1470916
105	0x3e1c212b	0.15247028
106	0xbedb82bc	-0.4287318
107	0x3d08c1c4	0.033387914
108	0xbe474cec	-0.19462937
109	0xbf14dda0	-0.5815067
110	0xbe371187	-0.1787778
111	0xbe5bc42d	-0.21461554
112	0xbef636a0	-0.4808855
113	0x3d67f8ac	0.056633636
114	0x3e037f05	0.12841423
115	0xbe92412f	-0.28565356
116	0x3e94cb0c	0.29061162
117	0x3e0c27f4	0.13687116
118	0xbd0f10e3	-0.034928214
119	0x3e2468ad	0.16055556
120	0xbb694502	-0.003559411
121	0x3de3fe48	0.11132485
122	0x3e6ddd49	0.23228945
123	0xbead57be	-0.33856004
124	0x3e2c5807	0.16830455
125	0xbe8ee455	-0.2790858
126	0xbe8fa136	-0.28052682
127	0x3dfa536a	0.12222941

network_body._body_endoder.seq_layers.0.bias f4 [64]
0	0xbd8dcb9c	-0.06923601
1	0x3daf7a1a	0.08568211
2	0x3e22e76e	0.15908596
3	0x3e67001c	0.22558635
4	0x3dad6205	0.08465961
5	0x3e9981e9	0.29981926
6	0x3d96d1b8	0.073642194
7	0x3d76b3f7	0.06023022
8	0x3e26e2b6	0.16297421
9	0x3e86ef2a	0.26354343
10	0x3e7da19e	0.24768683
11	0xbcfb1938	-0.030651674
12	0x3e92f6b2	0.2870384
13	0x3c91f02a	0.017814714
14	0x3e786f61	0.24261238
15	0x3e9e35e9	0.30900505
16	0x3e79ccc1	0.24394514
17	0xbe04047d	-0.12892337
18	0x3deddeb9	0.116147466
19	0xbd78f729	-0.060782585
20	0x3eb5e5db	0.35526928
21	0x3e7d4b96	0.24735865
22	0x3e635db5	0.22203715
23	0xbd801ee1	-0.0625589
24	0x3e6f8a58	0.23392618
25	0xbe2d2939	-0.16910256
26	0x3e7f1e8b	0.24913995
27	0x3e8fd2da	0.28090554
28	0x3e9caefe	0.30602258
29	0x3e96bd1e	0.2944116
30	0x3e214020	0.15747118
31	0x3e0e5b48	0.13902009
32	0x3cdf57e7	0.027263595
33	0x3ced99b6	0.02900396
34	0x3eab1faf	0.3342261
35	0x3eab853d	0.3350009
36	0x3dd84407	0.1055985
37	0x3ea1758a	0.31534988
38	0x3e91b96f	0.28461787
39	0xbaba9962	-0.0014236385
40	0x3eaa53b4	0.33266985
41	0xbd0d42c8	-0.034487516
42	0x3e55c9dd	0.20877786
43	0x3db38534	0.08765641
44	0x3c514601	0.012773038
45	0x3e37e4fc	0.17958444
46	0x3dba36ba	0.090924695
47	0x3e9f4c7a	0.31113034
48	0x3e9b912c	0.30384195
49	0x3d974b59	0.07387418
50	0x3dde6cf3	0.10860624
51	0xbd677ea7	-0.05651727
52	0x3e5caad0	0.21549535
53	0x3e748329	0.23878159
54	0x3dbdfd94	0.09276882
55	0x3dabd90a	0.08391006
56	0x3e12ea0a	0.14347091
57	0xbcbc7e81	-0.02300954
58	0xbc26cd41	-0.010180772
59	0x3e8d7f39	0.27636126
60	0x3e0723c1	0.13197233
61	0x3e90d40f	0.28286788
62	0x3ee0b5a1	0.43888572
63	0x3cf92e05	0.030417452

network_body._body_endoder.seq_layers.0.weight f4 [64, 11]
0	0xbd27f161	-0.04100168
1	0x3e21472e	0.15749809
2	0x3d7e9981	0.06215811
3	0xbc669203	-0.014072898
4	0x3eace24a	0.33766395
5	0x3e937293	0.2879835
6	0x3f204d60	0.62618065
7	0x3e182698	0.14858472
8	0xbf03a0bb	-0.5141713
9	0xbeae9c8c	-0.3410381
10	0xbe068be1	-0.13139297
11	0x3e7dc5b2	0.24782446
12	0xbd019244	-0.03163363
13	0x3eeb3a64	0.45942986
14	0x3ee76bf9	0.45199564
15	0x3eb88fd9	0.36047247
16	0xbde04cb0	-0.10952127
17	0x3ee283e8	0.4424126
18	0x3b5a8fac	0.0033349795
19	0x3e9f8bc1	0.3116131
20	0xbf0afa0b	-0.54287785
21	0x3cbeae88	0.023276582
22	0xbc98cc86	-0.018652212
23	0xbe8f2959	-0.27961233
24	0x3ee039c5	0.43794075
25	0x3e47ea42	0.19522956
26	0xbe81f127	-0.25379297
27	0x3f32b4b0	0.6980696
28	0xbc748a0a	-0.014925489
29	0x3f0c1282	0.5471574
30	0x3f06546a	0.52472556
31	0xbe5c07d1	-0.21487357
32	0x3df0c58c	0.11756429
33	0xbce53b59	-0.0279824
34	0x3d1704d2	0.03686983
35	0xbe809f15	-0.2512137
36	0xbe983b15	-0.29732576
37	0x3d4e2d93	0.05033643
38	0xbdde120f	-0.10843288
39	0x3e9e53d0	0.3092332
40	0xbe8f86ed	-0.28032628
41	0x3f2a7fb8	0.66601133
42	0x3eac4111	0.33643392
43	0xbec894ee	-0.39176124
44	0xbf5f1820	-0.87146187
45	0xbe8539db	-0.26020703
46	0xbe60305a	-0.21893445
47	0x3e92c4bb	0.28665718
48	0xbed76286	-0.42067355
49	0xbeac372d	-0.33635846
50	0x3f1db243	0.6160013
51	0x3ee27e14	0.44236815
52	0xbe2cacca	-0.16862789
53	0x3d055c11	0.032558504
54	0xbe5de0e0	-0.21667814
55	0xbd0f28f7	-0.034951176
56	0xbe2d67a5	-0.16934069
57	0xbe996b06	-0.29964465
58	0xbe40218b	-0.18762796
59	0xbf4b2d11	-0.7936564
60	0xbe509aec	-0.20371598
61	0x3ec05bd9	0.37570074
62	0xbebe49b0	-0.37165594
63	0xbe963c07	-0.29342672
64	0xbeb84535	-0.359903
65	0xbebbf798	-0.36712337
66	0xbd9c944d	-0.07645474
67	0x3e10c31c	0.14136928
68	0x3d9d2635	0.07673303
69	0x3de608a6	0.11232118
70	0xbe4be938	-0.19913185
71	0xbf10d92f	-0.56581396
72	0x3f1eb185	0.61989623
73	0xbdef09fe	-0.11671828
74	0x3e5a2c7c	0.21306032
75	0xbf1e9075	-0.61939174
76	0x3e8348e4	0.2564155
77	0xbf09a56d	-0.53768045
78	0x3ea69fd9	0.3254383
79	0x3d8360d7	0.06414955
80	0x3ec8eaf7	0.39241764
81	0x3eb336a9	0.3500264
82	0xbda46ae4	-0.080282
83	0xbec2326c	-0.37929094
84	0xbdcb0f4b	-0.09915026
85	0x3f4178cd	0.7557495
86	0x3efa98f8	0.4894483
87	0x3ef76c02	0.4832459
88	0x3f25b17a	0.6472393
89	0x3eaf3f70	0.34228086
90	0xbf2181f2	-0.63088906
91	0xbed7cbdb	-0.42147717
92	0xbd8284f3	-0.06373014
93	0x3e1cf8ac	0.15329236
94	0xbf082112	-0.5317546
95	0xbdb210e8	-0.08694631
96	0xbe139ef1	-0.144161
97	0x3d9d2abb	0.07674166
98	0x3f3d0a29	0.7384363
99	0x3dcb0a7c	0.09914109
100	0x3e76dbc3	0.2410727
101	0x3eba3cdb	0.36374554
102	0xbec76b3d	-0.38949004
103	0x3e76d8aa	0.24106088
104	0xbee6c819	-0.45074537
105	0xbf2f2f22	-0.68431294
106	0xbd44285d	-0.047890056
107	0x3d7cf96f	0.061761316
108	0x3e827c0d	0.25485268
109	0xbeb28984	-0.3487054
110	0x3c59abfe	0.013285635
111	0xbc57a6f4	-0.013162363
112	0x3f8931c9	1.0718318
113	0xbd5f543c	-0.05452369
114	0xbed953ed	-0.42446843
115	0x3f019bbe	0.5062827
116	0xbe88b223	-0.26698408
117	0x3c60bd04	0.01371694
118	0xbe5368ae	-0.20645401
119	0xbf5d7be3	-0.8651716
120	0xbe852d61	-0.26011184
121	0xbf280238	-0.65628386
122	0x3e91547f	0.28384778
123	0xbdf483e3	-0.11939218
124	0xbf09a34d	-0.537648
125	0xbe113eea	-0.14184156
126	0xbda2e63b	-0.07954069
127	0xbf0a946b	-0.5413272
128	0x3ed76c37	0.4207475
129	0xbec684cf	-0.387732
130	0x3d62add7	0.055341568
131	0x3e289425	0.16462763
132	0x3f1840b0	0.59473705
133	0x3dbb6063	0.09149244
134	0xbdd85856	-0.10563724
135	0xbe3cd125	-0.18439157
136	0xbf4c1e16	-0.7973341
137	0xbe723943	-0.23654656
138	0x3f4e0d32	0.80488884
139	0xbdfa3327	-0.12216788
140	0x3e945c01	0.28976443
141	0xbdd676b9	-0.10471863
142	0xbec80026	-0.39062613
143	0x3dc8a346	0.09796767
144	0xbd754731	-0.059882347
145	0xbe4ff2a6	-0.20307407
146	0x3ebfae3f	0.37437627
147	0x3e8eee6d	0.2791628
148	0xbec2cad8	-0.38045382
149	0xbeba6854	-0.3640772
150	0xbc913bf8	-0.01772879
151	0xbedf8f0d	-0.43663827
152	0xbc38439c	-0.011246588
153	0xbe01fd44	-0.1269427
154	0xbe3494c9	-0.17634882
155	0xbf02e935	-0.51137096
156	0xbf4367f1	-0.76330477
157	0xbf50d50f	-0.815751
158	0x3ec03de9	0.37547234
159	0xbe14a2bb	-0.14515202
160	0xbb67f1b8	-0.0035391878
161	0xbe74ba09	-0.23899092
162	0xbe00fd1b	-0.12596552
163	0x3ed6fec7	0.41991255
164	0xbea729fb	-0.32649216
165	0x3efb6039	0.4909685
166	0x3eef6079	0.4675329
167	0xbe85ab01	-0.26107028
168	0x3e31de4b	0.17369954
169	0xbc1cbcb5	-0.009566476
170	0xbdcc4e60	-0.09975886
171	0xbead09cd	-0.3379654
172	0xbb98c83f	-0.004662543
173	0x3f1077f3	0.5643303
174	0x3d94d8ea	0.072679356
175	0xbf0504e7	-0.51960605
176	0xbe211918	-0.15732229
177	0x3f09a993	0.53774375
178	0x3ef79c70	0.4836154
179	0x3e5c7ab5	0.21531184
180	0x3e63b842	0.22238258
181	0x3e991e1b	0.2990578
182	0xbed18b86	-0.4092676
183	0x3e26e65d	0.16298814
184	0x3e1572eb	0.14594619
185	0xbeaec0c7	-0.34131452
186	0xbe568802	-0.2095032
187	0xbdd3c51a	-0.103403285
188	0xbe411dd7	-0.18859039
189	0x3ea9b9b4	0.33149493
190	0x3e4e6e7f	0.20159338
191	0x3e85867c	0.26079166
192	0x3f0da0e6	0.55323637
193	0x3f05bc6e	0.52240646
194	0x3edfa7fe	0.43682855
195	0xbe1b6e6c	-0.15178841
196	0xbf10b8f6	-0.5653223
197	0x3ed23304	0.41054547
198	0x3f1a0199	0.6015869
199	0x3efa0c31	0.48837426
200	0xbf081e8d	-0.53171617
201	0xbe470d5b	-0.19438688
202	0x3e534c38	0.20634544
203	0xbec8ed5c	-0.3924359
204	0x3eeee704	0.46660626
205	0xbcdaf621	-0.026728692
206	0xbe775b5f	-0.24155949
207	0xbe80d400	-0.25161743
208	0xbeb95757	-0.36199448
209	0xbe654fa4	-0.22393662
210	0xbe978732	-0.29595333
211	0xbec8c20a	-0.3921054
212	0xbefae745	-0.4900457
213	0xbeacb9e0	-0.3373556
214	0x3f2db1e1	0.67849547
215	0xbea5ca71	-0.32381013
216	0xbf14b3de	-0.58086956
217	0x3e3973a8	0.18110526
218	0xbdeafb6e	-0.11473738
219	0x3f3d88ba	0.74036753
220	0x3d9f4c2b	0.077782
221	0xbd9b7137	-0.075899534
222	0xbeb9f777	-0.36321613
223	0xbe6eb6b1	-0.23311879
224	0xbdb994da	-0.09061594
225	0x3f0e66ad	0.5562542
226	0x3deacecc	0.114652246
227	0xbe206212	-0.15662411
228	0xbd4492d5	-0.047991592
229	0xbe7d6335	-0.24744876
230	0xbeb3e752	-0.3513742
231	0xbeaf450b	-0.34232363
232	0x3ea48600	0.32133484
233	0xbedddef2	-0.43334156
234	0x3ef3c5dd	0.47611895
235	0x3f92bb90	1.146349
236	0xbe774224	-0.24146324
237	0xbf13ff14	-0.57811093
238	0x3db1c897	0.086808376
239	0x3e0809ad	0.13284941
240	0x3ea0a9cc	0.31379545
241	0x3ec33371	0.38125184
242	0x3f1eae62	0.6198484
243	0x3f3e275b	0.742788
244	0xbe9232e7	-0.2855446
245	0xbe86ab9e	-0.2630281
246	0xbe968df0	-0.29405165
247	0xbe1f1ed9	-0.15539111
248	0xbf9c22ad	-1.2198082
249	0xbf532688	-0.8248067
250	0x3db5ae5f	0.08871149
251	0x3e656de7	0.22405206
252	0x3ea35d18	0.31906962
253	0xbd803aa7	-0.06261187
254	0x3e8176d8	0.25285983
255	0xbe9f3f46	-0.3110296

network_body._body_endoder.seq_layers.2.bias f4 [64]
0	0xbda644eb	-0.08118614
1	0x3e458a79	0.19291104
2	0x3e3d9530	0.18513942
3	0xbdf143b4	-0.117804915
4	0x3c8da821	0.017292084
5	0x3ebac0bc	0.3647517
6	0x3e952fa4	0.2913791
7	0xbd7437e6	-0.05962362
8	0x3e46c1cf	0.1940987
9	0xbe3187be	-0.17336938
10	0x3e3e5f0a	0.18590942
11	0x3d911e69	0.070858784
12	0xbd55f4e2	-0.05223549
13	0xbe89d8e9	-0.26923302
14	0x3da00b5e	0.07814668
15	0xbe993b9d	-0.29928294
16	0x3dc014d4	0.09378973
17	0x3ebb7b8a	0.3661769
18	0x3e8f57d4	0.27996695
19	0x3e9d6e9a	0.30748445
20	0x3e8d2168	0.2756455
21	0x3e6a173e	0.22860429
22	0xbe288e7b	-0.16460602
23	0xbe17fbf7	-0.1484221
24	0x3df75b24	0.120779306
25	0xbd9a283a	-0.07527204
26	0xbd5938b1	-0.05303258
27	0xbe8e8e25	-0.27842823
28	0xbe3bd3e5	-0.1834255
29	0x3e6d0b3e	0.2314882
30	0x3e5da826	0.21646175
31	0xbdb12233	-0.08649101
32	0x3d64f426	0.0558969
33	0x3e5a0381	0.21290399
34	0x3e41fd09	0.18944182
35	0x3e699290	0.22809815
36	0x3e371a94	0.17881233
37	0xbe84201c	-0.25805748
38	0x3dd03fe8	0.10168439
39	0xbe18e1d4	-0.14929897
40	0x3dc843f4	0.09778586
41	0x3e56fd55	0.20995076
42	0xbe441b28	-0.19150984
43	0x3da5b1a9	0.080905266
44	0xbdb35cb9	-0.0875792
45	0xbdceba83	-0.10094168
46	0xbd48f36e	-0.049060278
47	0xbe4cd6b7	-0.20003782
48	0xbe5a6178	-0.21326244
49	0x3e5e79ec	0.21726197
50	0x3e8fd6ed	0.28093663
51	0xbe363649	-0.17794146
52	0x3e1f832a	0.15577379
53	0x3e7dcfa6	0.24786243
54	0xbd812659	-0.06306142
55	0x3ea9aa7c	0.33137882
56	0x3dc5fe8b	0.09667691
57	0x3e5fe93c	0.21866316
58	0x3e9919a1	0.29902366
59	0xbe8eee93	-0.27916393
60	0x3eb0844b	0.34475932
61	0xbe544eb1	-0.20733143
62	0xbe19e711	-0.15029551
63	0x3eacc8a4	0.33746827

network_body._body_endoder.seq_layers.2.weight f4 [64, 64]
0	0xbdf80cd9	-0.121118255
1	0xbf0a0be3	-0.5392439
2	0x3c33be9f	0.010970741
3	0xbd91ce20	-0.07119393
4	0x3c83bec1	0.01608217
5	0xbe979d1d	-0.29612055
6	0xbecab472	-0.39590794
7	0xbd54755a	-0.051869728
8	0x3eeb20e4	0.4592353
9	0xbe84450b	-0.25833926
10	0xbe258ae9	-0.16166271
11	0x3a11f7e1	0.0005568248
12	0xbe510bdb	-0.20414679
13	0xbddf1a62	-0.10893704
14	0xbd5a4aff	-0.053294178
15	0x3e30d5e7	0.17269097
16	0x3dab8a9e	0.083760485
17	0xbe0db470	-0.13838363
18	0xbe8ce249	-0.27516392
19	0x3c42811e	0.011871604
20	0x3e0bcb53	0.13651781
21	0x3d81ef8d	0.06344519
22	0x3ea0749f	0.31338975
23	0x3dea7749	0.11448533
24	0xbd91a9a6	-0.07112436
25	0x3daeca2c	0.08534655
26	0xbe5dbe98	-0.21654737
27	0xbd8d6b68	-0.06905252
28	0xbe8484e9	-0.25882652
29	0xbe70955f	-0.2349448
30	0xbe1a39bc	-0.15061086
31	0x3d6280da	0.055298664
32	0x3db62c90	0.08895218
33	0x3c1ef372	0.009701597
34	0x3d1bc6bf	0.038031336
35	0xbe43bdb1	-0.1911533
36	0xbed577c6	-0.41692942
37	0x3e642baf	0.22282289
38	0xbdeccd19	-0.11562557
39	0x3e04e7e0	0.12979078
40	0x3dedd821	0.11613489
41	0x3e48655c	0.19569916
42	0xbee62ca5	-0.44955936
43	0xbdd8834a	-0.105719164
44	0xbe3eed30	-0.18645167
45	0xbe8256f9	-0.2545698
46	0xbe40dca7	-0.18834172
47	0xbe6dd2e3	-0.23224978
48	0xbd06cf31	-0.032912437
49	0x3ed6ef64	0.41979516
50	0x3df4e89f	0.119584315
51	0xbe1816dd	-0.14852472
52	0xbf012ca3	-0.50458735
53	0xbe6c1ef6	-0.23058686
54	0x3ceeb581	0.029139282
55	0xbe86e26e	-0.26344627
56	0xbda98e34	-0.08279076
57	0xbd754e5e	-0.05988919
58	0x3e82b135	0.25525823
59	0xbf0fd619	-0.5618606
60	0xbe92ea7e	-0.28694528
61	0x3d7d2da7	0.061811116
62	0xbe549b7f	-0.20762442
63	0x3d88c0fb	0.06677433
64	0x3dc4f4f5	0.09617034
65	0xbe90cc5e	-0.2828092
66	0x3df62e6b	0.12020572
67	0x3ba76208	0.005108122
68	0x3e3fe0ad	0.18738051
69	0x3ec71c9c	0.38889015
70	0x3e404ef7	0.18780123
71	0xbe1c1ffd	-0.15246578
72	0xbdf33cfb	-0.118768655
73	0xbda2cbaf	-0.07949006
74	0xbe0c6032	-0.1370857
75	0xbe7e713c	-0.24847883
76	0x3e0c91e0	0.13727522
77	0x3e43ab5e	0.1910834
78	0xbd39289e	-0.04520475
79	0x3d9920b5	0.074769415
80	0xbe8226a0	-0.25420094
81	0x3d6e2875	0.05814405
82	0x3e0b8ee4	0.13628727
83	0xbe68b70c	-0.22726077
84	0x3e149777	0.14510904
85	0xbe3b1ddd	-0.1827311
86	0x3dc7bb4d	0.09752522
87	0xbe4bc9ba	-0.19901171
88	0xbd946436	-0.07245676
89	0xbdfdcd77	-0.12392705
90	0xbeeeb9cc	-0.46626127
91	0x3ebab98c	0.36469686
92	0xbe39e222	-0.18152669
93	0x3e2201d2	0.15821007
94	0x3e170e0d	0.14751454
95	0xbdfbae30	-0.12289083
96	0xbe35de6f	-0.17760633
97	0x3e188f62	0.14898446
98	0x3d3391aa	0.043840088
99	0x3d7ee543	0.06223036
100	0xba72b2e5	-0.0009258225
101	0x3e2eb60b	0.17061631
102	0x3d866cb9	0.06563706
103	0xbdfe6e93	-0.12423434
104	0xbe1040f2	-0.14087275
105	0xbe2563f7	-0.16151415
106	0x3e8515c6	0.25993174
107	0xbe114e72	-0.14190081
108	0xbcc7d3eb	-0.024393043
109	0xbdf89aa0	-0.121388674
110	0x3e1d6503	0.15370564
111	0xbeaf9edb	-0.34300885
112	0x3e2086e1	0.15676452
113	0x3bd81a39	0.006594923
114	0x3b9010be	0.004396527
115	0xbe5944c7	-0.21217643
116	0x3e8b810a	0.27246886
117	0x3e8b7168	0.2723496
118	0x3cfe8c06	0.031072628
119	0x3d47cd40	0.048779726
120	0x3dd3420d	0.103153326
121	0xbe39670e	-0.18105718
122	0x3dc16398	0.09442824
123	0x3ebd7fca	0.37011558
124	0xbde78e60	-0.11306453
125	0x3d11aa70	0.035562932
126	0xbdc8fcb7	-0.098138265
127	0x3c8e07cd	0.017337704
128	0xbe3039cf	-0.17209552
129	0xbe977b50	-0.29586267
130	0x3ea31027	0.3184826
131	0x3cf81dae	0.03028759
132	0x3ee550e7	0.44788286
133	0xbdd2c8bd	-0.10292194
134	0xbdfe057c	-0.1240339
135	0x3aae51ff	0.0013299583
136	0x3eafcf1a	0.34337693
137	0x3eb7d684	0.3590585
138	0xbf01cd44	-0.50703835
139	0x3de4ded0	0.111753106
140	0xbf17ef29	-0.59349304
141	0xbd808722	-0.062757745
142	0x3e406f3e	0.18792436
143	0x3d976bef	0.073936336
144	0xbf39fe9d	-0.72654134
145	0xbcd931d8	-0.026513025
146	0xbec9cd95	-0.3941466
147	0x3e715f33	0.23571472
148	0x3da0137c	0.07816216
149	0xbe3ce53d	-0.18446822
150	0x3e66ce63	0.22539668
151	0xbea6a8e7	-0.32550737
152	0x3d1b7b04	0.037959114
153	0xbe3cf3b5	-0.18452342
154	0xbc4069e2	-0.011743994
155	0xbea2a92a	-0.31769687
156	0x3ebb0d86	0.36533755
157	0x3b3c8328	0.0028764699
158	0x3eb1c770	0.3472247
159	0xbdd944d5	-0.10608832
160	0xbe930125	-0.2871181
161	0x3eadca9b	0.33943638
162	0xbd323ce9	-0.04351512
163	0xbe1f23ca	-0.15540996
164	0xbd363b0d	-0.04448991
165	0x3dcc74fc	0.099832505
166	0x3e5394ee	0.20662281
167	0xbe5b9a35	-0.21445544
168	0xbebd3b7c	-0.36959445
169	0x3e676e33	0.22600631
170	0x3e7ce3ed	0.24696322
171	0xbe851c71	-0.25998262
172	0xbe5b5deb	-0.21422546
173	0x3e4e005b	0.20117323
174	0xbc8ee840	-0.01744473
175	0xbd35b100	-0.044358253
176	0x3e11a353	0.1422246
177	0x3e7e2568	0.24818957
178	0x3e39ebde	0.18156382
179	0x3d0b21d8	0.033967823
180	0x3e998911	0.29987386
181	0x3eac9a5f	0.33711526
182	0xbd195506	-0.0374346
183	0xbcfcd548	-0.03086342
184	0xbe2a5661	-0.16634513
185	0xbe9f3ee8	-0.3110268
186	0x3e1e7ec6	0.15478048
187	0xbdd89e87	-0.10577112
188	0xbc1d3204	-0.009594444
189	0xbd0402c2	-0.032229193
190	0xbe87d273	-0.26527748
191	0xbf02eaa5	-0.5113929
192	0x3e284e81	0.16436197
193	0x3e36f2a2	0.17865995
194	0xbeb886d0	-0.36040354
195	0x3e8fc188	0.2807734
196	0xbe9f9646	-0.31169337
197	0xbe8d7d41	-0.27634624
198	0xbd424d01	-0.047436718
199	0x3d8c40dc	0.068483084
200	0x3e48b582	0.1960049
201	0x3cb1fa65	0.021725843
202	0xbe24da38	-0.16098869
203	0x3e906132	0.28199154
204	0xbdc904f5	-0.098153986
205	0x3dbb3529	0.09140999
206	0x3df9b5f7	0.1219291
207	0x3c541bf4	0.012946118
208	0xbdb06f10	-0.086149335
209	0xbe936884	-0.28790677
210	0x3ea018fc	0.31269062
211	0xbe1529da	-0.14566746
212	0xbe26305a	-0.16229382
213	0x3edff8cc	0.43744504
214	0xbcc45d4f	-0.023970274
215	0x3ead2c78	0.3382299
216	0xbe2ca0c4	-0.16858202
217	0xbe5c8e0a	-0.21538559
218	0x3d804e04	0.0626488
219	0xbd2bf629	-0.041982803
220	0x3df6177e	0.120161995
221	0x3e440e66	0.19146118
222	0xbf0f431f	-0.55961794
223	0x3e090b16	0.13383135
224	0xbd93137a	-0.07181449
225	0xbe8f7aac	-0.2802328
226	0x3e839956	0.25702924
227	0xbdc41438	-0.09574169
228	0x3e209850	0.15683103
229	0x3d4f3e22	0.050596364
230	0xbef8dc34	-0.48605502
231	0x3dedc6d1	0.11610187
232	0xbda72aaf	-0.08162438
233	0xbda98af4	-0.08278456
234	0xbec56f94	-0.3856169
235	0xbdcfc789	-0.1014548
236	0xbe819a77	-0.2531316
237	0x3da349a2	0.07973029
238	0x3eb2dd9c	0.349347
239	0xbe82d89a	-0.2555588
240	0xbab89b14	-0.0014084303
241	0xbe82c5b1	-0.25541452
242	0xbec9635f	-0.39333627
243	0xbda48b22	-0.0803435
244	0xbd50bf14	-0.050963476
245	0x3da44174	0.08020297
246	0xbe3f9713	-0.18709974
247	0x3db9ae14	0.09066406
248	0x3e28f0da	0.16498128
249	0xbbfe7745	-0.007765683
250	0xbe88dc24	-0.26730454
251	0xbe371fcb	-0.17883222
252	0x3e5dcb2e	0.21659538
253	0xbf01ab66	-0.5065216
254	0x3e0476fa	0.12936011
255	0x3e27365a	0.16329327

network_body.observation_encoder.processors.0.normalizer.running_mean f4 [11]
0	0xc19a6ecf	-19.304106
1	0x4292af74	73.34268
2	0x41bf6f6a	23.929401
3	0x3c92f8d8	0.017940924
4	0xbdacf444	-0.084450275
5	0x3ce53f9e	0.027984437
6	0xbd224bf8	-0.03962323
7	0xc18e5f7b	-17.796621
8	0x42861e53	67.05923
9	0x41b82f0f	23.022978
10	0x3e0a9322	0.13532689
