Assets/ML BRAINS/BrainNoCrash.onnx (onnx, 22556 bytes, 9 tensors)

50 f4 [11]
0	0x430844f7	136.2694
1	0x4298098b	76.01864
2	0x430dec9d	141.92427
3	0x3edacb25	0.42733112
4	0x3f0893f4	0.5335076
5	0x3effd5a1	0.49967673
6	0x3f066e75	0.52512294
7	0x43004a46	128.29013
8	0x425ecec7	55.70193
9	0x43071adc	135.10492
10	0x3f1c33d2	0.6101657

action_model._continuous_distribution.log_sigma f4 [1, 2]
0	0x3d02ba3f	0.0319159
1	0xbe07bcff	-0.1325569

action_model._continuous_distribution.mu.bias f4 [2]
0	0x3d5b2472	0.053501554
1	0x3ede2d97	0.43394157

action_model._continuous_distribution.mu.weight f4 [2, 64]
0	0x3ed6fc39	0.41989306
1	0x3da2bed8	0.07946557
2	0xbefc6f72	-0.49303776
3	0x3ee92a70	0.4554019
4	0x3ece4764	0.40288842
5	0x3e54fc18	0.20799291
6	0x3e011bec	0.12608308
7	0xbe18e895	-0.14932473
8	0xbd21e198	-0.039521784
9	0xbf05620d	-0.5210274
10	0xbdbe45a5	-0.092906274
11	0x3e410252	0.18848541
12	0xbefd6a0c	-0.4949497
13	0xbdf1bea0	-0.11803937
14	0xbe4421bc	-0.19153494
15	0x3c368e2e	0.011142297
16	0xbe76fcd2	-0.24119881
17	0x3d987d13	0.07445731
18	0x3e1027c1	0.14077665
19	0x3dc0eb5c	0.09419891
20	0x3d6ea136	0.05825921
21	0x3e9021a9	0.2815068
22	0xbf11ad1e	-0.5690478
23	0x3eb5f844	0.35540974
24	0xbd17d0cf	-0.03706437
25	0xbf0d76d3	-0.55259436
26	0x3ed15868	0.4088776
27	0xbede906f	-0.4346957
28	0x3e56d7fd	0.2098083
29	0x3e24da18	0.16098821
30	0x3e40c931	0.18826748
31	0x3f273bc7	0.6532559
32	0xbee49028	-0.44641232
33	0x3e1193d2	0.14216545
34	0x3e054f51	0.13018538
35	0x3e711f5b	0.23547117
36	0xbd08f0ed	-0.03343289
37	0xbd89474a	-0.067030504
38	0xbcfea890	-0.031086236
39	0x3ec6417f	0.38721845
40	0xbe99d1ae	-0.30042785
41	0x3ce9dbec	0.02854725
42	0x3d5bb0b4	0.053635314
43	0x3e24db87	0.16099368
44	0x3e4dae35	0.20085986
45	0xbe8aecf9	-0.2713392
46	0x3efadb3c	0.48995388
47	0xbefddcc2	-0.49582487
48	0x3e762d84	0.240408
49	0x3df74d3c	0.12075278
50	0x3e9cd071	0.30627778
51	0x3f0e3ce9	0.5556169
52	0xbebbe3b2	-0.36697155
53	0x3ca85de9	0.020552592
54	0xbeec5be6	-0.46163863
55	0x3d222615	0.0395871
56	0x3e5d196f	0.21591733
57	0x3de7a1f5	0.11310188
58	0x3e4091b4	0.18805581
59	0x3e367753	0.17818956
60	0x3debd7c9	0.11515767
61	0xbe8d3114	-0.27576506
62	0x3b0f56b8	0.0021871757
63	0x3e92332f	0.28554675
64	0xbf063871	-0.5242987
65	0x3e2dba77	0.16965662
66	0x3e6be154	0.23035175
67	0xbdbd7a7f	-0.0925188
68	0xbe8f22a2	-0.2795611
69	0x3e3502e1	0.1767688
70	0x3e689909	0.22714628
71	0xbf1676fd	-0.5877531
72	0x3dea18a4	0.11430481
73	0xbddd332f	-0.10800778
74	0x3e832325	0.2561275
75	0x3b13f74e	0.0022577825
76	0xbcc5d7ac	-0.024150692
77	0xbeff7781	-0.49895862
78	0x3df26dc7	0.118373446
79	0xbebe7adf	-0.37203118
80	0x3e332ebe	0.174983
81	0x3e24ad1d	0.16081662
82	0x3e457ced	0.19285937
83	0x3e78e99a	0.24307862
84	0x3e812ecd	0.2523102
85	0x3d078e7a	0.03309486
86	0xbeb4ed94	-0.35337508
87	0xbeaeeafd	-0.34163657
88	0x3dcf46d3	0.101209305
89	0x3d4ec207	0.050478008
90	0xbea4934e	-0.32143635
91	0xbe5e4e85	-0.2170964
92	0xbf03123a	-0.51199687
93	0x3dd647e7	0.10462933
94	0x3dae933c	0.085241765
95	0xbe97d301	-0.2965317
96	0x3e08e0cb	0.13367002
97	0x3dcf8969	0.10133631
98	0x3d11f288	0.035631686
99	0x3e4b6d21	0.19865848
100	0x3e4feb65	0.2030464
101	0xbeb4bbe0	-0.35299587
102	0x3cee9583	0.029124027
103	0x3e0c3593	0.13692312
104	0x3e23f5cb	0.16011731
105	0x3db9b681	0.09068013
106	0xbeef0b51	-0.4668832
107	0xbbb36d10	-0.0054756477
108	0xbe3c4412	-0.18385342
109	0xbf1d527d	-0.6145399
110	0xbdec735c	-0.115454406
111	0xbe4bdd66	-0.19908676
112	0xbf12515d	-0.571554
113	0x3d34c606	0.044134162
114	0x3df7684d	0.12080441
115	0xbe577f93	-0.2104476
116	0x3e7b7596	0.24556574
117	0x3e154067	0.14575349
118	0xbde5773f	-0.11204385
119	0x3e1f8cf0	0.15581107
120	0x3c8d767d	0.017268414
121	0x3d85cc3e	0.06533097
122	0x3e637e0e	0.22216055
123	0xbec3a91a	-0.38214952
124	0x3e3cddeb	0.1844403
125	0xbebdcfef	-0.37072703
126	0xbe88ad67	-0.26694795
127	0x3e317876	0.17331108

network_body._body_endoder.seq_layers.0.bias f4 [64]
0	0xbd36acd5	-0.04459842
1	0x3d9e38cc	0.07725677
2	0x3e419854	0.18905765
3	0x3e4b8ae6	0.19877204
4	0x3de0512f	0.109529845
5	0x3ea1104b	0.31457743
6	0x3d81945a	0.06327124
7	0x3dbcea1d	0.09224341
8	0x3e146726	0.14492473
9	0x3e803b8c	0.2504543
10	0x3e9424c2	0.28934294
11	0xbb0e0a3a	-0.0021673576
12	0x3e8c072b	0.2734922
13	0x3bd03811	0.00635434
14	0x3e25d421	0.16194202
15	0x3e96dff2	0.29467732
16	0x3e723982	0.2365475
17	0xbdcf8b58	-0.101339996
18	0x3dc4c6ac	0.09608206
19	0xbe26137e	-0.16218373
20	0x3eb024ed	0.34403172
21	0x3e575165	0.21027143
22	0x3e5fd66e	0.21859142
23	0xbdd78c51	-0.1052481
24	0x3e614151	0.21997572
25	0xbe03c58b	-0.12868325
26	0x3e887343	0.26650438
27	0x3e9e7bc5	0.30953804
28	0x3e8b3daf	0.27195498
29	0x3e954cbf	0.29160115
30	0x3e39aed8	0.18133104
31	0x3e1adc1f	0.15123032
32	0x3d75e5cd	0.06003361
33	0xbc6d0448	-0.014466353
34	0x3ea8ed6c	0.3299364
35	0x3e97e5d3	0.2966753
36	0x3cc6c2f1	0.024262877
37	0x3e972fc0	0.29528618
38	0x3e9690c1	0.29407313
39	0xbd562a66	-0.052286528
40	0x3e8fbc31	0.28073266
41	0xbd849ecd	-0.06475601
42	0x3e6cf68b	0.23140924
43	0x3e0ed4df	0.13948391
44	0xbc1cb1e3	-0.009563896
45	0x3e19a12b	0.15002887
46	0x3d9de36e	0.077093944
47	0x3eb0d753	0.3453928
48	0x3ea96069	0.33081368
49	0x3cc6d102	0.024269585
50	0x3d245b7b	0.040126305
51	0xbd1e1bea	-0.03860084
52	0x3e5039f3	0.20334606
53	0x3e6460f9	0.22302617
54	0x3cafa4bc	0.021440856
55	0x3d8469dd	0.06465504
56	0x3e0813a7	0.13288747
57	0xbd49fd55	-0.049313862
58	0xbd40341c	-0.046924695
59	0x3ea11a98	0.31465602
60	0x3dc4377e	0.09580897
61	0x3e65d3dd	0.224441
62	0x3ecd54ee	0.4010386
63	0x3d454fad	0.048171688

network_body._body_endoder.seq_layers.0.weight f4 [64, 11]
0	0x3c64bbc6	0.013960784
1	0x3e1b1ffc	0.1514892
2	0x3df5eee5	0.12008456
3	0x3beaa707	0.0071610245
4	0x3ea15a81	0.31514362
5	0x3ec5d50b	0.386391
6	0x3f2b82c0	0.66996384
7	0x3de6b17c	0.11264321
8	0xbf09354b	-0.53596944
9	0xbea2fcda	-0.31833535
10	0xbe11606b	-0.14196937
11	0x3e292270	0.16517043
12	0xbe0707ba	-0.13186541
13	0x3f1252e7	0.5715775
14	0x3f04f3c8	0.5193448
15	0x3ea3d7d1	0.32000592
16	0xbddef2c8	-0.108861506
17	0x3edd7a36	0.43257302
18	0xbd87eb68	-0.06636697
19	0x3ed373c3	0.41299257
20	0xbef0b9b0	-0.47016668
21	0x3d0107cd	0.03150158
22	0xbd1d21fa	-0.03836248
23	0xbec4c4ab	-0.38431296
24	0x3ed1b1cc	0.4095596
25	0x3e6267c2	0.22109893
26	0xbe88281e	-0.26593107
27	0x3f32abbf	0.69793314
28	0x3d0b99f6	0.034082375
29	0x3f0c7102	0.54859936
30	0x3f17d92c	0.59315753
31	0xbe958cee	-0.29209083
32	0x3e1a4202	0.15064242
33	0xbcf574f5	-0.029962996
34	0x3dabf0aa	0.083955124
35	0xbe8fbc01	-0.28073123
36	0xbe92d489	-0.28677776
37	0x3d5a4583	0.053288948
38	0xbe1196b2	-0.14217642
39	0x3eb54bb5	0.35409322
40	0xbe8e26e8	-0.27764058
41	0x3f32d960	0.6986294
42	0x3e8ffd5c	0.28122985
43	0xbef1f82a	-0.47259647
44	0xbf5a76c5	-0.8533748
45	0xbeb35c8a	-0.3503154
46	0xbe76d9d9	-0.2410654
47	0x3e939225	0.28822437
48	0xbedc0854	-0.42975104
49	0xbea5e6e7	-0.32402727
50	0x3f2c72b0	0.673625
51	0x3f1ce3d2	0.61285126
52	0xbd845887	-0.06462198
53	0x3c465a1c	0.012106445
54	0xbe88bc17	-0.26706
55	0x3b1bd543	0.0023778237
56	0xbe365d65	-0.17809065
57	0xbe91398b	-0.28364214
58	0xbe1803f5	-0.1484526
59	0xbf42a7a2	-0.7603704
60	0xbe547357	-0.20747124
61	0x3eebfdc1	0.46092036
62	0xbebed361	-0.37270644
63	0xbe92a9a9	-0.28645065
64	0xbeb0cb08	-0.345299
65	0xbee8e335	-0.45485845
66	0xbdc099f3	-0.094043635
67	0x3df23cde	0.11828016
68	0x3e2c7811	0.16842677
69	0x3e2d030c	0.16895694
70	0xbe7b602b	-0.24548404
71	0xbf007ee3	-0.50193614
72	0x3f2abd96	0.66695535
73	0xbdd8aacd	-0.10579453
74	0x3e7e7c78	0.24852169
75	0xbf058388	-0.52153826
76	0x3ea6cb6a	0.32577068
77	0xbf09393a	-0.53602946
78	0x3e7514d0	0.2393372
79	0x3c30b850	0.010786131
80	0x3eca7569	0.39542702
81	0x3eae319a	0.34022218
82	0xbd9d7ab7	-0.076894216
83	0xbe939a28	-0.2882855
84	0xbcfebad7	-0.031094952
85	0x3f464eed	0.7746418
86	0x3eeecfd0	0.46642923
87	0x3efb10e2	0.49036318
88	0x3f2b4447	0.6690106
89	0x3ed62c95	0.41830888
90	0xbf15ca11	-0.58511454
91	0xbef23e26	-0.4731304
92	0xbc83a4f5	-0.016069869
93	0x3dc928f9	0.09822268
94	0xbf05dc98	-0.52289724
95	0xbdb85335	-0.090002455
96	0xbe2580cd	-0.16162415
97	0x3e0f2da7	0.13982259
98	0x3f44f9ff	0.76943964
99	0x3dce3722	0.100691095
100	0x3e6757a8	0.22592032
101	0x3edd8179	0.43262842
102	0xbedecdb7	-0.43516323
103	0x3e740b53	0.23832445
104	0xbeeaeb3a	-0.4588259
105	0xbf299700	-0.6624603
106	0xbd598839	-0.053108428
107	0x3de38426	0.1110919
108	0x3e61825f	0.22022389
109	0xbe957c8c	-0.29196584
110	0x3db0fe50	0.08642256
111	0x3c29d9f5	0.010366906
112	0x3f91378a	1.1345074
113	0xbd942a20	-0.07234597
114	0xbecf7fbf	-0.4052715
115	0x3f14a546	0.5806469
116	0xbe7399d3	-0.23789148
117	0xbc8c4b31	-0.017125698
118	0xbead14d7	-0.33804962
119	0xbf6d6e33	-0.92746276
120	0xbe5922d8	-0.21204698
121	0xbf35a439	-0.7095371
122	0x3eac0320	0.33596134
123	0xbde1d566	-0.11027031
124	0xbf187418	-0.59552145
125	0xbe519c67	-0.20469819
126	0x3a777aef	0.0009440621
127	0xbf1e9a2c	-0.61954
128	0x3f03627c	0.5132215
129	0xbe97aa25	-0.29621997
130	0x3d6146e6	0.054999255
131	0x3e04cec3	0.12969498
132	0x3f17e3ee	0.5933217
133	0x3db28de3	0.08718469
134	0xbd463c3f	-0.0483973
135	0xbe01e1cc	-0.12683791
136	0xbf50da58	-0.81583166
137	0xbe7f8307	-0.24952327
138	0x3f625ac7	0.88419765
139	0xbe357695	-0.17721017
140	0x3e879c1c	0.2648629
141	0xbd8d9d58	-0.069147766
142	0xbeda7081	-0.4266396
143	0x3d686fe2	0.056747325
144	0x3cf6c1ee	0.03012177
145	0xbe37e46f	-0.17958234
146	0x3ec4e4f9	0.38455942
147	0x3e3d1084	0.18463331
148	0xbe8d51f9	-0.27601603
149	0xbebc5af4	-0.36788142
150	0xbd7b2c24	-0.061321393
151	0xbef65e70	-0.48118925
152	0xbd3954cb	-0.04524688
153	0xbe084b1b	-0.133099
154	0xbe1c35a0	-0.15254831
155	0xbed246f8	-0.4106977
156	0xbf394532	-0.7237121
157	0xbf4eebcf	-0.80828565
158	0x3e931b85	0.28731933
159	0xbdfc328a	-0.12314327
160	0x3d3e2576	0.046422444
161	0xbe11e28f	-0.14246581
162	0xbdc285f8	-0.09498209
163	0x3edd7f5a	0.43261224
164	0xbe62d147	-0.22150145
165	0x3ee5304c	0.4476341
166	0x3f037d8a	0.5136343
167	0xbe8e6329	-0.27810028
168	0x3e47ad8d	0.19499798
169	0x3cc85061	0.02445239
170	0xbe035997	-0.12827145
171	0xbe826671	-0.25468782
172	0xbdae5a22	-0.08513285
173	0x3f0b6425	0.54449683
174	0xbcbf9d65	-0.023390481
175	0xbf234ca0	-0.63788795
176	0xbe2d962b	-0.16951816
177	0x3f07cf22	0.53050435
178	0x3f0b6fa9	0.54467255
179	0x3e7381ca	0.2377998
180	0x3e809a75	0.2511784
181	0x3eb2025e	0.3476743
182	0xbebd71c7	-0.37000868
183	0x3da698d7	0.08134621
184	0x3cf121e4	0.029435106
185	0xbeb0356b	-0.34415755
186	0xbe49e07c	-0.1971454
187	0xbe2af2bb	-0.16694157
188	0xbeba9466	-0.36441344
189	0x3eb57ebf	0.35448262
190	0x3e785bb5	0.24253733
191	0x3e7df96c	0.24802178
192	0x3f051560	0.5198574
193	0x3f179ef4	0.5922692
194	0x3ed58a3f	0.41707036
195	0xbd93bd7c	-0.07213876
196	0xbf155e01	-0.58346564
197	0x3ebe91b7	0.37220547
198	0x3f05f1e2	0.5232221
199	0x3f08914c	0.53346705
200	0xbefff716	-0.499932
201	0xbe3a780c	-0.18209857
202	0x3e3d1d5d	0.18468232
203	0xbeae6a4f	-0.34065482
204	0x3f028f30	0.50999737
205	0xbdc3a6fc	-0.09553334
206	0xbe3e2fad	-0.18572874
207	0xbe7af729	-0.24508347
208	0xbef46534	-0.47733462
209	0xbe847cd2	-0.2587648
210	0xbeb7489e	-0.3579759
211	0xbed1b6f6	-0.409599
212	0xbecbf81e	-0.39837736
213	0xbed7fd70	-0.42185545
214	0x3f28e87c	0.65979743
215	0xbe80bf9b	-0.25146183
216	0xbf286548	-0.6577954
217	0x3e9c9afe	0.30587
218	0xbdb2646a	-0.08710559
219	0x3f375c69	0.7162538
220	0x3e2b6cf7	0.16740786
221	0xbdb55ccf	-0.088555925
222	0xbeb28c20	-0.34872532
223	0xbe38bd64	-0.18040997
224	0xbdc44097	-0.09582632
225	0x3f14204e	0.57861793
226	0x3e34370a	0.1759912
227	0xbe051ddd	-0.12999673
228	0xbd873fa9	-0.06603939
229	0xbe8d2b7f	-0.27572247
230	0xbecd15e7	-0.40055773
231	0xbec2001d	-0.3789071
232	0x3ed9c775	0.42534986
233	0xbed85b77	-0.42257282
234	0x3ef22f90	0.47301912
235	0x3f8f5805	1.1198736
236	0xbe6947f0	-0.22781348
237	0xbf1457c0	-0.57946396
238	0x3d89ba99	0.06725044
239	0x3db8724e	0.09006177
240	0x3e9cec9e	0.30649275
241	0x3ed58450	0.4170251
242	0x3f2f55a4	0.6849005
243	0x3f3b267e	0.7310561
244	0xbe66a262	-0.22522882
245	0xbe926d1c	-0.2859887
246	0xbea3daee	-0.32002968
247	0xbe2736e6	-0.16329536
248	0xbfa66869	-1.3000613
249	0xbf54b793	-0.8309261
250	0x3d080ea5	0.03321709
251	0x3e90f0dc	0.2830876
252	0x3eb506c8	0.35356736
253	0xba3e6b9b	-0.0007263959
254	0x3e92ddb3	0.28684768
255	0xbe7404be	-0.23829934

network_body._body_endoder.seq_layers.2.bias f4 [64]
0	0xbd872367	-0.06598549
1	0x3e5396ee	0.20663044
2	0x3e4bb56b	0.19893424
3	0xbdf86d30	-0.12130201
4	0x3cb3540d	0.021890664
5	0x3ec7010c	0.38867986
6	0x3eb19694	0.34685194
7	0xbdcd73df	-0.10031866
8	0x3e4f8060	0.20263815
9	0xbe2172e6	-0.15766487
10	0x3e570261	0.20997001
11	0x3d0143e7	0.031558897
12	0xbce57857	-0.028011484
13	0xbe6688a9	-0.22513069
14	0x3d97f912	0.07420553
15	0xbeaa4b38	-0.33260512
16	0x3e0e088e	0.13870451
17	0x3ed3626d	0.4128603
18	0x3e95cfde	0.29260153
19	0x3eb788f1	0.35846666
20	0x3ea8b538	0.3295076
21	0x3e5ef132	0.21771696
22	0xbe304c2a	-0.17216554
23	0xbe188f21	-0.1489835
24	0x3dec3834	0.115341574
25	0xbd9c33a7	-0.076270394
26	0xbd6734e4	-0.056446925
27	0xbe8aec0b	-0.27133211
28	0xbe2e2d70	-0.1700952
29	0x3e49f38a	0.19721809
30	0x3e357e6e	0.1772401
31	0xbd969862	-0.073532835
32	0x3da6ad83	0.081385635
33	0x3e5d5e79	0.2161807
34	0x3e23b1d3	0.15985803
35	0x3e6e29e5	0.23258169
36	0x3e302936	0.1720322
37	0xbeae1414	-0.33999693
38	0x3dafa0e5	0.0857561
39	0xbe1a2723	-0.15053992
40	0x3e0199b2	0.12656286
41	0x3e5d7f95	0.216307
42	0xbe3ab339	-0.1823243
43	0x3d436759	0.047705982
44	0xbe23014e	-0.15918466
45	0xbe28c406	-0.16481027
46	0xbd40bd01	-0.04705525
47	0xbe5de74b	-0.21670263
48	0xbdfcee12	-0.12350096
49	0x3e2ad044	0.1668101
50	0x3e82a46e	0.25516075
51	0xbe25a75f	-0.16177128
52	0x3e37b0d3	0.17938547
53	0x3e71e19d	0.23621221
54	0xbd5fc706	-0.054633163
55	0x3ebb5af7	0.36592838
56	0x3d3b4d5f	0.045728084
57	0x3e5a72a7	0.21332799
58	0x3eac66ac	0.33672082
59	0xbe983161	-0.29725173
60	0x3ec65504	0.38736737
61	0xbde4e8a5	-0.11177186
62	0xbe28c6ce	-0.16482088
63	0x3eaadea4	0.33372986

network_body._body_endoder.seq_layers.2.weight f4 [64, 64]
0	0xbe24332a	-0.16035143
1	0xbefb77d7	-0.49114868
2	0x3cea9d97	0.028639598
3	0xbe0010ae	-0.12506363
4	0x3db8291d	0.08992217
5	0xbe98c916	-0.29840916
6	0xbeaefb83	-0.34176263
7	0xbda6cd34	-0.08144608
8	0x3ef55b15	0.47921053
9	0xbe2c3809	-0.1681825
10	0xbdd5b001	-0.10433961
11	0xbd83581a	-0.064132884
12	0xbdeb8a48	-0.115009844
13	0xbb692356	-0.003557404
14	0xbdd54c55	-0.1041495
15	0x3e221c62	0.1583114
16	0x3def66e4	0.11689547
17	0xbdbba2e9	-0.09161932
18	0xbe8194ba	-0.25308782
19	0xbd891214	-0.06692901
20	0x3c41fa34	0.011839438
21	0x3de12466	0.109932706
22	0x3ea63acf	0.32466742
23	0xbae294da	-0.0017286793
24	0xbd5a24d7	-0.05325779
25	0x3e485cdc	0.19566673
26	0xbe8e3c56	-0.27780408
27	0xbd6dc88a	-0.058052577
28	0xbeaab815	-0.33343568
29	0xbdb3ed40	-0.08785486
30	0xbe5fd721	-0.21859409
31	0x3db3bb5a	0.08775969
32	0x3d84f7ad	0.06492553
33	0x3db076ad	0.086163856
34	0x3d18f5a4	0.037343636
35	0xbe3289eb	-0.17435424
36	0xbee576d0	-0.4481721
37	0x3e5aaad3	0.21354227
38	0xbdc1f01f	-0.094696276
39	0x3e5764ae	0.210345
40	0x3bc5aee3	0.006032811
41	0x3e645922	0.22299626
42	0xbec9464e	-0.3931145
43	0xbe396eb6	-0.18108639
44	0xbd6292d8	-0.055315822
45	0xbed5a711	-0.41729024
46	0xbdb72f9f	-0.0894463
47	0xbe88848c	-0.26663625
48	0x3c0d712b	0.008632938
49	0x3ed8ce0d	0.42344704
50	0x3e48d932	0.19614103
51	0xbe5707e0	-0.20999098
52	0xbee22400	-0.4416809
53	0xbe14a65f	-0.1451659
54	0x3d2ac396	0.04169043
55	0xbe83d3ff	-0.25747678
56	0xbd9c33c6	-0.076270625
57	0xbcf9ea11	-0.03050712
58	0x3eadb8f0	0.3393016
59	0xbefee877	-0.49786732
60	0xbeac6b5d	-0.33675662
61	0xbd237cc4	-0.039913908
62	0xbe6a0e69	-0.2285706
63	0x3cf6e4c8	0.030138388
64	0x3e100d0a	0.14067474
65	0xbe62e8c3	-0.22159104
66	0x3e2d2dca	0.16911998
67	0x3d9ac129	0.075563736
68	0x3e786d96	0.24260554
69	0x3ec6a6b4	0.3879906
70	0x3e44fa25	0.19236048
71	0xbe67e78c	-0.22646922
72	0xbdc59704	-0.096479446
73	0xbde0a1e5	-0.10968379
74	0xbe15465b	-0.1457762
75	0xbeca71b9	-0.39539889
76	0x3e48343a	0.19551173
77	0x3e05d6f2	0.13070276
78	0xbe00cf2a	-0.12579027
79	0x3da3ad4e	0.079920396
80	0xbe945d38	-0.2897737
81	0x3e0687a6	0.13137683
82	0x3e12361d	0.14278455
83	0xbeb8f00b	-0.36120638
84	0x3e2a1ebc	0.16613287
85	0xbe943a57	-0.2895076
86	0x3dd14ed3	0.10220113
87	0xbe535512	-0.2063792
88	0xbd26541a	-0.04060755
89	0xbddfbfbf	-0.109252445
90	0xbf180dcf	-0.5939607
91	0x3ed17744	0.40911305
92	0xbe8c1535	-0.2735993
93	0x3e0ec264	0.13941342
94	0x3db22df4	0.08700171
95	0xbe45518e	-0.19269392
96	0xbe8411b6	-0.25794762
97	0x3e5217d3	0.205169
98	0x3d44edc4	0.048078313
99	0x3dee9b26	0.11650686
100	0x3ca59b31	0.020215603
101	0x3e37e0d0	0.17956853
102	0x3de4c43c	0.11170241
103	0xbdf137e2	-0.11778237
104	0xbdcae0c0	-0.09906149
105	0xbe598faf	-0.21246217
106	0x3e8a0b80	0.269619
107	0xbdb4e0ba	-0.08831926
108	0xba14eaa2	-0.0005680715
109	0xbe19fabe	-0.15037057
110	0x3e1945ec	0.1496808
111	0xbed45adf	-0.4147558
112	0x3da204f5	0.07911102
113	0xbd2c3471	-0.0420422
114	0xbdf87bf9	-0.12133021
115	0xbe9a7ede	-0.30174917
116	0x3e8fe1e0	0.28102016
117	0x3e84b78f	0.25921294
118	0x3d9646c1	0.07337714
119	0x3d5fcff5	0.054641683
120	0x3d527c98	0.051388353
121	0xbe50c7e3	-0.2038875
122	0xbc354f8d	-0.01106633
123	0x3ed1646d	0.4089693
124	0xbdbebbd6	-0.093131706
125	0x3cababbe	0.020955916
126	0xbd5514f9	-0.052021954
127	0x3cc75628	0.024333075
128	0xbe91a104	-0.28443158
129	0xbe37a93e	-0.17935655
130	0x3eb9db8a	0.36300308
131	0x3ce7d5bd	0.02830016
132	0x3ee9f0e1	0.4569159
133	0xbe120e16	-0.14263186
134	0xbd7a904d	-0.061172772
135	0x3d861477	0.06546872
136	0x3ec8a337	0.39187023
137	0x3ebbcd16	0.36679906
138	0xbf21f06b	-0.63257474
139	0x3e1fc05f	0.15600727
140	0xbf199819	-0.5999771
141	0xbdb5f3e8	-0.08884412
142	0x3e401ae5	0.1876026
143	0x3df109ff	0.11769485
144	0xbf4886a6	-0.7833046
145	0xbcee3098	-0.029075906
146	0xbec0761e	-0.37590116
147	0x3e93fce5	0.2890388
148	0x3db56daa	0.088588074
149	0xbe32c7bd	-0.17459007
150	0x3e883c9e	0.26608747
151	0xbe9ad78a	-0.30242568
152	0x3dae4bc2	0.085105434
153	0xbe67ee2f	-0.22649454
154	0x3d386673	0.04501958
155	0xbed7f9da	-0.4218281
156	0x3ec43c33	0.38327178
157	0xbd874e33	-0.06606712
158	0x3ec60b6d	0.38680592
159	0xbe7358e8	-0.23764384
160	0xbe8b651c	-0.27225578
161	0x3ebad165	0.3648788
162	0xbde8dadd	-0.1136987
163	0xbe967bbd	-0.2939128
164	0xbbb38ea6	-0.0054796515
165	0x3d38f277	0.045153107
166	0x3e61994c	0.22031134
167	0xbe8e54a0	-0.2779894
168	0xbea6a238	-0.32545638
169	0x3e80ec2f	0.25180194
170	0x3ea8b3cf	0.32949683
171	0xbe8d1df2	-0.2756191
172	0xbdac3c42	-0.08409931
173	0x3e996daa	0.2996648
174	0xbd0d5454	-0.03450425
175	0xbd5da47a	-0.054111935
176	0x3e372e9a	0.17888871
177	0x3e8d6a5c	0.27620208
178	0x3e1942ed	0.14966936
179	0x3e0f7dcd	0.14012833
180	0x3e9c0a3d	0.3047656
181	0x3e86db58	0.2633922
182	0x3d685b07	0.056727435
183	0xbd3b1430	-0.04567355
184	0xbe7d752a	-0.24751726
185	0xbe948eb8	-0.29015136
186	0x3d561892	0.052269526
187	0xbe280c4c	-0.16410941
188	0x3d2521ee	0.04031556
189	0x3d71d17b	0.059037667
190	0xbeb88d60	-0.3604536
191	0xbf006ab2	-0.50162804
192	0x3d34322f	0.04399317
193	0x3e18ae35	0.14910205
194	0xbeadbd01	-0.3393326
195	0x3e99c35b	0.30031857
196	0xbe9ea147	-0.3098242
197	0xbea878ba	-0.32904607
198	0xbd722791	-0.059119765
199	0x3dd46257	0.10370319
200	0x3e89c900	0.26911163
201	0x3c41de32	0.011832761
202	0xbe06f4fc	-0.13179392
203	0x3ee307ed	0.44341984
204	0xbe2c301d	-0.16815229
205	0x3d9d65f9	0.07685465
206	0x3db5c295	0.08875004
207	0x3d5fda4c	0.054651543
208	0xbc3526a1	-0.011056573
209	0xbeaa8254	-0.33302557
210	0x3e559eca	0.20861354
211	0xbdd4dd80	-0.1039381
212	0xbe67a52f	-0.22621606
213	0x3ef89020	0.4854746
214	0x3c3842b0	0.011246368
215	0x3eb26f75	0.3485066
216	0xbe006b16	-0.1254085
217	0xbe541dcb	-0.2071449
218	0x3e3732f8	0.17890537
219	0xbe0146dd	-0.12624688
220	0x3e3193e8	0.17341578
221	0x3e4e0bca	0.20121685
222	0xbf0807e6	-0.5313705
223	0x3e325b92	0.17417744
224	0x3d0946c7	0.033514764
225	0xbeb4d37f	-0.3531761
226	0x3ea912db	0.33022198
227	0xbe0a8cf5	-0.13530333
228	0x3e274086	0.16333207
229	0x3c68e7d5	0.014215429
230	0xbf350806	-0.7071537
231	0x3e2f05a8	0.17092001
232	0xbd17d803	-0.03707124
233	0xbdad0285	-0.08447746
234	0xbef9718a	-0.48719436
235	0xbe443fe6	-0.19165
236	0xbeb27762	-0.34856707
237	0x3dc823b1	0.097724326
238	0x3e8d5aa5	0.2760822
239	0xbe8cab3b	-0.27474388
240	0xbbf360c5	-0.0074273073
241	0xbe810db4	-0.25205767
242	0xbecd776b	-0.4013017
243	0xbcbea54d	-0.02327218
244	0xbdb010ef	-0.0859698
245	0x3dc1d983	0.09465315
246	0xbe4c09e0	-0.19925642
247	0x3e0e1cc0	0.13878155
248	0x3e3364b0	0.17518878
249	0x3d24d401	0.040241245
250	0xbea01db9	-0.31272677
251	0xbe393b93	-0.18089132
252	0x3e9eff10	0.31053972
253	0xbee137bd	-0.43987837
254	0x3e4688c2	0.19388106
255	0x3dfb4b57	0.12270229

network_body.observation_encoder.processors.0.normalizer.running_mean f4 [11]
0	0xc199e972	-19.238987
1	0x4294f2e7	74.47442
2	0x41b4ad46	22.584606
3	0xbbae798e	-0.005324549
4	0xbd4d7069	-0.05015603
5	0x3d40b331	0.04704589
6	0xbd4f9217	-0.05067643
7	0xc192e213	-18.360388
8	0x42894dcb	68.65194
9	0x41afdbce	21.982327
10	0x3dd485a0	0.103770494
